Puff-Net/model/base_iter_5000.pth (torch, 598545 bytes, 28 tensors)

pre.0.weight f4 [32, 3, 1, 1]
00000000: 28a3 11bf bf1c c6be 2661 e3be ffc0 acbe
00000010: 36db 05bf 42d5 2e3d bb1a 7ebe d045 9dbe
00000020: ec26 01bf 4654 2cbe 2653 f03e df39 44bd
00000030: 272e 44be 5f9e 19be 4805 563e e524 3d3e
00000040: b087 053e 613c 03be 8f01 06bf c6ae 833d
00000050: ab71 073f 382d 0c3f d2f3 c83e 630d a43e
00000060: 93a2 10be 4d55 abbd ba6f 89be 6c38 e9be
00000070: 2784 09bf 42c7 e3be a764 f93d ee30 2bbe
00000080: 7100 9b3e 96ef 0e3e cf2d 0c3f fb05 a73e
00000090: 6b1a a8be 8267 173e 3b38 f1bc 2a48 44bd
000000a0: ad48 03bf 6e45 1dbe 321d 003f 20b3 e23d
000000b0: 5c9a bd3e 3f49 61be a341 bc3d 1288 9bbe
000000c0: c8ca ba3e e625 f3bd b207 09be ebd3 443e
000000d0: 7ac8 98be c946 6d3e 6eb2 e2be 45d5 76be
000000e0: b532 3e3e 6a93 33be b2f8 ce3e 596d 0a3e
000000f0: 6a83 c93d cdd2 b2be 21c8 55bd fee9 68be
00000100: 805c 30bc 116c c0be f1b4 07be c3aa 0cbf
00000110: a68e acbd de55 ad3d 76db 04bf 4e0c e23e
00000120: 8271 53be a854 09bf e355 dfbe fd41 88bd
00000130: 560b 88be 4155 c2be f1c4 0f3e 74cf 52be
00000140: 1ba2 ac3e 773d 66bd be90 6e3e 07c3 dabe
00000150: 42eb c33e 1ad3 89be 5a90 cfbe 529a 87be
00000160: 05e7 11bf c22e 8ebe 14e3 a3be 1a70 e53e
00000170: 80d7 cbbe 0cb8 993d e8e4 b23e 14bf b53e
-0.5688958 -0.38693807 -0.44410056 -0.33740994 -0.52287614 0.042683847 -0.24814884 -0.30717325
-0.50450015 -0.16829023 0.46938437 -0.047906753 -0.1915823 -0.1500182 0.20900452 0.18471105
0.13040042 -0.12816001 -0.5234613 0.0642982 0.5290782 0.547565 0.3924852 0.32041463
-0.14124517 -0.08365879 -0.26843053 -0.4555086 -0.53717273 -0.4448796 0.12177401 -0.16717884
0.30273774 0.13958582 0.547574 0.3262175 -0.32832655 0.14785579 -0.029445758 -0.047920384
-0.5128277 -0.15358517 0.5004455 0.11069322 0.3703183 -0.22000597 0.09192207 -0.3037725
0.36482835 -0.11872463 -0.13381842 0.19221465 -0.2984045 0.23171534 -0.44276756 -0.24104793
0.1857403 -0.17536703 0.40424114 0.13518275 0.09839518 -0.34926453 -0.05219281 -0.22745511
-0.010764241 -0.37582448 -0.13252617 -0.5494806 -0.084256455 0.084636435 -0.5189737 0.44150013
-0.20648769 -0.536448 -0.43620214 -0.06653211 -0.2657115 -0.3795567 0.14039971 -0.2058695
0.33717427 -0.05621096 0.23297402 -0.4272692 0.38265425 -0.2691887 -0.4053982 -0.26484925
-0.5699313 -0.27770048 -0.32009184 0.4481209 -0.3981285 0.07505807 0.34940267 0.35497344

pre.0.bias f4 [32]
00000000: 67a4 f3be 45cd 5a3e cf8b cc3e 530f 253e
00000010: 3024 063e 86cf b63e d931 fe3e ebaf ac3c
00000020: 221e 9dbe 4088 90be 1413 f13e a490 a8be
00000030: 0b7d 80be 7224 b2be f222 f3be 48c7 e63e
00000040: 1a5e d0be c7c0 b9be 2828 003f a04c 0b3f
00000050: d834 0d3f 8a86 edbe 57ba 8f3d e933 c6bd
00000060: 0f80 403e 4fee efbd 5051 08bf 68d3 0a3f
00000070: f54f a83c 4016 84be c7fd aa3d 15e3 17be
-0.47586367 0.21367367 0.39950415 0.16119127 0.13099742 0.35705203 0.49647406 0.021079978
-0.30687052 -0.2822895 0.47084868 -0.32922852 -0.250954 -0.3479343 -0.474876 0.45073915
-0.40696794 -0.3627989 0.50061274 0.54413795 0.5515876 -0.46391708 0.070179634 -0.0967787
0.1879885 -0.11715376 -0.53249073 0.5422883 0.020545939 -0.25798225 0.083491854 -0.14832719

pre.2.weight f4 [64, 32, 1, 1]
00000000: a228 d13d e3b8 4d3e 4d61 db3c 9fea a73d
00000010: 5c34 74bd 91a1 6fbd 42cb 993d 72fa 85bd
00000020: 2877 1e3c e4f6 20bd 2c7d d0bd 8b29 23be
00000030: 16dd 843d 34e0 4dbd 501e dcbd 385f b93c
00000040: d953 263b 5e2b 433c 0b2d 08bd 51ec ecbd
00000050: b494 a6bd 3588 523c c3b9 03bd 5cf4 e63d
00000060: 890d 013e c935 b73d cf8b 95bd 9e0c e4bc
00000070: eed1 2e3e f924 e93d 260b 75bd 327a 6bbd
00000080: bd6e 053e e0bb 203e db27 8e3d b4ef 973d
00000090: e912 113e 1ba9 3cbd ae84 133d f452 e13c
000000a0: 1b8f 063e c425 f8ba d072 1dbd eea5 89bd
000000b0: af9d 7dbd bc3e bfbd 5e17 083e bef8 c23d
000000c0: a5f8 2bbe 595d 2c3e b813 1abd 719f 1c3d
000000d0: 45de 043e e606 313e e5c1 8b3d 1e73 043e
000000e0: 45cf 2e3d c457 683d 42cb 96bc 5f25 ed3d
000000f0: c0e7 61bd f933 a8bd 0574 98bd fdb1 453d
00000100: e608 433c fd5c cebd 60cf f63d c307 d4bc
00000110: bb88 cabd 8824 20be 835e 913d 4c4c 273e
00000120: b737 893d eaeb 49bd 4776 bcbd 1f27 14be
00000130: 0fd5 9e3d 1e39 2e3e 9c16 21be 6716 a83c
00000140: 7a61 c93c 2f48 04be 8bc2 223e a1c2 053e
00000150: 4585 15be 70c6 1dbe fa83 91bd 983f b63d
00000160: 8a3c b4bd 7ae0 043d e4d9 163e 4880 0f3e
00000170: 627b 993d 7a42 c83d bda6 9dbb 6251 403a
00000180: 41bd 19be de6c 373e 7c1c 8a3d e03f cbbd
00000190: 5421 363e ec84 253e d18f e13d 563b c8bd
000001a0: 7bc0 023e c486 f5bc 51e0 223d 7da6 b5bd
000001b0: 2d01 debc 697c 04be 14f3 f83d 5ac7 80bd
000001c0: aa94 a33d 830c ba3d e766 c1bd 8a16 34be
000001d0: cfec 653d d466 f0bd 2bac 8f3b e08c 4fbe
000001e0: 4b11 203e b138 763d 8163 bbbd b5de 803d
000001f0: 43af 623d c49b 2abe 9d8d 04bc cd0b 35be
00000200: 9a8f 2fbe f438 e43d aa1d 8f3b 034e 2abe
00000210: 0c64 e0bb 4e04 e73d a8ae 143d 4d39 39be
00000220: 63f0 d83c 6e04 483d 0404 533d e413 e9bc
00000230: cb16 313e 1659 fabd 55e7 1abe 0189 1d3e
00000240: bef7 69bc 9d97 f13d 3115 bebd 86c9 183e
00000250: 79f0 eb3d 4955 b73d 5297 2a3e cfd7 1b3e
00000260: 6d9a e1bd e28a 8abc c67f 663d 1933 f13d
00000270: 8975 083e c0c8 1cbe d07d 30be 48f1 10bd
00000280: 35c8 02be 70d0 fcbd adaf 343e 3396 193d
00000290: 638e af3d b6b7 013e 27a0 1d3d d852 a5bc
000002a0: c664 9cbd d259 603d def1 5ebd c3cf acbd
000002b0: faf0 a53d fdc5 033d 63cd a7bc 3217 23be
000002c0: 624d 9cbd 92b2 05be 8cb6 c8bc 1b3e 30bd
000002d0: 447d 13be 14ac ffbd b64c 0b3e c808 2d3d
000002e0: b44e 0c3e 2e8c a5bc 97dc f9bd 1151 62bd
000002f0: 6076 243e 1dc9 04be 098f 6dbb 7bcb 30be
00000300: 0f9f 973d b34b ea3c ea88 36be 08d0 32be
00000310: 575f 0ebe 36d8 46bc 552f ee3d 59e7 36be
00000320: 2959 0fbc 31a1 c3bd 3b92 1c3e 88f6 4d3d
00000330: 3b2a 013e fcde 523d 7ad4 8f3d e3bd e53d
00000340: 0247 1f3e 508a 243e 4fdc 48bc 25db 19be
00000350: 091f acbc 78da de3d b4b3 f0bd 3813 c53d
00000360: 1345 f43d 9c02 1b3e dbf3 313e feec 17bd
00000370: 514c 95bd e525 34be 816a b6bd cb78 cb3d
00000380: 1d8b d0bd a2dc a93d c2fb bcbd 054b 41bd
00000390: d299 06be 277c 98bc 45e6 94bd 0d89 af3d
000003a0: d2ef 63bd 9149 f1bd 6b82 81bd 7058 2f3e
000003b0: 7f42 343b a919 09be e118 a0bd 9f53 863b
000003c0: 66f8 733d 247e ccbd 6d38 32bd 62d7 043e
000003d0: 96a0 2cbe 9b1d 213e 7d80 e43d 9b9d f8bd
000003e0: 5186 1bbb ee20 0c3e aa78 0abe 9cd4 1dbe
000003f0: 8b6c d2bc d9db ebbc 43c0 adbd e4a7 2d3d
0.10212828 0.2009006 0.026779795 0.08199047 -0.059620246 -0.05850369 0.075094715 -0.06541909
0.009671964 -0.039297953 -0.10180125 -0.15933816 0.06487481 -0.050262645 -0.10747969 0.022628412
0.0025379567 0.011912195 -0.03324608 -0.11568511 -0.081338316 0.012849857 -0.032159578 0.112770766
0.1260282 0.089458056 -0.07302057 -0.027838048 0.1707227 0.11384005 -0.059825085 -0.05748958
0.13030525 0.15696669 0.069411956 0.074187666 0.1416737 -0.04605971 0.036015205 0.027505375
0.13140528 -0.0018932153 -0.03843957 -0.06721102 -0.061917957 -0.093381375 0.13290164 0.095201
-0.16794069 0.16832484 -0.03761646 0.038237993 0.12975414 0.17287788 0.06824092 0.12934539
0.042678136 0.056724325 -0.018407468 0.115793936 -0.055152655 -0.08213038 -0.07444004 0.048265446
0.011903977 -0.1007633 0.120512724 -0.025882607 -0.098893605 -0.15638936 0.07098105 0.16337699
0.0670008 -0.04929725 -0.09202247 -0.14468049 0.077554815 0.17013976 -0.15731281 0.020518495
0.024582613 -0.12918161 0.15894525 0.13062526 -0.1460162 -0.15407729 -0.07105251 0.08898848
-0.088006094 0.03244064 0.14731556 0.14013779 0.074942365 0.097783044 -0.0048111365 0.0007336346
-0.15013601 0.17912623 0.06743714 -0.099242926 0.17786151 0.16163987 0.11013759 -0.097769424
0.12768738 -0.029971488 0.039764706 -0.08869646 -0.02710017 -0.12938084 0.121557385 -0.06288023
0.0798734 0.09084418 -0.09443455 -0.17586723 0.05613404 -0.11738363 0.0043845377 -0.20268583
0.15631597 0.06011266 -0.09149838 0.06292478 0.055342924 -0.16660982 -0.008090404 -0.17680283
-0.17144623 0.111436754 0.00436755 -0.16631322 -0.006847864 0.11280118 0.036299378 -0.18088265
0.026481813 0.04883235 0.0515175 -0.028451867 0.17293851 -0.12224023 -0.15127309 0.15384294
-0.014280258 0.11796496 -0.09281386 0.14920625 0.11520476 0.08951814 0.16659287 0.15219043
-0.110157825 -0.016911928 0.056274198 0.11777324 0.13326086 -0.15310955 -0.17235494 -0.035386354
-0.12771685 -0.12344444 0.1764514 0.037496757 0.0857208 0.12667736 0.03848281 -0.020181105
-0.076364085 0.05477316 -0.05442988 -0.08438065 0.08102603 0.03217124 -0.020483678 -0.15926817
-0.07631947 -0.130564 -0.024501108 -0.04302798 -0.14403254 -0.12483993 0.13603482 0.042244703
0.13701898 -0.020208444 -0.12200277 -0.055253092 0.16060781 -0.12967344 -0.0036248586 -0.17265122
0.07403385 0.02860055 -0.17825666 -0.1746217 -0.13903557 -0.01213651 0.116301216 -0.1786169
-0.008749285 -0.09552229 0.15290157 0.05028394 0.12613766 0.051482186 0.070229486 0.11217859
0.15554431 0.16068387 -0.012259557 -0.15025003 -0.021010892 0.10881513 -0.11753026 0.09622806
0.11927237 0.15137714 0.1737818 -0.037091248 -0.07289947 -0.1759258 -0.08907033 0.09935149
-0.10182784 0.082940355 -0.092277065 -0.047190685 -0.13144615 -0.018613888 -0.07270483 0.08571062
-0.055648632 -0.1178161 -0.063237034 0.1712358 0.0027505455 -0.13388695 -0.07817245 0.004099324
0.059563063 -0.09984997 -0.043510843 0.12972787 -0.16858134 0.1573395 0.1115732 -0.12139436
-0.0023731182 0.13684437 -0.13522592 -0.15413135 -0.025686523 -0.028791355 -0.08483937 0.04239644

pre.2.bias f4 [64]
00000000: 5d08 eabd 279f 56bb 6310 21bd 3743 293e
00000010: 6901 623b 0bab 063e 9aae 223e 1683 c9bd
00000020: f9fe d43d 3b30 8cbc d206 1a3c 0755 21be
00000030: 7187 033e f094 b0bd 2dd3 ecbd 478e be3d
00000040: 9798 f63d a0e0 203e 6f98 c3bd a41c 483c
00000050: dd5d 25be b825 d53b d150 5f3d 72c6 a33d
00000060: 5466 a1bd eea7 30be 9eba 7b3d dd63 1e3e
00000070: 1e0d ca3d 13c9 47bc f0cc 313c cdb9 9d3d
00000080: 34ab 703d f512 893d 2d58 043d e2da 14be
00000090: ee43 203e 6e22 1d3e b1a1 bfbd b9b5 3e3d
000000a0: cd43 8bbd ef1c 3dbd 75af 0f3e e8b7 c2bd
000000b0: 2c04 b5bb fa3f 93bc bdc0 e43d bdb1 133b
000000c0: f26a 0a3e 03a5 26be a0d9 08bc 3c59 a43d
000000d0: d5a8 1abe 46dd 5d3d 6192 d03d 170c 943d
000000e0: 3fb7 2bbd a6cf cf3d 85f9 d73d 218d d8bd
000000f0: 3225 693d baec 333e 097f 3a3c 1da0 c2bc
-0.114273764 -0.003274867 -0.03932227 0.16529547 0.0034485704 0.13151185 0.15886918 -0.09839456
0.10400195 -0.017112842 0.00940104 -0.15755092 0.12844636 -0.086221576 -0.11563716 0.09304481
0.12040823 0.15710688 -0.09550559 0.01221386 -0.16149087 0.0065047406 0.054520432 0.07996835
-0.07880846 -0.1725156 0.06145727 0.15467782 0.09865783 -0.012193936 0.010852084 0.07701454
0.058757022 0.06693069 0.032310653 -0.14536622 0.15650913 0.15345165 -0.09357012 0.046560023
-0.06800041 -0.04617017 0.14031775 -0.095077336 -0.005524179 -0.017974842 0.111695744 0.002253636
0.13517359 -0.16273884 -0.008352667 0.080248326 -0.15103467 0.0541661 0.101841696 0.072288685
-0.041922804 0.10147028 0.10545639 -0.10573793 0.056920238 0.17570773 0.011382827 -0.023757989

pre.4.weight f4 [64, 64, 3, 3]
00000000: 4d4c f3bc 58b7 2e3c 00a5 c3bc 9ca9 0ebc
00000010: 75b8 153d 1782 813c e503 403c ba45 363a
00000020: bcd2 cb3c 8026 0cbd c325 a83c 586e b0bc
00000030: 0c6c 5fbc 89b7 033d a5a9 2a3d 6fa1 ec3c
00000040: 75f4 4fbc 0327 173c a6da 15bd 9120 9a3b
00000050: ef47 f23c f5e7 59bc 05b6 95bc 6fce 1a3d
00000060: b0a1 a03b e3cb d0bc a9cd a93c e476 143c
00000070: b29a 2dbd aed2 fb3b 9b4e b1bb e970 573c
00000080: 9a29 143c c349 dbba 09af 9fbb 99ea 41bc
00000090: 7b74 06bd 24e2 1fbd 0cae 44bc 8722 eabc
000000a0: 7e77 ddbb 7477 2c3d 462d b23c b887 fc3c
000000b0: 9e78 003d c80f 3bbd 3e49 18bd b998 b4b8
000000c0: 5e85 17bd 452b 04bc 38f2 d7bc a3d7 1cbd
000000d0: 705a b83b 411e a43c fcd1 db3c b20b 803c
000000e0: df3d 9b3b 46d2 23bc 9b6f e13c 9a7b 74bc
000000f0: bf93 31bd 0db1 53bb 3cd6 333b 77e9 edbb
00000100: a599 583c 149e a13c 61a2 83bc a0ad 0fbd
00000110: e860 da3b f0a3 e0bc a617 3fbd 2da4 2ebd
00000120: b62d 233a ab36 87bc c68e ff3b d828 0a3d
00000130: 4c94 3eb8 5b17 433d d7da 9abc 6fe2 dfbc
00000140: 1f0c 113c 6bfc ff3b 51b0 553c d763 0ebd
00000150: 5f6e 27bd b9e3 31bd ea57 033d 0306 183c
00000160: 3489 0ebb 2912 f0bc 6a84 d23c 85fa 723c
00000170: 0137 24bb 1c96 bfbb 1126 8038 3de9 3f3b
00000180: 185d 183c 4103 f13b e852 b73c dc47 723b
00000190: 157a e8bc e347 043d 3fc4 cfbc 069d 9d3b
000001a0: a8c6 123d 489e 1b3c c3b9 95bc d59d babc
000001b0: ce01 403d b1eb ae3b 808d 0d3c 8fd9 18bd
000001c0: 866d d83b 818d d5bc 9fda 023d fa8b ba3b
000001d0: 57cf 14bd 65cf 25bd 161c 6139 c8c0 e53c
000001e0: cc73 1bbd bb9a 273d 8e91 c1bc 4f82 0dbd
000001f0: 2a94 00bc 5bc3 1a3d 677a 2e3d 5520 75bc
00000200: f9c2 803c c329 08bb 66a3 c53c 583b e63c
00000210: 6271 b2bb dec0 a2bc ea0a f63c 126e 1abd
00000220: caa1 07bd 7b5b 29bd 2e4b 0b3d e83f f43c
00000230: 6a62 fcbc 2db4 47bc 8260 eebc cc62 00bd
00000240: b828 1ebd bbb2 24bd 3fae d83c 7942 27bd
00000250: 4d60 9039 57a8 0cbb 7368 903c 35ed 9cbc
00000260: c42d 0b3c e14f 18bd 2782 393c 0875 b239
00000270: 88bd fb3b 1977 363d 4633 0dbd fe80 4f3c
00000280: 6d3f 5cbc 1ba0 c03c 5dd1 51bc 933f 043c
00000290: 328b 37bd 7615 393c 4f5f 153c a320 d0bc
000002a0: d9f0 1bbd 5c4e 053d 4da5 293c c6d9 df3c
000002b0: b8b0 023c c743 06bd a679 883c 4e44 c03c
000002c0: 9337 133d 462f a8bb 38ef dabc ac17 cfbc
000002d0: 86fb 6abc 2eaf 003d c415 8ebc 2086 f6bc
000002e0: b64c 173c 5b65 d5bc d5c9 21bc 3675 a93c
000002f0: 27af b5bc 722e 21bd cba4 acbc d6c5 17bc
00000300: 6b24 53bc 549c a8bc d4f4 27bd bbab 103c
00000310: d0b9 5abc db34 18bc 1d59 043d 5130 9fbc
00000320: b8e2 2dbd 8f91 cfbc 8bcc d13a 5d51 e3bc
00000330: 2ecc f43b 1cd8 fb3c 6218 f1bc 82a3 113d
00000340: 2410 fd3c c570 233d 4505 f9bb dc0f fdbc
00000350: c26e a33c 909b edbc 8283 2b3d b076 233c
00000360: 2cb9 e5bc 23ce bd3c 846f 0ebd b9c0 863b
00000370: ad45 d93c fdae 25bb ce49 1abd c54e bcbc
00000380: 997d 2bbc 8ab1 33bc 2be6 7ebc 2219 cabc
00000390: 34cf e6bc 7d6b bebc 42fd bdbc c527 92bc
000003a0: 9aba 2fbd 85c5 c93c 0855 dd3c 32ff 223d
000003b0: 7489 093d d455 2cbc f373 89bb edf4 a8bc
000003c0: b2b2 efbc 7bb3 12bd 01da acbc 2a42 21bd
000003d0: 7da6 25bd f196 9e39 36cf 9838 caa0 30bd
000003e0: 1728 e7bc e497 043c fd79 1a3d abf5 bb3c
000003f0: 404e e6bc b23b 6abc 8696 143b 3f3a 193d
-0.029699469 0.01066383 -0.023882389 -0.00870743 0.036552865 0.015809102 0.0117196785 0.0006953139
0.02488076 -0.034216404 0.020525819 -0.021536991 -0.0136366 0.032157455 0.041665692 0.028885571
-0.01269256 0.00922561 -0.036585473 0.0047035892 0.029575316 -0.013299932 -0.01827527 0.037794527
0.004902087 -0.025487846 0.02072795 0.009061549 -0.042383857 0.007685027 -0.005410982 0.0131494785
0.009043122 -0.0016730357 -0.0048731607 -0.011835718 -0.03282593 -0.039034024 -0.012004387 -0.028580917
-0.0067586293 0.042106107 0.021750104 0.030826434 0.03136503 -0.045669347 -0.037179224 -8.611516e-05
-0.036992423 -0.008066957 -0.026360616 -0.038291585 0.0056260154 0.020033957 0.026833527 0.015630577
0.0047376 -0.009998864 0.027519038 -0.014922047 -0.043353792 -0.0032301575 0.0027440926 -0.007260497
0.013220225 0.019728698 -0.01606864 -0.03507769 0.006664384 -0.027421921 -0.046653412 -0.04263704
0.0006224768 -0.01650556 0.0077990023 0.033730358 -4.5437642e-05 0.047629695 -0.01890318 -0.027329652
0.008852988 0.007812073 0.013042525 -0.034763183 -0.040876742 -0.043430064 0.032066263 0.009278777
-0.002174926 -0.029305534 0.025697906 0.014830236 -0.00250572 -0.005846752 6.110606e-05 0.0029283308
0.009299539 0.007355124 0.0223784 0.00369691 -0.028378526 0.03229512 -0.025362132 0.0048099784
0.035833985 0.009498186 -0.018277055 -0.022780338 0.04687672 0.005338155 0.008639693 -0.037316855
0.006604853 -0.02606845 0.031946775 0.005692956 -0.036330547 -0.04048099 0.00021468135 0.028046027
-0.03795223 0.040919047 -0.023628976 -0.0345481 -0.007847825 0.03778396 0.0425972 -0.014961322
0.01571797 -0.0020776845 0.024125766 0.02810447 -0.005445645 -0.019867357 0.030034501 -0.037702627
-0.03311328 -0.04134701 0.034007244 0.02981563 -0.030808646 -0.012188953 -0.029098753 -0.03134422
-0.03861305 -0.040209513 0.026450275 -0.040834878 0.0002753757 -0.0021462643 0.01762793 -0.019156078
0.008494798 -0.037185553 0.011322535 0.00034038 0.007682506 0.044547174 -0.034472726 0.0126650315
-0.013442856 0.023513844 -0.012806264 0.008071798 -0.04481048 0.011296621 0.009116962 -0.025406187
-0.038071487 0.032545432 0.010354352 0.027325522 0.007976703 -0.03277948 0.016659569 0.02347007
0.03594167 -0.0051325886 -0.026725397 -0.025279842 -0.014342194 0.031417064 -0.017344363 -0.030093253
0.009234598 -0.026049307 -0.009874781 0.020685773 -0.022178246 -0.039350934 -0.021074673 -0.009263476
-0.012887101 -0.020582356 -0.04100497 0.008830006 -0.013349965 -0.0092899455 0.032311548 -0.019432219
-0.042452544 -0.025337962 0.0016006393 -0.027748758 0.007470629 0.030742697 -0.029430572 0.035556324
0.030891486 0.039902467 -0.007599505 -0.030891351 0.019950274 -0.029004842 0.041873462 0.009977028
-0.028042398 0.023169583 -0.03477432 0.00411233 0.026522482 -0.0025281303 -0.037668042 -0.022986779
-0.0104669565 -0.010967622 -0.015557806 -0.024670187 -0.028174974 -0.023244614 -0.023192052 -0.01784123
-0.042902566 0.024630317 0.027018085 0.039794154 0.03357835 -0.01051851 -0.0041947304 -0.020624602
-0.029260013 -0.035815697 -0.021100046 -0.03936974 -0.04044198 0.00030248569 7.286521e-05 -0.04312209
-0.028217359 0.008092854 0.037713993 0.022944292 -0.028113484 -0.014296459 0.0022672727 0.037409063

pre.4.bias f4 [64]
00000000: fb5a 083d f8c6 a63c bca2 493c 7ab1 0ebd
00000010: 437b a43b 90c1 74bc 099f 253c d3f9 06bd
00000020: 447a fdbc 4375 953c c32f 51bc b972 243d
00000030: 14d9 c3ba 0b09 003d 460e dcbc 7434 813c
00000040: f00b f9bb 603d 1cbc 8ca5 0abd ff19 f23c
00000050: 8664 2abc 092d a73c f8f8 1dbd 8e6f 47bc
00000060: 1635 c1bc 9576 8ebc e79d 193d 9cd2 5e3c
00000070: 07d5 a0bc e974 5d3c 84e5 88bc ac45 af3c
00000080: c69c 153c 3e2f 993b 1db1 a4bc bd33 1d3b
00000090: 2913 55bc 5c17 d63c 587c febb a039 13bd
000000a0: 40fc b13c ad07 223c 9a2e c5bb 216c d0bc
000000b0: bc0d dabc d0f0 c0bc 6a10 ce3c 0f3a e8bc
000000c0: 27ce 8e3c 593c 1c3d 87e4 de3c 360e b7bc
000000d0: 3476 913c 03e0 b3bb 2201 29bb b605 fbbc
000000e0: 6354 0abd 8717 263d c815 103d 1066 73bc
000000f0: 8c35 93bc 5ab2 16bd 6543 df3c b7c4 fa3c
0.03328989 0.020358548 0.012306865 -0.034837224 0.0050195768 -0.014938727 0.010108718 -0.032953095
-0.03094209 0.018244391 -0.012767735 0.04014847 -0.0014942014 0.031258624 -0.026862275 0.015772082
-0.0076003 -0.009536117 -0.033849284 0.029553412 -0.010399943 0.020407217 -0.038567513 -0.012172593
-0.023584884 -0.017390529 0.037504103 0.013600018 -0.01963283 0.013516643 -0.016711004 0.021395527
0.009131616 0.004674821 -0.020103985 0.0023987137 -0.013005056 0.026134185 -0.007766288 -0.035943627
0.021726727 0.009889525 -0.006017518 -0.025442185 -0.026617877 -0.023552328 0.025154311 -0.028347997
0.017432285 0.03814349 0.02720858 -0.022345643 0.017756559 -0.0054893508 -0.0025788029 -0.030642372
-0.033771884 0.04054978 0.035177022 -0.014855877 -0.01796987 -0.036791183 0.027253816 0.03061138

post.0.weight f4 [32, 64, 1, 1]
00000000: 6a58 3bbd a489 b1bd d22c 353d 4b79 cc3d
00000010: 0074 5e3d 76d0 6d3d ba38 ab3d 1685 81bd
00000020: 8f5f ccbd 6e0a b9bd 6a05 1dbb 0f5e e73d
00000030: ddc1 e83d 618a 01be cd0c b43d 7184 d93d
00000040: 2246 dcbb a64e d1ba 9f8f b7bd a5a7 423d
00000050: 3799 883d 3c9b 11bd f0ec ebbc e944 de3d
00000060: d1ef 8b3c 1502 7b3d dc01 a43d 736c a53c
00000070: 8600 553d d0bd 5dbc cb33 d9bd 06ea 01bd
00000080: 02fd a43c 6496 5abd 32ff f5bd 553b e2bd
00000090: 17c8 5d3d 2fee 0fbe 1fb7 713d d379 553d
000000a0: 6f00 fd3d a55c 45bc 7f58 b0bc 5736 28be
000000b0: d05c 9d3d 319f 3fbd 9ba8 f2bd 4cb6 bb3c
000000c0: c602 d4bd e416 30bc c2cc 0d3a 12df 81bd
000000d0: 649e 99bd a222 e1bd 7ce0 343d dbac 04be
000000e0: 18d5 7dbd 84c3 68bd 7713 ccbb aeba aebd
000000f0: 0ae0 3dbc ce3f 0b3d 7ce3 d03c 3bdf 04be
00000100: 3ba2 4ebc dfb4 193b edb6 18bc 9281 073e
00000110: 7b28 983d 790d 06be 88ac d03d 2ba1 9ebd
00000120: 07cb 01be 8b2c 98bd d7c0 94bd 032b 313d
00000130: 7d8c 0cbe 6cca 863d 23da 9ebd 36f6 cfbd
00000140: 3277 233c 7ae3 efbd dfb2 b9bc 865b f4bd
00000150: c4ea fcbd 0f39 d9bd 630e afbd 80f3 63bd
00000160: 4eb4 a8bd d66e 08be 8253 0a3c 1904 69bd
00000170: 1638 a0bd 78a8 93bd f24b 0fbd d8d4 a8bd
00000180: 9fd4 1b3c 77f2 b3bd bea5 b83c 2fa0 f7bd
00000190: 24fd d13c 9240 1a3e 3b10 edbb 38e2 983c
000001a0: dce8 2ebc 9b4d 7fbc 82eb 3ebd b5c8 8ebd
000001b0: abeb c2bd 3f27 703d 6ed8 91bd bfa8 c53c
000001c0: 9d2e 76bd 68ca 463d c0ea 0e3d c8e4 04bd
000001d0: 6c48 043d e5ce dabb 3e3e 853c d593 d83d
000001e0: f851 92bd ffd4 fe3d 6332 2f3d 1da4 be3d
000001f0: 6ff9 62bd d527 e83c cb43 34bd 7236 a3bd
00000200: 3a8b 83bd 46a1 3abb c4e6 e3bc 25fe 5c3d
00000210: 44a2 76bd 401b 1abd b490 1a3d d777 1abd
00000220: a2d6 713d 8e66 4dbd 648e 7dbd 9a95 913d
00000230: 9f09 443d acf1 b1bb b6fa 4bbd d5bb b4bb
00000240: 2e49 dd3d 6ef3 47bd df11 6c3c 21d6 67bc
00000250: abeb 20bd ad45 e5bd 3f5c ecbd 641a 013d
00000260: e86e 423d 050a a1bd fe78 b63d 24c2 ccbd
00000270: 9d40 e63d 9eab c6bc eb48 7939 19a7 d23d
00000280: 1ff1 ddbc c1f3 b7bd dc9b c33d 9a31 8ebd
00000290: 6843 d63b e213 d63c bdc8 1e3d 1fb3 cfbd
000002a0: febb 403d 2130 3dbc ebe8 873d c16d db3d
000002b0: 81dd 23bd af74 5cbc 7f58 e7bd 91fd f93c
000002c0: ebbb 43bc 42cc 5cbc 5109 173d 8334 b93d
000002d0: 39aa ccbd 0621 af3d b810 93bd 8d91 0d3d
000002e0: cc86 e3bd 1cd1 54bd a381 aebd 6af5 78bd
000002f0: 1034 10be f908 04be 29a7 3bbd 1b28 8d3d
00000300: c1c2 09be e59e 363c 2f70 89bc 5531 cbbc
00000310: f8a9 9d3d 8424 e3bb 9cde 6abd f2aa 083d
00000320: a3ad 0abe fa36 88bd 5cf4 a8bd 5a97 8e3d
00000330: 59a5 fd3d f61a 313c aced 96bc 1ddd 20bd
00000340: f537 8c3d c05d df3d 60f2 13bd 52ad a03d
00000350: 0efc a43d e8cc 5ebd 7e41 90bb b0c4 f73d
00000360: 92cb d83d 780b 90bc 8d87 f33d 61cf c23d
00000370: c101 103d bbfd 573d 695e c33d 32bb fbbd
00000380: beb6 46bd 426a efbb 39c3 15bd aadd a03c
00000390: 6eda 8c3d 3291 e9bd c6b4 543d 3373 e9bd
000003a0: 16ae b83d 6db0 76bd 7ebc 5dbd fd80 283d
000003b0: 7a9a 923b 13c7 27bd 62ad e9bd d85b 883d
000003c0: 3225 6b3d 9906 8e3d a84e 9dbd 186e 40bd
000003d0: b83d ae3d 50d7 c53d 11f6 92bd 9e23 bfbd
000003e0: fde7 b53d d7e5 503d 6fc7 c03d 27ed dd3d
000003f0: f48d debd 07ba 553d 187a e33c b5d6 08bd
-0.045738615 -0.08668831 0.044232197 0.09984072 0.054309845 0.058060132 0.08360429 -0.06324212
-0.09979164 -0.090351924 -0.0023959526 0.11297237 0.113651015 -0.12650444 0.08791504 0.10620964
-0.0067222277 -0.0015968874 -0.089629404 0.04752316 0.066698484 -0.035548434 -0.028799504 0.10852987
0.017082127 0.061281282 0.08008167 0.020193314 0.052002452 -0.013534024 -0.10605582 -0.031717323
0.020140175 -0.05336608 -0.12011565 -0.11046473 0.0541459 -0.14055704 0.05901253 0.052118134
0.12353598 -0.012046014 -0.021526573 -0.16426979 0.07683718 -0.046782676 -0.11848565 0.022914074
-0.103520915 -0.010747645 0.00054092344 -0.063413754 -0.07500914 -0.10992934 0.044159397 -0.12956564
-0.0619708 -0.056827083 -0.0062279063 -0.085317 -0.01158906 0.033996396 0.025499098 -0.1297578
-0.012611921 0.0023453755 -0.009320957 0.13233021 0.07429596 -0.13091077 0.10189158 -0.07745584
-0.12675105 -0.07430371 -0.07263344 0.04325391 -0.13725467 0.06581578 -0.0775645 -0.10154383
0.009977149 -0.117133096 -0.0226683 -0.11931519 -0.123494655 -0.10606586 -0.08547666 -0.05565214
-0.082375154 -0.1332353 0.008442761 -0.056888673 -0.078231975 -0.07209867 -0.034984536 -0.08243722
0.009511142 -0.08786481 0.02253997 -0.120910995 0.025633402 0.15063694 -0.007234601 0.018662557
-0.010675635 -0.015582467 -0.046611317 -0.069718756 -0.09517606 0.058631178 -0.07121359 0.024128316
-0.060103048 0.048532873 0.034891844 -0.032444745 0.03229563 -0.006677496 0.016265031 0.10575072
-0.071445405 0.124429695 0.042772662 0.09308646 -0.05541366 0.028339306 -0.044009965 -0.07969369
-0.0642304 -0.0028477474 -0.027819999 0.05395331 -0.060213342 -0.037623644 0.037735656 -0.037711944
0.05904258 -0.050146632 -0.061903372 0.07108612 0.047860738 -0.005430421 -0.049799643 -0.0055155554
0.108049735 -0.048816137 0.014408558 -0.014150173 -0.03928725 -0.1119493 -0.11541032 0.03151931
0.04746905 -0.07863239 0.08909796 -0.09997967 0.11242793 -0.024251755 0.00023773655 0.102857776
-0.027092515 -0.08982039 0.09551212 -0.069430545 0.006538797 0.026132528 0.038765658 -0.101415865
0.047054283 -0.011547119 0.066362225 0.10714293 -0.040006164 -0.013455554 -0.11296176 0.030516418
-0.011946659 -0.013476433 0.03687412 0.09043219 -0.09993405 0.085512206 -0.07180923 0.034562636
-0.11109695 -0.051957235 -0.0852082 -0.06078092 -0.1408236 -0.12894048 -0.045813713 0.06892415
-0.13453199 0.011146282 -0.016777126 -0.024803797 0.076984346 -0.0069318432 -0.057341203 0.03336615
-0.135428 -0.06651111 -0.08249733 0.06962462 0.12385053 0.010809651 -0.018423878 -0.03927337
0.068466105 0.10906553 -0.03611982 0.07845558 0.08055888 -0.054394633 -0.0044023385 0.12098062
0.10585703 -0.017583594 0.11891089 0.09512211 0.035157923 0.05273221 0.09539492 -0.12291564
-0.04851412 -0.007306368 -0.036563132 0.019636948 0.068776 -0.11404647 0.05193021 -0.11398926
0.09017579 -0.060226846 -0.05413484 0.041138638 0.0044739814 -0.040961336 -0.11410023 0.06658143
0.05740852 0.06934852 -0.07681018 -0.046979994 0.08507866 0.09660208 -0.0717584 -0.09332965
0.08882139 0.051000442 0.09413039 0.10836249 -0.10866919 0.052179363 0.02776818 -0.033407886

post.0.bias f4 [32]
00000000: b833 a0bd 3c31 3abd 1415 773d dbd1 90bd
00000010: 7246 c1bd b69e a83d 54e7 edbd 8b52 583c
00000020: 48ba cfbd 680c bbbd 48e2 9fbd 2e64 81bd
00000030: cdff 493d c8ea e6bd 0cef 31b9 398a 48bd
00000040: d56b b9bd ffad b53d d360 ac3d a4b0 ba3d
00000050: 957d bdbc fba1 e5bd 9277 c9bd 4e3a ff3d
00000060: 6788 b13d 26b2 00bc 0a43 933d 2ca3 0b3c
00000070: 7b0f 3b3d 859b a9bd a24b e7bc d1a4 fd3d
-0.078223646 -0.04545711 0.060322836 -0.07071277 -0.094372645 0.08233397 -0.11616388 0.0132032735
-0.10142952 -0.09133226 -0.078068316 -0.06317936 0.049316216 -0.1127525 -0.00016969087 -0.048959944
-0.090537705 0.08871078 0.08416905 0.09115723 -0.023131171 -0.11212536 -0.09837259 0.124622926
0.08668595 -0.007854974 0.07190521 0.00852279 0.04566906 -0.08281616 -0.028234307 0.12384952

post.2.weight f4 [3, 32, 1, 1]
00000000: 7684 30be 7b51 1e3e 5911 463e 4c50 1bbe
00000010: 0106 bc3d 376e 363e 8893 23be 0c25 26be
00000020: 3373 c33c 28de 053e be87 08be cffc 0fbe
00000030: d91c ce3d 14a9 d5bd d08d f93d 684a 2b3d
00000040: c1cc 213d c653 3abd 80e9 063d 5a72 1cbe
00000050: 8678 f3bd afc9 403e 9860 90bd fc10 bd3d
00000060: cf59 87bc 07aa 13be 23d4 343e f7ee 9e3d
00000070: 787a 20be 6382 ffbd 73bd 913d abe9 293e
00000080: 7584 18be 6158 1c3e 7479 733d 8bd5 1abe
00000090: de6e 8b3c 1098 08be 59f8 033e 18f8 123e
000000a0: 5ae3 fd3d 51d3 733d 69de 1cbe 5ecf 1cbe
000000b0: 2c19 b73d 0925 9fbd 0541 91bb ba76 ab3d
000000c0: 5ef1 473e 1f06 a6bd e018 00be 56af 763d
000000d0: f863 0b3e eef0 84bd f253 47be 3e5d cd3d
000000e0: 0dcf f63d b7a2 103e 0ce5 46bd 29ae 32be
000000f0: 2de6 373e ee4f 6dbd 15e3 44be 79ec f3bd
00000100: 8473 5ebd fe91 693d 6a6a ec3c 41ef b5bd
00000110: 6988 be3d 8eea 153e f2b1 843b 33cf 91bb
00000120: 8e4e 0dbd d00d 31be 34d7 0c3e 7249 ebbd
00000130: 54c2 25be 28db d73d 3758 1dbd d076 b43c
00000140: 0071 2e3e a4c1 d13d 5a6a 863d bb0a 3cbe
00000150: 914f f53d 1758 a2bd 4240 40bd 22f8 26be
00000160: c4b2 a9bd 4c49 5dbd 4330 de3c 6039 533c
00000170: 7b8e 3abe 4ede 073e 498d 18bd 1b76 86bd
-0.1723803 0.1546077 0.19342555 -0.1516735 0.09180833 0.17815481 -0.15974247 -0.1622507
0.023858642 0.13073027 -0.13333032 -0.14061283 0.10064096 -0.1043264 0.12185252 0.041819006
0.03950191 -0.04549005 0.032937527 -0.15277997 -0.118882224 0.18826936 -0.07049674 0.09231755
-0.016522316 -0.14420329 0.17659049 0.07760423 -0.15671718 -0.12476041 0.07116213 0.16593044
-0.14894278 0.15268089 0.059442 -0.15120523 0.017020639 -0.13339257 0.12887706 0.14352453
0.123968795 0.0595277 -0.15319218 -0.1531348 0.08940348 -0.07770736 -0.0044327998 0.08372255
0.19525668 -0.08106636 -0.12509489 0.060225807 0.13612354 -0.06491266 -0.19465616 0.1002755
0.120512106 0.14124571 -0.04855828 -0.1744925 0.17958899 -0.057937555 -0.1922725 -0.11910338
-0.054309383 0.057023995 0.028859336 -0.08883525 0.09303362 0.14640257 0.004049533 -0.004449749
-0.034498744 -0.17290425 0.13753968 -0.11488618 -0.16187412 0.105398476 -0.038414206 0.02202931
0.17035294 0.10242012 0.06563254 -0.18363468 0.11978067 -0.07926958 -0.04693628 -0.16305593
-0.0828605 -0.05402498 0.027122622 0.012892097 -0.18218414 0.13268396 -0.037244115 -0.065654956

post.2.bias f4 [3]
00000000: b3b5 913d cba5 b73d 5a37 05be
0.071147345 0.089671694 -0.13009396

post.4.weight f4 [3, 3, 3, 3]
00000000: fc89 093e 1320 413e 1288 fdbc adeb 3cba
00000010: e0ce 8bbc 3005 153d 2450 32be 4685 023e
00000020: 7315 c3bd 8488 bdbc 4b3d aa3b e392 2c3e
00000030: 5c2a 41be d7ba 3ebe 5161 a73c 1df0 30bd
00000040: 60ef 39bd 421a ab3c 7476 13be faa3 93bc
00000050: 1327 ee3b 3417 22bd d92e c93c e78b 833c
00000060: e099 023d f5a9 09be 928c 56bd 8376 ef3c
00000070: 1540 36be a072 153e 315c 6b3d 5a0d 223e
00000080: e9fe e6bd d1b9 a23d 72ba 8abd f528 413e
00000090: ee44 1f3e b879 36be 7013 36bd e3cd 0dbe
000000a0: eed1 943d 3498 083e 2880 9cbd 6c6c c73b
000000b0: 8808 d5bd e520 e5bc 8770 0b3d 49e3 2ebe
000000c0: 8985 393e a31f 283e 6289 ddbd ef8b 343d
000000d0: 6619 f93d b0dc 2bbe a672 19bd a649 153e
000000e0: 49fd f03c cc66 04be 8917 09be 534a 4e3e
000000f0: 9abf 4e3c c281 33bd 5c3b 243e 2979 283d
00000100: 0ccd eb3d 15e8 8bbd 5cd2 e4ba 7d97 f3bd
00000110: ca0e d63d 1c35 d8bd 9db3 32be 9bc0 1d3d
00000120: 7f97 033e 5d0d 203e 0d41 0ebe 4b3d f03d
00000130: 1f19 293e 76bc 99bd f9cd f93d 21ea e53c
00000140: b23b 20be
0.13431543 0.18859892 -0.030948672 -0.0007206749 -0.01706642 0.0363819 -0.17413384 0.12746152
-0.095255755 -0.023136385 0.005195295 0.16852908 -0.18863815 -0.18625961 0.020432146 -0.04319774
-0.0453943 0.020886544 -0.14400655 -0.018022526 0.0072678416 -0.03957291 0.024558472 0.016057922
0.031885028 -0.1344374 -0.052380152 0.029231315 -0.17797883 0.14594507 0.057460967 0.15825406
-0.11279089 0.07945598 -0.06773843 0.1886328 0.15553638 -0.1781987 -0.04445213 -0.13848071
0.072666034 0.13339311 -0.07641631 0.006085923 -0.10402018 -0.027969787 0.03404286 -0.1707889
0.18117346 0.16418318 -0.10817219 0.044078764 0.121630475 -0.16783404 -0.037462853 0.14578876
0.02941765 -0.12929839 -0.13387884 0.2014554 0.012618924 -0.04382492 0.16038269 0.041131172
0.11513719 -0.068313755 -0.0017457712 -0.118941285 0.104520395 -0.10557005 -0.1745133 0.03851376
0.1285076 0.15630098 -0.13892002 0.11730441 0.16513489 -0.07506649 0.12197489 0.028065743
-0.15647772

post.4.bias f4 [3]
00000000: 1e18 dfbc a7cb d33b d8a6 f63d
-0.02723318 0.0064634862 0.12043542

norm1.body.weight f4 [64]
00000000: 5bc6 823f 8531 823f f9d8 813f b43b 823f
00000010: 8768 7f3f cd5b 803f 7f5c 803f 0a4e 823f
00000020: 7098 823f c5e8 813f 1d14 833f 220e 7f3f
00000030: 251d 823f 0ced 823f 81b2 7e3f 2686 813f
00000040: 7ff7 803f df36 813f 15da 803f 0153 803f
00000050: ca25 813f e2dd 803f c413 813f c582 813f
00000060: e403 803f acce 813f 60c7 803f b22e 843f
00000070: 3fc2 813f 537d 7f3f 99eb 803f 2603 803f
00000080: 3733 813f ea8e 7e3f 0d3e 823f c782 813f
00000090: 07e3 803f 791a 823f 8f54 7c3f fce1 813f
000000a0: e639 803f cd2d 803f 806d 803f 10ea 813f
000000b0: 0c21 803f 245b 7f3f 7d9a 7d3f 7e54 813f
000000c0: 61a6 813f 0c13 813f 0184 823f 817c 803f
000000d0: d3f1 803f 8e75 7d3f c161 833f 9fe2 823f
000000e0: 4a36 7d3f 32f2 813f d152 803f 6731 803f
000000f0: 6b2f 823f 411e 7f3f c202 813f 8d0c 803f
1.0216783 1.0171362 1.014434 1.017447 0.9976887 1.0028015 1.0028228 1.0180066
1.020277 1.0149161 1.0240513 0.9963094 1.0165144 1.0228591 0.99491125 1.0119064
1.007553 1.009487 1.0066553 1.0025331 1.0089657 1.0067713 1.0084157 1.0118033
1.0001187 1.0141196 1.0060844 1.032675 1.0137404 0.99800605 1.0071899 1.0000961
1.0093755 0.9943682 1.0175186 1.0118035 1.0069283 1.0164329 0.98566526 1.014709
1.0017669 1.0013977 1.0033417 1.0149555 1.0010085 0.99748445 0.99063855 1.010391
1.01289 1.0083938 1.0196534 1.0037996 1.0073799 0.990075 1.0264207 1.0225409
0.98910964 1.0152037 1.0025274 1.0015076 1.0170721 0.9965554 1.0078967 1.000383

norm1.body.bias f4 [64]
00000000: df69 8e3b 6f9e d43b 0f5e 703c 75e2 4bbc
00000010: cde9 f93b 92db 84bb cde2 86bb 34ff 6d3c
00000020: 7aa7 883b d858 f8bb d88d cdbc a842 653b
00000030: 72cf ea3a 3427 a33b 3a9f 973b 604a babb
00000040: 3667 b1bb c34f 11bc ff80 fdbb a3c3 37bb
00000050: 92a5 6f3b 2157 ebbb a611 ddba ba94 c73b
00000060: ee75 a0b9 ea02 41bc 419e dbbb 87c2 f93b
00000070: 72ca 713b 4a98 e43a a254 09bc c2b3 4eba
00000080: 468b 393c a22e a23b 7143 443b d129 093b
00000090: 51f8 4f3c f484 18bc b48b 833c 025b 73bc
000000a0: 9238 ff3b e3d0 493b ca2d 253c 542f 813b
000000b0: c8a9 4b39 8059 ac3a 61e0 173c 7464 e43b
000000c0: 60ef 6fbc 38bc 3b3c 6812 b53b 06aa 33bb
000000d0: 0255 423b 6455 0f3c f31f 87bb f245 f33b
000000e0: 35cb 2a3c 163b 15bc ee59 95bb 971c bbba
000000f0: 1e99 9eb9 4d47 333b 5fba 113b 1474 003b
0.004346117 0.0064886133 0.014670863 -0.012444128 0.007626748 -0.004054495 -0.004116392 0.014526177
0.0041703554 -0.0075789504 -0.02509205 0.0034982357 0.0017914607 0.0049790386 0.0046271356 -0.0056851357
-0.005413915 -0.008869114 -0.007736325 -0.0028040193 0.0036567193 -0.0071820174 -0.0016866222 0.0060907276
-0.00030605443 -0.01178048 -0.006702215 0.0076220664 0.0036894348 0.0017440405 -0.008381994 -0.00078850624
0.011324709 0.0049494067 0.0029947425 0.0020929466 0.012693481 -0.009309042 0.016057827 -0.014853241
0.007788726 0.0030794672 0.010081718 0.0039424095 0.00019422837 0.0013149232 0.009269805 0.0069699828
-0.014644474 0.011458449 0.005525876 -0.0027414574 0.002965272 0.008748386 -0.0041236817 0.0074241096
0.010424425 -0.0091083255 -0.0045578396 -0.0014275488 -0.0003025019 0.002735573 0.002223633 0.0019600438

attn.scale f4 [4, 1, 1]
00000000: 0b91 823f 2c2a 823f f1b0 823f 4e33 823f
1.0200514 1.016912 1.0210248 1.0171907

attn.qkv1.weight f4 [96, 32, 1, 1]
00000000: f656 94bd b0d7 21be 16aa 2ebe 13de 1f3e
00000010: 37a8 36be 86ea f83d 2e8e 783d c932 c63d
00000020: 15ce 213e e73b e43d 97a5 c03c 0d9d e53d
00000030: 7d52 17be e7eb fc3d d9fd 7e3d d833 ecbd
00000040: 847c e13d 00c0 f33d de3e 02be 4fda ff3c
00000050: e6a1 ec3d 56e7 0ebe 576e 50bc 8055 8fbd
00000060: 6d2b 2f3e e65e 253e 73e4 f3bd 356a 15be
00000070: fc8f 23be fca3 fe3d afac ed3d 2f09 363e
00000080: 14fc c4bd b832 58bd 02f5 ec3d 9b22 30bd
00000090: ed70 adbd 7a7a cdbd 3f2e 383c 5596 e23d
000000a0: f043 273e e9b1 7b3d b8bc 11be ded1 b63d
000000b0: 2199 05be 408b 403e e019 1b3e 7123 20be
000000c0: 1207 bf3d 6c07 3fbd 6c24 b1bd d39c 803d
000000d0: 4a76 243d 4d50 20be b3bb 09bd 00f8 33be
000000e0: 6222 22bc 0529 733d c23a e2bc e805 03be
000000f0: 7c2f d9bc 8374 d5bd a0e1 0a3e c05f ba3d
00000100: 53b4 5b3d 919e a63d 3cbe e73d d70c 8f3d
00000110: 7cc5 cf3d 35bf aa3c 18fb 033e 088f 023d
00000120: f17a 343c 9210 03be d37f e43c dd19 c13d
00000130: 1722 07be 86ec 063e a463 243e e12c 9cbd
00000140: f3ec ec3d 4cb6 9b3d d8d1 5bbc 2a83 15be
00000150: a9f5 a73d 8915 1e3d 57b0 f4bd dc02 05be
00000160: 7960 dabd df0c 2b3e f7c7 703c 6f6a 0fbe
00000170: 4ef9 c93d 5f4a f93d 453f 263e 6b26 08bd
00000180: 2793 a43d c162 5ebc 587c 063d 618e 3b3d
00000190: ac5f d93d 0d35 9ebd a9b6 0b3e 8803 9a3d
000001a0: cfef 083d 24ba 183e 90de ccbc 7aba acba
000001b0: 4868 20be 7bf4 053e 210b c33c 0bcd e5bd
000001c0: 7f9b cb3d 3e82 89bc b42f d83d fe53 29be
000001d0: 60aa 1cbe 3cb3 8d3d 3e1e 413e 4e35 afbc
000001e0: bf46 d1bd 2999 19bd 86e6 6cbc e120 fe3d
000001f0: 4643 293e e204 2dbe 183c 1b3e 286b 233e
00000200: a618 97bd 90ac 303e e02e 3b3e d23d 033e
00000210: dbce 213e 7907 7f3d 6ea1 3a3d 7e55 20be
00000220: cea6 103d 9798 25be 0700 33bd 2255 20be
00000230: ea7d 463d 40d0 043e 14f2 42bd e157 0d3e
00000240: a968 14be 6726 efbd 5a07 44bb 2794 d83d
00000250: 9930 9f3d 3897 dbbd 2aa4 c63c 3bd7 bfbb
00000260: e8cb bdbd c9b7 23be 3cc6 b63d 1fff 9d3d
00000270: 278f 263d 6e8f 2fbd dd61 013e 2b05 87bd
00000280: 62f6 fd3d e4eb 10be d293 f13d dd1e 933d
00000290: 79e4 ce3d 61d2 303d f82c 1fbe 5320 253e
000002a0: e11c 1ebe 12ee a8bd 0036 59bd 54e5 813d
000002b0: 1562 b6bd 83ae 3f3e e34e 843d 5b97 2f3e
000002c0: d91b 32be 3e72 013e 3a65 db3c e8fd 51bc
000002d0: 9246 27be 7431 063e b090 63bd d26e 3d3d
000002e0: c049 043e 89e3 5abd e504 65bd 0fe4 02bd
000002f0: 0c35 c0bd 2ab4 4c3d 40d3 1dbe 29be 01be
00000300: a38b e13d 1e62 24be 3b33 923d 6442 033e
00000310: 39fb 3bbe 36d7 b63c cc27 d83c 7e9a aabc
00000320: 45ba f4bd 1465 23be 22df b33d 14f7 c73d
00000330: 6a6b f1bd f29b 0bbe d2d7 c63d 572a d53d
00000340: 7c82 f8bc eba4 4c3d b0d9 dc3d a513 d93d
00000350: b588 8bbd 4ab6 1a3e 473a 2dbe f8d9 2a3d
00000360: ac93 1ebd d989 ba3c 1548 54bd 9d25 c83d
00000370: 6642 4bbb 68e6 783c 57a1 163e 6f13 98bc
00000380: cd0b 6f3c c278 f73d 721b 01be 5605 233e
00000390: d6ec 64bd 002a 273d 3171 01be 7628 003e
000003a0: 7f66 10be 41e7 c93c 8d18 63bd fe06 043d
000003b0: 0c0a cf3c 6663 80bd 753e 333e a93a 51bd
000003c0: 5386 f8bd 9259 9c3d 2558 083e a99e 373e
000003d0: 2905 17be d38e 06be 4487 943d e30a 15bd
000003e0: 1a0c e3bd 6da5 c5bd d084 7c3c 6508 28be
000003f0: 9973 b13d 5093 0d3d fc30 e1bd 6789 0e3d
-0.07243149 -0.15804935 -0.1705707 0.15612058 -0.17837606 0.12154107 0.060682468 0.09677655
0.1580127 0.11144238 0.02351646 0.11211596 -0.1477756 0.12349682 0.062253807 -0.11533326
0.110100776 0.119018555 -0.12719294 0.031232027 0.11554317 -0.13955435 -0.01272162 -0.0699873
0.1710641 0.16149482 -0.119088076 -0.14591296 -0.15972894 0.12433621 0.116052024 0.17776941
-0.096183926 -0.052782744 0.11570169 -0.043001752 -0.084688045 -0.10033126 0.011241495 0.1106383
0.1633451 0.061448965 -0.14232147 0.08926748 -0.13046695 0.1880312 0.1514659 -0.1563852
0.093275204 -0.046637937 -0.08649525 0.06279912 0.04015187 -0.15655632 -0.03362627 -0.17575073
-0.009895893 0.05936529 -0.027615909 -0.12795222 -0.0265119 -0.104226135 0.13562632 0.09100294
0.053638767 0.08135713 0.11315581 0.06984871 0.10145089 0.020843128 0.12888753 0.031874686
0.01101564 -0.1279929 0.027892983 0.09428761 -0.13196598 0.13176164 0.16053635 -0.076257475
0.11568632 0.0760313 -0.01341673 -0.14600816 0.08201153 0.038594756 -0.11947697 -0.12989372
-0.10662932 0.16704129 0.014696113 -0.14005445 0.09862004 0.12172388 0.16235073 -0.033239763
0.080358796 -0.013573349 0.032833427 0.04579008 0.10613951 -0.077249624 0.13643898 0.07520205
0.033431824 0.14914757 -0.02500847 -0.0013178133 -0.1566478 0.13081543 0.023809018 -0.112207495
0.09941768 -0.016785737 0.10555974 -0.16535947 -0.15299368 0.06918952 0.18859193 -0.021387722
-0.10218572 -0.03749958 -0.014459258 0.12408615 0.16529569 -0.16896394 0.15159643 0.15958846
-0.07377748 0.17253327 0.182796 0.12816551 0.15801565 0.062262986 0.045564108 -0.15657613
0.035315327 -0.1617149 -0.043701198 -0.15657476 0.048459925 0.12970066 -0.047594145 0.13803054
-0.1449305 -0.116772465 -0.0029911608 0.10575133 0.07772941 -0.10722202 0.024248201 -0.005854515
-0.09267408 -0.15988077 0.08924529 0.07714676 0.040663864 -0.042861395 0.12634988 -0.065927826
0.124005094 -0.14152485 0.117957726 0.07183621 0.101021715 0.043169383 -0.15544498 0.16125612
-0.15440704 -0.08248533 -0.053030014 0.06342569 -0.089054264 0.18718915 0.06460359 0.17147581
-0.17393436 0.12641236 0.026781667 -0.012816884 -0.16335514 0.13104802 -0.055557907 0.046248265
0.12918758 -0.05343965 -0.05591287 -0.031955775 -0.09385118 0.049976505 -0.15412617 -0.12670197
0.11012962 -0.16053054 0.07138678 0.12818295 -0.18357553 0.022319417 0.026386164 -0.02082562
-0.119495906 -0.15956527 0.087827936 0.09763923 -0.11788066 -0.13633707 0.09709133 0.10408466
-0.030335657 0.049961966 0.10783708 0.1059945 -0.06813184 0.151086 -0.16916762 0.041711777
-0.03871505 0.022770809 -0.051826555 0.09772799 -0.0031014918 0.015191652 0.14709984 -0.018563954
0.014590216 0.120835796 -0.12608126 0.15920004 -0.055889927 0.04081154 -0.12640835 0.12515435
-0.14101599 0.024646403 -0.055443335 0.03223323 0.025273345 -0.06268959 0.17504294 -0.051081333
-0.12134995 0.07634272 0.13314874 0.17931618 -0.14748062 -0.1314042 0.07252362 -0.036387336
-0.110862926 -0.09650693 0.015412524 -0.16409452 0.08664627 0.034564316 -0.10995671 0.034799006

attn.qkv2.weight f4 [96, 96, 3, 3]
00000000: 8bb4 24bd 3531 05bc af57 2fbc 9591 c73c
00000010: 44ca 15bd 8099 643c 614e ad3c 93dc ae3b
00000020: 177f cdbb 19e2 3bbc 850f 4ebc 6d48 a2bc
00000030: 8d98 d53c cf79 023c 475b b7bb cca4 9d3c
00000040: d817 723b 1b02 123d 598a 8c3c a44f 4dbc
00000050: 41be 8b3c da15 02bd 2032 833c 34e2 e93c
00000060: 2f8e 3e3c bed8 14bd afa8 d5bc 1f35 353d
00000070: cc37 dc3c c64b 87bc 820a 9a3c 0bca adba
00000080: d7dd 0d3d 90be 1b3d b63d ad3a 533c 373d
00000090: d325 1a3d 17f4 87bb 3132 3bbc 9af6 2f3d
000000a0: 1e6b 123d c547 923c 8089 063c d857 fe3c
000000b0: 5329 c8bb 7f55 fa3b eeed 933b dd73 70bc
000000c0: 7489 eabc 2830 93bb e6cb 993c d442 2cbc
000000d0: 73bd 71bc 95eb 81bc 3407 72bb ab3c 423c
000000e0: 2f4a dabc 4b7b e9bb 6d52 eb3a c8f1 a5bc
000000f0: c1c3 21bd b576 a23b c259 b4bb 92b5 003c
00000100: 4483 a33b 412d 1dbd 7814 bb3c d9c7 2abc
00000110: c8ec 55bc e02c f7bc 4594 bebc 0a2a e2bb
00000120: dce1 7ebc 8671 dfbc d06d 8fbc da24 10bd
00000130: b455 2ebd 9cf2 15bc aed0 7c3c 1aee d7bc
00000140: f8db 21bd fc88 8ebb 17b0 d03c a83a c93b
00000150: 0f56 b6bc 7ca1 803c 419d 87bc 9108 c63c
00000160: ab86 cbbc 2995 493a 51e9 a13c 0fe6 fdbc
00000170: 70c9 a4bc 0973 043d 4791 45bb 53e9 83bc
00000180: ceb4 ebbc bc31 ddbc 2938 9e3c c10d 04bd
00000190: 67ec 493c c554 94bc be01 b8bc aa12 b43c
000001a0: 25cb 93bc af0a e83c 3070 e5bc b058 b43c
000001b0: b608 75bc 89f9 f6bc 30e8 013b facc 903b
000001c0: 3a0f 603b d853 2fbc 7862 103d 6b25 9f3c
000001d0: 03f5 a83c 38e0 b13c a5f7 15bb 47d8 f6bc
000001e0: 0c0e 07bd 83a8 1e3c 14f5 2d3c d74e c83c
000001f0: 2e9d c2bb 47db 70bc 06cf 8ebb e42e 86bc
00000200: 63d5 163d 7e53 3d3b 4934 023d d839 9e3c
00000210: 02e8 bf3b 6583 85bc 9971 f53c 07f5 bcbb
00000220: db68 ef3b bf47 22bc 8713 89bc fb0a 54bc
00000230: 3bb1 263b 46ac db3b f069 3dbb b68d ccbc
00000240: 7c27 0c3c 4c79 a5bc 20ae 05bd 40fc d0bb
00000250: 6a62 a2bb 13ad 843c 227e 04bc ebb3 f83c
00000260: 7e15 a63c 4b6e 4ebc 41e4 0fbd 3abe c03c
00000270: b1b3 e7bb 3c11 be3c 6c75 05bd 86f7 cbbb
00000280: c0bd 243c cf53 c63c ff83 c2bc 5302 173c
00000290: b170 28bd 5bed 7dbc d68a 593c 767b 3cbc
000002a0: 850e 633c 519c 76bc be25 1fbc ae43 a13c
000002b0: 2899 adbb eecc fd3b 82b0 bcbc 7ecc 343c
000002c0: b6da e33c e56a c63b 488e d73b 85d1 d9bc
000002d0: d0e7 ffbb e2ed b4bb 65b1 7ebc c65a 863c
000002e0: 3faa bdbc 3ad0 06bc fb79 ad3c b95b f3bc
000002f0: b134 9f3c 8101 d1bc edc6 a03c 65ad fcbc
00000300: fbe0 f6bb 5c45 003c 1284 edbc 1fbc b8bc
00000310: 8707 a6bc 4cac 493b 8861 b23c 9e7a c7bc
00000320: faf2 083b a7f6 babc b8fb 923c 74c3 5f3c
00000330: e9f8 a23b 977e 473c 9df2 c23c fcf6 d73b
00000340: 914c 22bd 918b 29bd bd13 1dbd 15b0 94bc
00000350: e840 1fbd c043 2abc 044e 953c 6280 80bc
00000360: 63cf adbc d1a6 833b 5547 1c3d 3258 b73c
00000370: 6a9e 3a38 a80e 2e3d fc8b ac3b e4c9 43bc
00000380: ab14 c6bb 03e0 01bb 8dbe 16bc 3e65 363c
00000390: b059 63ba f3fe 223d 2c3b f03c e984 55bc
000003a0: 57b2 9d3c f8aa 363c 99d8 aebb 04bb 87bc
000003b0: 9e26 cc3c 2b64 443c 4bba 10bc 69e2 5c3c
000003c0: 57e4 8dbc c192 913c 4452 dd3c 2f41 0ebc
000003d0: fb76 fcbc c3ac b03c 67b0 0e3c 1bb6 923c
000003e0: 8244 4abc 5ef4 a3bc 381f 083d e50e 16bb
000003f0: c5fd 47bc be4c adbc 6dc0 af3b 1935 00bd
-0.04021124 -0.008129408 -0.010702058 0.024361411 -0.03656985 0.013952613 0.021155538 0.005336353
-0.006271254 -0.01146748 -0.012576942 -0.019809926 0.026073718 0.007963612 -0.005595598 0.01924362
0.0036940482 0.03564654 0.017155813 -0.012531195 0.017058494 -0.03175912 0.016015112 0.028550245
0.011630579 -0.036339514 -0.026081411 0.044240113 0.026882075 -0.016515624 0.018803839 -0.0013259066
0.03463539 0.03802353 0.0013217244 0.044735264 0.03763373 -0.004148971 -0.011425541 0.042959787
0.035746686 0.017856488 0.0082114935 0.031047747 -0.006108442 0.0076395865 0.0045144474 -0.014676061
-0.028629996 -0.0044918247 0.018773984 -0.01051398 -0.014754641 -0.015859405 -0.0036930563 0.011855285
-0.026646702 -0.0071252934 0.0017953642 -0.020256892 -0.039493326 0.0049579986 -0.005503864 0.00785579
0.0049900133 -0.038373236 0.022836909 -0.010423624 -0.013056941 -0.030172765 -0.02326406 -0.006901984
-0.015556779 -0.027275812 -0.017508417 -0.035191394 -0.0425622 -0.009152081 0.0154306125 -0.026358653
-0.03951642 -0.004349826 0.025474591 0.0061410256 -0.022257833 0.015702002 -0.016554477 0.024174007
-0.024844488 0.0007689768 0.019764574 -0.03099349 -0.020115584 0.03233627 -0.0030146406 -0.016102469
-0.028772738 -0.027001254 0.019313889 -0.03223968 0.012324429 -0.018106828 -0.022461768 0.021981556
-0.018041203 0.028325407 -0.028007597 0.022014946 -0.01495569 -0.030148285 0.0019822232 0.0044189664
0.0034188763 -0.010701142 0.035250157 0.019427022 0.020624643 0.021713361 -0.0022883203 -0.030132426
-0.03297238 0.009683731 0.010617513 0.024451656 -0.0059391474 -0.014700717 -0.004358175 -0.016379781
0.036824595 0.0028888877 0.031788144 0.019314691 0.005856515 -0.016298005 0.029961394 -0.005766514
0.007306201 -0.009904801 -0.016732944 -0.012942071 0.0025435227 0.006703886 -0.0028902255 -0.024969917
0.008554336 -0.02019944 -0.03263676 -0.006377727 -0.0049555795 0.01619581 -0.008086713 0.03035923
0.02027392 -0.012599538 -0.03512979 0.023528207 -0.0070709814 0.023201577 -0.032582685 -0.0062245755
0.010055006 0.024209885 -0.023744581 0.009216863 -0.041123096 -0.0154984845 0.01327773 -0.011504045
0.013858442 -0.015051917 -0.009713588 0.019685593 -0.0052977987 0.007745377 -0.023033384 0.011035083
0.02781425 0.0060552233 0.0065782405 -0.026589165 -0.0078096166 -0.005521522 -0.015545224 0.016400706
-0.023152469 -0.008228356 0.021176329 -0.029706823 0.019434305 -0.025513412 0.019626105 -0.0308444
-0.007534144 0.007829037 -0.02899364 -0.02255064 -0.020267261 0.0030772863 0.021775022 -0.02435046
0.0020896778 -0.022822691 0.017942294 0.0136574395 0.00497352 0.012176177 0.023797328 0.006590722
-0.0396238 -0.041392867 -0.038348902 -0.018150369 -0.03888026 -0.010392129 0.018225677 -0.015686218
-0.021217054 0.004017689 0.038153965 0.022380922 4.449339e-05 0.042494446 0.005265711 -0.01194999
-0.0060449443 -0.001981736 -0.009200704 0.011132536 -0.0008672727 0.03979392 0.02932509 -0.0130321765
0.019250078 0.011149161 -0.005335879 -0.016568668 0.024920758 0.0119867725 -0.008833478 0.013481715
-0.017320795 0.017770173 0.027016766 -0.008682533 -0.030818453 0.021566754 0.00870905 0.0179091
-0.012345435 -0.020013984 0.033232898 -0.0022897061 -0.012206499 -0.021154758 0.005363515 -0.031300638
