Puff-Net/model/base_iter_15000.pth (torch, 598545 bytes, 28 tensors)

pre.0.weight f4 [32, 3, 1, 1]
-0.5688958 -0.38693807 -0.44410056 -0.31316575 -0.5147208 0.066668615 -0.26536196 -0.32015473
-0.51999193 -0.1800023 0.48475927 -0.058834873 -0.19753918 -0.14715362 0.21372983 0.19737098
0.12387154 -0.13593109 -0.5386708 0.06387718 0.5348047 0.5551245 0.38709527 0.30631673
-0.14124517 -0.08365879 -0.26843053 -0.4555086 -0.53717273 -0.4448796 0.1270276 -0.19185127
0.30364192 0.13646255 0.55914766 0.32934928 -0.32832655 0.14785579 -0.029445758 -0.047920384
-0.5128277 -0.15358517 0.5057025 0.10465314 0.3607063 -0.22526318 0.099722534 -0.3221669
0.36482835 -0.11872463 -0.13381842 0.19221465 -0.2984045 0.23171534 -0.4321986 -0.24319437
0.1992955 -0.19296482 0.4087718 0.13642706 0.10824113 -0.3655177 -0.05880182 -0.22745511
-0.010764241 -0.37582448 -0.116248436 -0.5202245 -0.06353519 0.13733812 -0.49921173 0.46839902
-0.22842714 -0.5575921 -0.44837254 -0.06653211 -0.2657115 -0.3795567 0.14039971 -0.2058695
0.33717427 -0.06662652 0.2425883 -0.4522666 0.40931052 -0.24138159 -0.3787894 -0.26484925
-0.5699313 -0.27770048 -0.2767799 0.4903514 -0.36976415 0.061881594 0.34512284 0.3601805
00000000: 28a3 11bf bf1c c6be 2661 e3be 4357 a0be
00000010: bec4 03bf 8e89 883d 86dd 87be 52eb a3be
00000020: 311e 05bf 8652 38be 5e32 f83e d6fc 70bd
00000030: b647 4abe 70af 16be fedb 5a3e 9e1b 4a3e
00000040: 5db0 fd3d 8531 0bbe 54e6 09bf 0ad2 823d
00000050: f6e8 083f a41c 0e3f 5a31 c63e 8cd5 9c3e
00000060: 93a2 10be 4d55 abbd ba6f 89be 6c38 e9be
00000070: 2784 09bf 42c7 e3be 8613 023e a974 44be
00000080: f476 9b3e d7bc 0b3e 4d24 0f3f 78a0 a83e
00000090: 6b1a a8be 8267 173e 3b38 f1bc 2a48 44bd
000000a0: ad48 03bf 6e45 1dbe b875 013f 6354 d63d
000000b0: 7fae b83e 64ab 66be 543b cc3d 0ff3 a4be
000000c0: c8ca ba3e e625 f3bd b207 09be ebd3 443e
000000d0: 7ac8 98be c946 6d3e 2349 ddbe f207 79be
000000e0: 1f14 4c3e 9298 45be 8a4a d13e 89b3 0b3e
000000f0: 87ad dd3d 2325 bbbe 2dda 70bd fee9 68be
00000100: 805c 30bc 116c c0be a913 eebd 6f2d 05bf
00000110: bd1e 82bd 5da2 0c3e ae98 ffbe ffd1 ef3e
00000120: cee8 69be 5bbe 0ebf 1691 e5be fd41 88bd
00000130: 560b 88be 4155 c2be f1c4 0f3e 74cf 52be
00000140: 1ba2 ac3e 7c73 88bd 1169 783e 7d8f e7be
00000150: 2691 d13e bc2c 77be aff0 c1be 529a 87be
00000160: 05e7 11bf c22e 8ebe 18b6 8dbe 570f fb3e
00000170: ba51 bdbe 8e77 7d3d f1b3 b03e 9469 b83e

pre.0.bias f4 [32]
-0.47586367 0.2341376 0.39174992 0.15453468 0.12685506 0.35590002 0.4917099 0.015238199
-0.30687052 -0.2822895 0.465164 -0.32041663 -0.250954 -0.3479343 -0.47868395 0.44527426
-0.40696794 -0.3627989 0.49450463 0.53873205 0.54929113 -0.46391708 0.094210915 -0.05463311
0.1937539 -0.11715376 -0.53249073 0.53526264 0.046053175 -0.25798225 0.11157822 -0.14895277
00000000: 67a4 f3be c4c1 6f3e 7293 c83e 573e 1e3e
00000010: 4be6 013e 8738 b63e 66c1 fb3e a4a9 793c
00000020: 221e 9dbe 4088 90be fa29 ee3e a60d a4be
00000030: 0b7d 80be 7224 b2be 1016 f5be fdfa e33e
00000040: 1a5e d0be c7c0 b9be b62f fd3e 58ea 093f
00000050: 589e 0c3f 8a86 edbe a7f1 c03d f8c6 5fbd
00000060: 6c67 463e 4fee efbd 5051 08bf f906 093f
00000070: 41a2 3c3d 4016 84be 1f83 e43d 1387 18be

pre.2.weight f4 [64, 32, 1, 1]
0.10212828 0.21877284 0.045692023 0.112185046 -0.026387587 -0.036476023 0.10255266 -0.049324136
0.009671964 -0.039297953 -0.08107578 -0.13822141 0.06487481 -0.050262645 -0.08935071 0.05151602
0.0025379567 0.011912195 -0.0049460623 -0.089746706 -0.06148382 0.012849857 0.012039909 0.09312622
0.1711568 0.089458056 -0.07302057 -0.0012320965 0.21304749 0.11384005 -0.019211477 -0.036671802
0.13030525 0.1320725 0.046466965 0.049240522 0.11634379 -0.07432795 0.008791336 0.00659211
0.13140528 -0.0018932153 -0.06658231 -0.07971326 -0.061917957 -0.093381375 0.123715736 0.064717844
-0.16794069 0.16832484 -0.06578254 0.01082576 0.09792125 0.17287788 0.02129748 0.046113443
0.01900375 0.056724325 -0.018407468 0.08508266 -0.10977477 -0.08213038 -0.094669275 0.032242265
0.011903977 -0.13032597 0.10810665 -0.015798328 -0.09976627 -0.15901838 0.07512532 0.1612954
0.0670008 -0.04929725 -0.096554846 -0.13997078 0.077554815 0.17013976 -0.1701484 0.02334816
0.024582613 -0.12918161 0.15970197 0.1328052 -0.15460128 -0.15407729 -0.080531746 -0.028646303
-0.08772559 0.03244064 0.14731556 0.14049506 0.0636782 0.097783044 0.026764806 0.006187289
-0.15013601 0.20836218 0.07826239 -0.11776572 0.17020167 0.15606184 0.09928247 -0.10399106
0.12768738 -0.029971488 0.03667189 -0.100364916 -0.02710017 -0.12938084 0.12071493 -0.07274047
0.0798734 0.09084418 -0.10061414 -0.18627049 0.05794347 -0.11738363 0.026553469 -0.14662081
0.16682632 0.06011266 -0.09149838 0.05420324 0.030069096 -0.16660982 -0.04760372 -0.18984957
-0.17144623 0.14344305 0.023645455 -0.1821204 -0.021973962 0.105478555 0.021449095 -0.19003454
0.026481813 0.04883235 0.043428466 -0.040482204 0.17293851 -0.12224023 -0.16140552 0.14622259
-0.014280258 0.11796496 -0.1024149 0.13713565 0.112940595 0.08951814 0.1895744 0.112042956
-0.06974329 -0.016911928 0.056274198 0.11006516 0.08563071 -0.15310955 -0.19739969 -0.048909724
-0.12771685 -0.10877023 0.1740744 0.04325715 0.08724199 0.12674415 0.04015455 -0.01291062
-0.076364085 0.05477316 -0.054238588 -0.060291912 0.08102603 0.03217124 0.0065608663 -0.16577667
-0.07631947 -0.130564 -0.030227149 -0.040574886 -0.14955126 -0.12483993 0.17754324 0.06303163
0.17255689 -0.020208444 -0.12200277 -0.058284357 0.14881516 -0.12967344 0.006735702 -0.15400584
0.07403385 0.0702031 -0.17320074 -0.19863696 -0.12827042 -0.02108966 0.11606868 -0.18311165
-0.008749285 -0.09552229 0.15598196 0.042785536 0.12613766 0.051482186 0.083868034 0.090990975
0.15554431 0.16068387 -0.008127001 -0.16017397 -0.016430808 0.10881513 -0.086159796 0.3032747
0.11086957 0.15137714 0.1737818 -0.056672566 -0.11130303 -0.1759258 -0.16871482 0.09216532
-0.10182784 0.092139505 -0.08363346 -0.030643944 -0.1040943 -0.0028316127 -0.051283024 0.099287696
-0.055648632 -0.1178161 -0.04512185 0.18340527 0.0027505455 -0.13388695 -0.065869614 0.021463798
0.059563063 -0.09984997 -0.022467688 0.14769949 -0.1502223 0.1573395 0.11405726 -0.06224661
-0.013074934 0.13684437 -0.13522592 -0.13727121 0.0052310457 -0.028791355 -0.07941982 0.05578442
00000000: a228 d13d fd05 603e 8f27 3b3d 46c1 e53d
00000010: c82a d8bc e267 15bd 2107 d23d 1b08 4abd
00000020: 2877 1e3c e4f6 20bd 0f0b a6bd ea89 0dbe
00000030: 16dd 843d 34e0 4dbd 81fd b6bd 7602 533d
00000040: d953 263b 5e2b 433c 9412 a2bb 1fcd b7bd
00000050: 75d6 7bbd 3588 523c 0a43 453c f6b8 be3d
00000060: ba43 2f3e c935 b73d cf8b 95bd 4c7e a1ba
00000070: 1f29 5a3e f924 e93d 6361 9dbc 2c35 16bd
00000080: bd6e 053e 033e 073e 2554 3e3d 6eb0 493d
00000090: a745 ee3d 4139 98bd 8909 103c a002 d83b
000000a0: 1b8f 063e c425 f8ba 4e5c 88bd b540 a3bd
000000b0: af9d 7dbd bc3e bfbd ad5e fd3d ca8a 843d
000000c0: a5f8 2bbe 595d 2c3e ffb8 86bd 875e 313c
000000d0: f08a c83d e606 313e 0e78 ae3c 73e1 3c3d
000000e0: c1ad 9b3c c457 683d 42cb 96bc d13f ae3d
000000f0: 98d1 e0bd f933 a8bd f7e1 c1bd 7710 043d
00000100: e608 433c 2c74 05be 0567 dd3d 7f6b 81bc
00000110: 4252 ccbd b7d5 22be 4edb 993d 9f2a 253e
00000120: b737 893d eaeb 49bd 8cbe c5bd 8054 0fbe
00000130: 0fd5 9e3d 1e39 2e3e 623b 2ebe a444 bf3c
00000140: 7a61 c93c 2f48 04be ea88 233e 16fe 073e
00000150: cc4f 1ebe 70c6 1dbe d4ed a4bd a7ab eabc
00000160: 79a9 b3bd 7ae0 043d e4d9 163e f0dd 0f3e
00000170: b769 823d 7a42 c83d de41 db3c bebe ca3b
00000180: 41bd 19be e55c 553e 0848 a03d 272f f1bd
00000190: 5949 2e3e adce 1f3e 9c54 cb3d 44f9 d4bd
000001a0: 7bc0 023e c486 f5bc 4435 163d 1f8c cdbd
000001b0: 2d01 debc 697c 04be 6439 f73d f5f8 94bd
000001c0: aa94 a33d 830c ba3d c90e cebd b1bd 3ebe
000001d0: 2256 6d3d d466 f0bd a986 d93c c423 16be
000001e0: 85d4 2a3e b138 763d 8163 bbbd 3704 5e3d
000001f0: 7753 f63c c49b 2abe 1efc 42bd ed67 42be
00000200: 9a8f 2fbe bce2 123e 1db4 c13c c57d 3abe
00000210: bd02 b4bc 2405 d83d 03b6 af3c 6a98 42be
00000220: 63f0 d83c 6e04 483d 0ce2 313d abd0 25bd
00000230: cb16 313e 1659 fabd 7d47 25be 60bb 153e
00000240: bef7 69bc 9d97 f13d e7be d1bd 4a6d 0c3e
00000250: 664d e73d 4955 b73d cb1f 423e c776 e53d
00000260: 92d5 8ebd e28a 8abc c67f 663d d869 e13d
00000270: 275f af3d c0c8 1cbe 2523 4abe 9055 48bd
00000280: 35c8 02be edc2 debd 8f40 323e 692e 313d
00000290: eeab b23d 38c9 013e 1979 243d 1187 53bc
000002a0: c664 9cbd d259 603d 4829 5ebd a7f4 76bd
000002b0: faf0 a53d fdc5 033d 89fc d63b 5cc1 29be
000002c0: 624d 9cbd 92b2 05be ed9e f7bc da31 26bd
000002d0: f723 19be 14ac ffbd e5cd 353e ba16 813d
000002e0: c1b2 303e 2e8c a5bc 97dc f9bd 94bb 6ebd
000002f0: 0063 183e 1dc9 04be 2ab7 dc3b b5b3 1dbe
00000300: 0f9f 973d a5c6 8f3d 895b 31be 7d67 4bbe
00000310: 5259 03be 39c4 acbc 6bb5 ed3d 9f81 3bbe
00000320: 2959 0fbc 31a1 c3bd bcb9 1f3e e33f 2f3d
00000330: 3b2a 013e fcde 523d 01c3 ab3d 7a59 ba3d
00000340: 0247 1f3e 508a 243e 1d27 05bc a504 24be
00000350: e799 86bc 78da de3d 8c74 b0bd d246 9b3e
00000360: 960f e33d 9c02 1b3e dbf3 313e 7e21 68bd
00000370: d8f2 e3bd e525 34be 94c3 2cbe 2cc1 bc3d
00000380: 1d8b d0bd a3b3 bc3d 0548 abbd 0209 fbbc
00000390: 642f d5bd 9492 39bb 260e 52bd 5957 cb3d
000003a0: d2ef 63bd 9149 f1bd b0d1 38bd 97ce 3b3e
000003b0: 7f42 343b a919 09be a6e6 86bd d9d4 af3c
000003c0: 66f8 733d 247e ccbd 280e b8bc 893e 173e
000003d0: e0d3 19be 9b1d 213e da96 e93d 4df6 7ebd
000003e0: 3f38 56bc ee20 0c3e aa78 0abe d390 0cbe
000003f0: 3169 ab3b d9db ebbc dca6 a2bd 347e 643d

pre.2.bias f4 [64]
-0.090663254 -0.032805342 -0.0417788 0.15991718 -0.004829972 0.1304374 0.15407585 -0.080267176
0.099427134 -0.022993825 -0.0053569046 -0.14133535 0.12009099 -0.06384654 -0.118106425 0.09728057
0.09804423 0.1560853 -0.09825795 0.019306852 -0.14557768 0.007584012 0.041507155 0.066217005
-0.064510554 -0.15501586 0.043297354 0.14769527 0.08573066 -0.0095117465 0.0143289035 0.082696036
0.059812702 0.049880046 0.03529899 -0.13694416 0.14346543 0.14272603 -0.090377554 0.039069686
-0.06486098 -0.03006303 0.11076843 -0.07041801 0.01142097 -0.014097746 0.10260721 -0.006658777
0.1378049 -0.15399061 -0.00845861 0.06782236 -0.13493977 0.043701313 0.10382165 0.07230986
-0.032164533 0.086876884 0.09402432 -0.09052876 0.048081305 0.1857167 0.026637973 -0.024979724
00000000: a8ad b9bd e55e 06bd 3f20 2bbd 54c1 233e
00000010: be44 9ebb 6291 053e 0fc6 1d3e 1e63 a4bd
00000020: 74a0 cb3d 8c5d bcbc f988 afbb 37ba 10be
00000030: 44f2 f53d fac1 82bd c8e1 f1bd 093b c73d
00000040: 6acb c83d d3d4 1f3e 773b c9bd 6729 9e3c
00000050: 5112 15be 4e83 f83b 6803 2a3d c89c 873d
00000060: 1c1e 84bd 7abc 1ebe 9158 313d 6e3d 173e
00000070: 8e93 af3d 28d7 1bbc c7c3 6a3c 8a5c a93d
00000080: 2afe 743d 054f 4c3d ac95 103d 173b 0cbe
00000090: 9ae8 123e c626 123e de17 b9bd 8907 203d
000000a0: d5d5 84bd be46 f6bc 8fda e23d 5137 90bd
000000b0: 051f 3b3c 3cfa 66bc bb23 d23d df31 dabb
000000c0: ba1c 0d3e b7af 1dbe fb95 0abc 73e6 8a3d
000000d0: a72d 0abe 2600 333d 72a0 d43d 3117 943d
000000e0: f5be 03bd 82ec b13d d38f c03d 2467 b9bd
000000f0: e7f0 443d 852c 3e3e e137 da3c 47a2 ccbc

pre.4.weight f4 [64, 64, 3, 3]
-0.033671413 0.008764572 -0.029565435 -0.010482946 0.0397971 0.012703396 0.0069290246 0.0021483484
0.01940982 -0.036124773 0.022258949 -0.02793284 -0.018122766 0.038290087 0.0402778 0.02364302
-0.006407042 0.006324919 -0.025157535 0.014405843 0.040106304 0.008241268 -0.000835681 0.048789695
0.023907894 -0.0111842565 0.030245412 -0.0034884994 -0.046995383 -0.008179154 -0.014699702 0.022872418
0.0043418817 -0.019188898 0.0017091135 -0.022312174 -0.03578097 -0.037249025 -0.01812225 -0.022742132
0.008014496 0.043508537 0.018287284 0.041157227 0.026914714 -0.04836295 -0.035172738 -0.0137600675
-0.038652193 0.0039548734 -0.033417813 -0.042834062 0.021310423 0.012945949 -0.016201414 -0.0072364276
-0.026775261 -0.0472594 0.02123114 -0.029427134 -0.091119535 -0.018960236 -0.020995136 -0.0027387913
0.014020083 0.026772762 -0.018495444 -0.04689076 0.007208539 -0.023309344 -0.054894008 -0.03808296
0.0016094298 -0.00879542 0.010135543 0.043593362 0.019642366 0.057730176 -0.013024302 -0.009862235
0.016721297 0.017439296 0.02521756 -0.024058893 -0.050997943 -0.049762607 0.0349912 0.008018307
-0.0025216087 -0.023378875 0.039418545 0.024480196 0.011396624 0.008047501 0.0055002915 0.013717967
0.025609009 0.014377784 0.03526074 -0.0077190623 -0.03743775 0.022582592 -0.03674734 -0.0025533363
0.02790619 -0.0005459359 -0.02517073 -0.0297695 0.05493483 0.011287276 0.019687125 -0.032128178
0.0062013995 -0.017155226 0.04189778 0.008034047 -0.023825234 -0.04783888 -0.0065655387 0.018760266
-0.035808362 0.046451222 -0.029546045 -0.043318234 -0.01164137 0.022472443 0.025940213 -0.030334452
0.013314059 -0.0253178 0.00019290952 0.023472372 -0.018036766 -0.043171093 0.03093222 -0.06585666
-0.052072424 -0.06620426 0.019225435 0.032480903 -0.042601313 -0.042511966 -0.040830676 -0.057791963
-0.05188826 -0.04532876 0.017332949 -0.049249053 0.0049735685 -0.003986226 0.006675001 -0.016875815
0.005670359 -0.03316722 0.014909046 0.00943771 0.026112411 0.05980549 -0.024146706 0.028992804
-0.0042110034 0.029720042 -0.036871303 0.00085504237 -0.064993635 -0.0033460448 0.022463324 -0.027193468
-0.05951286 0.04359706 0.0051171985 0.029237794 0.012946868 -0.03747889 0.024901675 0.042236052
0.037246387 -0.00375412 -0.01057814 -0.02855037 -0.017628683 0.02873307 -0.019867621 -0.03826993
0.0012841036 -0.027953073 -0.009480128 0.01906779 -0.018350018 -0.0737542 -0.049657784 -0.04441116
-0.05541351 -0.047700457 -0.07134598 -0.03429439 -0.038118195 -0.03901287 0.02313263 -0.024595646
-0.044579327 -0.038327463 -0.008699547 -0.030470895 -0.0049910815 0.01992281 -0.031958878 0.03173258
0.030421577 0.036264192 -0.009209104 -0.026644357 0.019259539 -0.034978364 0.043381374 0.005997817
-0.040620387 0.014369303 -0.051626988 0.0006511187 0.031188987 -0.009438537 -0.05095777 -0.025454521
-0.027637865 -0.013991747 -0.019016393 -0.026121933 -0.03128666 -0.028350761 -0.025982598 -0.021208826
-0.048789978 0.02129181 0.03605011 0.047821507 0.043951593 -0.00652143 -0.0034894042 -0.010969496
-0.020082556 -0.03032473 -0.006571138 -0.03892359 -0.04597991 0.00258726 0.0042511453 -0.05028347
-0.03217888 0.010847606 0.027680341 0.017598502 -0.032081965 -0.015717179 0.0058101406 0.036974
00000000: 09eb 09bd 4899 0f3c 3633 f2bc aac0 2bbc
00000010: 4902 233d e821 503c df0c e33b 4ecb 0c3b
00000020: 5801 9f3c 92f7 13bd 6658 b63c 69d3 e4bc
00000030: 3276 94bc 11d6 1c3d 56fa 243d 02af c13c
00000040: 2af2 d1bb 4441 cf3b 2d17 cebc 7c06 6c3c
00000050: 8246 243d 6206 073c 9a11 5bba b4d7 473d
00000060: 7dda c33c 2c3e 37bc 3ac5 f73c 4f9f 64bb
00000070: 3b7e 40bd dc01 06bc 05d7 70bc f05e bb3c
00000080: 5846 8e3b 0932 9dbc 5504 e03a 05c8 b6bc
00000090: 118f 12bd 6f92 18bd 1d75 94bc b54d babc
000000a0: 3c4f 033c 0236 323d 37cf 953c 7b94 283d
000000b0: 3f7c dc3c 3b18 46bd 4a11 10bd e871 61bc
000000c0: c351 1ebd e297 813b 1ee1 08bd c572 2fbd
000000d0: 3293 ae3c 3f1b 543c d4b8 84bc 8e1f edbb
000000e0: cb57 dbbc 1393 41bd edec ad3c 2c11 f1bc
000000f0: e19c babd 7f52 9bbc fefd abbc 4b7d 33bb
00000100: 7db4 653c 8d52 db3c c283 97bc 8710 40bd
00000110: 9c35 ec3b 3df3 bebc 8ad8 60bd e1fc 1bbd
00000120: 81f3 d23a aa1a 10bc 8c0f 263c f48e 323d
00000130: 07e9 a03c 7a76 6c3d e263 55bc 3695 21bc
00000140: 1afb 883c dbdc 8e3c 0e95 ce3c 2817 c5bc
00000150: 38e3 50bd e0d3 4bbd ef52 0f3d 385f 033c
00000160: 9341 25bb 0e85 bfbc 5775 213d b18a c83c
00000170: e8b8 3a3c aad9 033c ca3b b43b 53c1 603c
00000180: fcc9 d13c cc90 6b3c 916d 103d 30f0 fcbb
00000190: 5358 19bd 21ff b83c 6184 16bd e055 27bb
000001a0: 869b e43c 231d 0fba d932 cebc 2bdf f3bc
000001b0: 5803 613d 44ee 383c e546 a13c d698 03bd
000001c0: 1c35 cb3b 1e89 8cbc 029d 2b3d 3ca1 033c
000001d0: 232d c3bc b4f2 43bd bb23 d7bb 21af 993c
000001e0: caab 12bd a343 3e3d 8c0a f2bc 766e 31bd
000001f0: 72bb 3ebc 2118 b83c 9280 d43c f57f f8bc
00000200: 3623 5a3c 4667 cfbc c147 4a39 2249 c03c
00000210: d7c1 93bc 2cd4 30bd 9165 fd3c dbdf 86bd
00000220: e549 55bd 1996 87bd a97e 9d3c b20a 053d
00000230: b77e 2ebd 0721 2ebd 113e 27bd 44b7 6cbd
00000240: c988 54bd a6aa 39bd d4fd 8d3c 60b9 49bd
00000250: 51f9 a23b e39e 82bb f7b9 da3b 263f 8abc
00000260: 6bce b93b 5ada 07bd 1245 743c a0a0 1a3c
00000270: b2e9 d53c 9af6 743d 50cf c5bc 5182 ed3c
00000280: 75fc 89bb 7277 f33c 5d06 17bd ec24 603a
00000290: 621b 85bd 5149 5bbb 0105 b83c d6c4 debc
000002a0: c2c3 73bd d592 323d 2cae a73b 1984 ef3c
000002b0: 1a1f 543c 7783 19bd 99fe cb3c b6ff 2c3d
000002c0: ab8f 183d af07 76bb ef4f 2dbc 77e2 e9bc
000002d0: 076a 90bc 9d61 eb3c 6cc1 a2bc eec0 1cbd
000002e0: 5e4f a83a d8fd e4bc 8a52 1bbc 0e34 9c3c
000002f0: c752 96bc 710c 97bd f665 4bbd 7ae8 35bd
00000300: 47f9 62bd 8e61 43bd d71d 92bd 4678 0cbd
00000310: d321 1cbd f6cb 1fbd a480 bd3c cf7c c9bc
00000320: d098 36bd 42fd 1cbd 8b88 0ebc 199e f9bc
00000330: 3a8c a3bb 2935 a33c 50e7 02bd 06fa 013d
00000340: ac36 f93c c389 143d c8e1 16bc 4445 dabc
00000350: 2ec6 9d3c 7945 0fbd abb0 313d 5689 c43b
00000360: 9061 26bd 3a6d 6b3c d276 53bd d6af 2a3a
00000370: 0c80 ff3c 18a4 1abc 18b9 50bd 0086 d0bc
00000380: ce68 e2bc a43d 65bc 44c8 9bbc aafd d5bc
00000390: 7126 00bd db3f e8bc 75d9 d4bc 22be adbc
000003a0: 00d8 47bd 296c ae3c 48a9 133d 7ce0 433d
000003b0: 9606 343d b8b1 d5bb 7dae 64bb 67b9 33bc
000003c0: 2c84 a4bc 916b f8bc b352 d7bb 586e 1fbd
000003d0: 6e55 3cbd 058f 293b 314d 8b3b 0af6 4dbd
000003e0: 00ce 03bd 28ba 313c e2c1 e23c bc2a 903c
000003f0: 6168 03bd 50c1 80bc fe62 be3b 0d72 173d

pre.4.bias f4 [64]
0.03624691 0.016748786 0.020372618 -0.043679945 0.0015716314 -0.014938727 0.008089712 -0.018527001
-0.02789639 0.013224169 -0.012767735 0.049768493 0.0073990365 0.040384553 -0.027908493 0.0058790436
-0.011059419 -0.017528644 -0.035778914 0.02306189 -0.021025825 0.007979479 -0.04443523 -0.0036677946
-0.026092676 -0.027133347 0.032983113 0.013438972 -0.019953208 0.0077588935 -0.024527187 0.021395527
0.012027154 0.004674821 -0.0145719545 0.014244274 -0.019465033 0.028492533 -0.016626557 -0.03829335
0.047306325 0.0072987224 -0.004411935 -0.011961845 -0.019106347 -0.026295807 0.022029672 -0.013259622
0.017432285 0.040404156 0.033519853 -0.029096648 0.02360006 -0.005489354 -0.009531555 -0.02400012
-0.034246527 0.05280481 0.028598642 -0.021804003 -0.009997478 -0.037200794 0.021216324 0.030229462
00000000: a477 143d c034 893c 7ae4 a63c bee9 32bd
00000010: 33ff cd3a 90c1 74bc b68a 043c f0c5 97bc
00000020: f886 e4bc 2faa 583c c32f 51bc 0cda 4b3d
00000030: 9e73 f23b 466a 253d 5aa0 e4bc fea4 c03b
00000040: 9132 35bc 3b98 8fbc e98c 12bd 4aec bc3c
00000050: 5a3e acbc 5cbc 023c b701 36bd 625f 70bb
00000060: 4fc0 d5bc c146 debc 4d19 073d 222f 5c3c
00000070: e974 a3bc 513e fe3b 3ded c8bc ac45 af3c
00000080: 8a0d 453c 3e2f 993b 35bf 6ebc d160 693c
00000090: 2275 9fbc 2c69 e93c 6b34 88bc 7dd9 1cbd
000000a0: 47c4 413d 1f2a ef3b fe91 90bb 9dfb 43bc
000000b0: ea84 9cbc 4e6a d7bc 9277 b43c e33e 59bc
000000c0: 27ce 8e3c d47e 253d 1d4c 093d 185c eebc
000000d0: ea54 c13c 0ae0 b3bb 3d2a 1cbc e69b c4bc
000000e0: 1646 0cbd db49 583d b347 ea3c 4f9e b2bc
000000f0: 76cc 23bc dc5f 18bd dbcd ad3c c7a3 f73c

post.0.weight f4 [32, 64, 1, 1]
-0.080257915 -0.069750935 0.04006352 0.09473845 0.05657374 0.061015863 0.09085607 -0.05650753
-0.09610772 -0.06636836 0.00047261076 0.11917322 0.16058832 -0.15317993 0.08620682 0.112821326
-0.034907874 0.008670587 -0.08849929 0.056222197 0.06719899 -0.039255884 0.0069761737 0.11561215
0.020590587 0.070091106 0.08061842 0.05093004 0.049350508 -0.018145898 -0.10727881 -0.027114326
-0.01886352 -0.053279698 -0.13115212 -0.08853867 0.041174345 -0.1464626 0.056725383 0.05183403
0.12722328 -0.0065940237 -0.023937507 -0.21258505 0.08366135 -0.037383143 -0.10588449 0.016560923
-0.0986339 -0.051752858 -0.07623077 -0.059320968 -0.07657214 -0.109067366 0.042459197 -0.18995836
-0.054989047 -0.067828 0.0011345323 -0.08020207 -0.005819606 0.0329892 0.01745549 -0.15472125
-0.009620463 -0.0139359515 -0.007045982 0.13085617 0.068832785 -0.1348967 0.0932449 -0.07598034
-0.1517712 -0.06676348 -0.08015751 0.045409154 -0.1464993 0.06716575 -0.08050771 -0.11257216
0.005828657 -0.12449869 -0.027578184 -0.12940733 -0.12948446 -0.11077281 -0.084716775 -0.049236204
-0.09027205 -0.13829574 0.0016246317 -0.08026416 -0.063446976 -0.07218119 -0.04089633 -0.08496768
0.015799586 -0.0941114 0.020962195 -0.11839194 0.030077718 0.15110576 -0.008443842 0.016433846
-0.0073447637 -0.017143963 -0.051059294 -0.060081664 -0.08086348 0.04826108 -0.07991536 0.033681504
-0.06933068 0.049007766 0.0641462 -0.03484412 0.0061483383 -0.011764689 0.041713107 0.12629722
-0.07750013 0.13644902 0.03113445 0.08364156 -0.05625047 0.02145875 -0.04300187 -0.07872974
-0.064614914 -0.007642093 -0.029525308 0.053564988 -0.067716986 -0.040758863 0.029595241 -0.03687011
0.041354537 -0.048048813 -0.065279864 0.069546364 0.04515154 -0.0033975784 -0.054161757 -0.026147986
0.105398074 -0.053393096 0.010563619 -0.019935068 -0.044210516 -0.11455489 -0.11821554 0.027118335
0.043009453 -0.08220396 0.08429685 -0.11460543 0.13848166 -0.026206143 -0.0014995884 0.099639416
-0.027385939 -0.09698532 0.097918704 -0.07060071 0.0066130366 0.029071536 0.036310617 -0.102423444
0.048182555 -0.015008019 0.061247822 0.11376426 -0.029965205 -0.023528725 -0.12020615 0.035431497
-0.01797228 -0.010294147 0.055282455 0.08668374 -0.08943939 0.0800291 -0.05222518 0.055785675
-0.11530421 -0.042434804 -0.09359921 -0.0678812 -0.14369027 -0.13358046 -0.046444383 0.06360822
-0.10721933 -0.0029069455 0.00094592036 -0.02931119 0.06505763 -0.020387638 -0.06940163 0.04042619
-0.11330825 -0.07001469 -0.090828784 0.074839704 0.121313214 0.017740518 -0.024638085 -0.03980935
0.06117274 0.09297373 -0.04217921 0.05707549 0.072705634 -0.060159132 -0.0075028525 0.12717207
0.09541178 -0.027233237 0.110845804 0.10722428 0.01859762 0.045964915 0.08664061 -0.13289285
-0.03344594 -0.012655666 -0.031647317 0.02007326 0.07468506 -0.11427079 0.036852587 -0.12550624
0.09930082 -0.06953522 -0.038943067 0.041714225 0.0008746338 -0.05949986 -0.13564049 0.07947287
0.04530842 0.07750391 -0.061930805 -0.058695648 0.073167525 0.08743357 -0.08100789 -0.06767725
0.0752929 0.05054224 0.080120236 0.0922459 -0.098763414 0.04497249 0.033306252 -0.009635828
00000000: 435e a4bd 94d9 8ebd a519 243d 3c06 c23d
00000010: deb9 673d c5eb 793d bf12 ba3d 7174 67bd
00000020: 20d4 c4bd 22ec 87bd bec8 f739 1711 f43d
00000030: 4471 243e 33db 1cbe 348d b03d de0e e73d
00000040: 8ffb 0ebd 140f 0e3c 1e3f b5bd 3f49 663d
00000050: a09f 893d c7ca 20bd 6398 e43b 10c6 ec3d
00000060: 97ad a83c ed8b 8f3d 451b a53d 059c 503d
00000070: c223 4a3d b5a6 94bc feb4 dbbd dd1e debc
00000080: ab87 9abc d03b 5abd be4c 06be c353 b5bd
00000090: 6ea6 283d 4bfa 15be e058 683d eb4f 543d
000000a0: d246 023e ae12 d8bb 9718 c4bc e5af 59be
000000b0: a456 ab3d 111f 19bd f8d9 d8bd c6aa 873c
000000c0: 9200 cabd cefa 53bd e11e 9cbd 8bfa 72bd
000000d0: dbd1 9cbd b65e dfbd b2e9 2d3d 7284 42be
000000e0: 323c 61bd 68e9 8abd 96b4 943a fc40 a4bd
000000f0: 65b2 bebb af1f 073d d1fe 8e3c 3f6f 1ebe
00000100: 259f 1dbc 9e53 64bc fbe1 e6bb 29ff 053e
00000110: 34f8 8c3d 5c22 0abe 2ff7 be3d 959b 9bbd
00000120: e969 1bbe 4bbb 88bd 9f29 a4bd f3fe 393d
00000130: ea03 16be 328e 893d 3ae1 a4bd 3c8c e6bd
00000140: 52fe be3b 2bf9 febd a5eb e1bc 5b83 04be
00000150: 9397 04be dbdc e2bd fd7f adbd e7ab 49bd
00000160: 8de0 b8bd 669d 0dbe 98f1 d43a 8961 a4bd
00000170: 7df0 81bd bbd3 93bd e982 27bd 8903 aebd
00000180: 226e 813c 7abd c0bd e9b8 ab3c 7977 f2bd
00000190: 8c65 f63c 78bb 1a3e 0a58 0abc 46a0 863c
000001a0: 58ac f0bb 7f71 8cbc 8d23 51bd 3118 76bd
000001b0: c19b a5bd 69ad 453d aaaa a3bd 9ef5 093d
000001c0: 3efd 8dbd 5ebc 483d 155f 833d b5b8 0ebd
000001d0: 0078 c93b afc0 40bc 5ddb 2a3d 0f54 013e
000001e0: 63b8 9ebd 4bb9 0b3e ad0d ff3c 444c ab3d
000001f0: e566 66bd 43ca af3c bb22 30bd 0f3d a1bd
00000200: d354 84bd 866a fabb 0fdf f1bc f666 5b3d
00000210: 34af 8abd c4f2 26bd b871 f23c 1d05 17bd
00000220: 6063 293d d5ce 44bd 73b1 85bd 536e 8e3d
00000230: d2f0 383d e8a9 5ebb b8d8 5dbd 4d34 d6bc
00000240: f2da d73d b8b2 5abd 0813 2d3c de4e a3bc
00000250: 1616 35bd c19b eabd fd1a f2bd 4527 de3c
00000260: ae2a 303d 8d5a a8bd d4a3 ac3d 40b6 eabd
00000270: 23ce 0d3e 44ae d6bc d68d c4ba c00f cc3d
00000280: 7a58 e0bc 3da0 c6bd 9a89 c83d 1b97 90bd
00000290: 2cb2 d83b 6e27 ee3c 71ba 143d 62c3 d1bd
000002a0: 125b 453d 32e4 75bc ffde 7a3d 3dfd e83d
000002b0: 9779 f5bc 50bf c0bc a42e f6bd 9e20 113d
000002c0: 9a3a 93bc c8a8 28bc db6f 623d 3f87 b13d
000002d0: 002c b7bd 4ce6 a33d 12ea 55bd 857f 643d
000002e0: 9d24 ecbd 1ed0 2dbd f1b0 bfbd 4c05 8bbd
000002f0: 8b23 13be 51c9 08be 773c 3ebd 0745 823d
00000300: cf95 dbbd 7482 3ebb a4f7 773a 051e f0bc
00000310: ef3c 853d fa03 a7bc 7122 8ebd ef95 253d
00000320: 280e e8bd dd63 8fbd 7104 babd 8f45 993d
00000330: 1073 f83d 9054 913c cfd5 c9bc 210f 23bd
00000340: 4490 7a3d 0369 be3d 1bc4 2cbd fdc7 693d
00000350: b1e6 943d 6c69 76bd 7dda f5bb 6539 023e
00000360: 4067 c33d 3d18 dfbc 2003 e33d 6798 db3d
00000370: 095a 983c b545 3c3d a270 b13d 1015 08be
00000380: 9cfe 08bd b659 4fbc 9ea0 01bd ad70 a43c
00000390: 7bf4 983d ce06 eabd bdf2 163d b584 00be
000003a0: 3a5e cb3d 7b68 8ebd c482 1fbd 89dc 2a3d
000003b0: ae47 653a 20b6 73bd 57e5 0abe acc2 a23d
000003c0: 5295 393d 5fba 9e3d 28ab 7dbd d96a 70bd
000003d0: dbd8 953d 5f10 b33d 77e7 a5bd 5f9a 8abd
000003e0: 2a33 9a3d 6105 4f3d 1416 a43d 6beb bc3d
000003f0: 7944 cabd 1335 383d 236c 083d 98df 1dbc

post.0.bias f4 [32]
-0.07613004 -0.037377883 0.06613689 -0.06254692 -0.09621487 0.0926338 -0.11436549 -0.0004665515
-0.10505302 -0.0858549 -0.085393555 -0.063662946 0.050025027 -0.108360276 -0.012307136 -0.04530948
-0.08741788 0.0738648 0.094291665 0.09469325 -0.020355895 -0.10963491 -0.093563244 0.11766556
0.08024357 -0.006837366 0.077449076 0.017025122 0.036781225 -0.076299325 -0.026051344 0.12708156
00000000: 11ea 9bbd 8d19 19bd c772 873d 9918 80bd
00000010: 4d0c c5bd cab6 bd3d 7438 eabd 7b9b f4b9
00000020: 0a26 d7bd b2d4 afbd d1e2 aebd b861 82bd
00000030: 0be7 4c3d feeb ddbd dfa3 49bc 6f96 39bd
00000040: 2508 b3bd 6e46 973d fd1b c13d 89ee c13d
00000050: 68c1 a6bc 4588 e0bd 169e bfbd a4fa f03d
00000060: be56 a43d fc0b e0bb 9f9d 9e3d 4578 8b3c
00000070: e9a7 163d d242 9cbd a169 d5bc ab21 023e

post.2.weight f4 [3, 32, 1, 1]
-0.18060714 0.16053298 0.1927826 -0.1505147 0.0931435 0.17428413 -0.12875085 -0.15749721
0.030656647 0.13885282 -0.12016917 -0.13818564 0.10833653 -0.10951534 0.11670238 0.05979214
0.046466883 -0.054146394 0.026701897 -0.1460324 -0.11160247 0.1846641 -0.066787794 0.089336075
-0.018573135 -0.14041972 0.17263897 0.07746955 -0.14778979 -0.12337861 0.06385329 0.16147873
-0.16430461 0.15467848 0.059927918 -0.15585577 -0.012208241 -0.13750178 0.13221128 0.08746471
0.11503413 0.065629594 -0.15189035 -0.15963058 0.09287122 -0.09761345 -0.004127335 0.06856199
0.19645567 -0.0955975 -0.13427566 0.054910276 0.12340271 -0.05256429 -0.19980875 0.10282787
0.113502234 0.122689195 -0.05344144 -0.1800103 0.16455385 -0.06655059 -0.19510368 -0.117648855
-0.06164943 0.05303515 0.032938115 -0.06762674 0.08780145 0.15330924 0.011945985 -0.0406052
-0.024603916 -0.17606765 0.11728151 -0.10507373 -0.16148426 0.1048448 -0.039440922 0.008995453
0.17268078 0.085803695 0.070154056 -0.17875123 0.12152131 -0.08102777 -0.03081597 -0.14543112
-0.079811394 -0.056917816 0.035273086 0.01923382 -0.18674256 0.1395038 -0.03561946 -0.060242858
00000000: 14f1 38be c262 243e cd68 453e 8720 1abe
00000010: 05c2 be3d 8a77 323e 43d7 03be f346 21be
00000020: a623 fb3c 6f2f 0e3e 411b f6bd 8980 0dbe
00000030: 8bdf dd3d 9449 e0bd a801 ef3d 9ae8 743d
00000040: 0f54 3e3d 9cc8 5dbd f0bd da3c 8489 15be
00000050: d68f e4bd 9618 3d3e 0ac8 88bd d5f5 b63d
00000060: b026 98bc 30ca 0fbe 45c8 303e 5ba8 9e3d
00000070: 3556 17be edad fcbd 84c5 823d ae5a 253e
00000080: 783f 28be 0964 1e3e fa76 753d a898 1fbe
00000090: 1305 48bc 44cd 0cbe 6562 073e b320 b33d
000000a0: 0497 eb3d cf68 863d 2589 1bbe 3376 23be
000000b0: 4433 be3d 8fe9 c7bd 983e 87bb 3b6a 8c3d
000000c0: ad2b 493e 9fc8 c3bd 8f7f 09be 99e9 603d
000000d0: 8fba fc3d a74d 57bd aa9a 4cbe 6b97 d23d
000000e0: dc73 e83d 7944 fb3d 69e5 5abd 9f54 38be
000000f0: ce80 283e ad4b 88bd 42c9 47be e2f1 f0bd
00000100: 1d84 7cbd 633b 593d 1eea 063d e37f 8abd
00000110: 3fd1 b33d 19fd 1c3e 18b9 433c a351 26bd
00000120: 278e c9bc 144b 34be 4a31 f03d e530 d7bd
00000130: 215c 25be dfb8 d63d ce8c 21bd aa61 133c
00000140: 3bd3 303e d9b9 af3d eeac 8f3d 900a 37be
00000150: 2ae0 f83d e3f1 a5bd c671 fcbc e5eb 14be
00000160: 2874 a3bd a822 69bd 837a 103d 3e90 9d3c
00000170: 7139 3fbe 16da 0e3e b6e5 11bd 37c1 76bd

post.2.bias f4 [3]
0.07682514 0.08222662 -0.12402765
00000000: 8056 9d3d 6e66 a83d 3502 febd

post.4.weight f4 [3, 3, 3, 3]
0.13415396 0.18762536 -0.0316454 0.0004382827 -0.016297536 0.037454363 -0.1709716 0.13073638
-0.091819294 -0.02248583 0.0013636915 0.16002893 -0.1964623 -0.19654228 0.008080716 -0.057250477
-0.061061617 0.003843298 -0.14661345 -0.01576981 0.01338906 -0.03308046 0.0340345 0.02620822
0.04329825 -0.12183631 -0.039968215 0.03863555 -0.17079431 0.15177192 0.0658532 0.16557175
-0.10616581 0.08915417 -0.058120456 0.19787182 0.16173732 -0.17284402 -0.037320323 -0.14620623
0.06358543 0.127412 -0.083067626 -0.0027820463 -0.11033777 -0.040646296 0.026663281 -0.17582674
0.17995991 0.16958511 -0.10135475 0.042140827 0.12632221 -0.1612865 -0.044847474 0.13618392
0.018725533 -0.13779128 -0.1439554 0.19153318 0.002299238 -0.05577925 0.14828591 0.029332401
0.10615246 -0.07713477 -0.013134211 -0.12576176 0.09962871 -0.10921944 -0.1746212 0.038717754
0.12903084 0.15516527 -0.14258586 0.118201025 0.16303396 -0.08203263 0.11461292 0.01792791
-0.169446
00000000: a85f 093e dd20 403e 9b9e 01bd 4fc9 e539
00000010: 6982 85bc bf69 193d 2e13 2fbe c2df 053e
00000020: c10b bcbd 3434 b8bc e5bd b23a a0de 233e
00000030: 6a2d 49be 6142 49be fb64 043c 7a7f 6abd
00000040: bf1b 7abd d7df 7b3b d621 16be b02f 81bc
00000050: ca5d 5b3c 607f 07bd c367 0b3d 9fb2 d63c
00000060: 8159 313d 5185 f9bd b6b5 23bd 4f40 1e3d
00000070: b4e4 2ebe 196a 1b3e 0bde 863d a48b 293e
00000080: 766d d9bd 7696 b63d b70f 6ebd e99e 4a3e
00000090: 789e 253e 06fe 30be 32dd 18bd 16b7 15be
000000a0: 1439 823d 4b78 023e 5c1f aabd fe52 36bb
000000b0: c5f8 e1bd bb7c 26bd f46c da3c ed0b 34be
000000c0: 6947 383e b8a7 2d3e 1493 cfbd dc9b 2c3d
000000d0: 9c5a 013e 4a28 25be fcb1 37bd cc73 0b3e
000000e0: 4a66 993c 2819 0dbe 0b69 13be 4621 443e
000000f0: d0ae 163b c878 64bd 43d8 173e 814a f03c
00000100: 7666 d93d d6f8 9dbd e030 57bc b1c7 00be
00000110: 230a cc3d 71ae dfbd e6cf 32be 8296 1e3d
00000120: a920 043e a5e3 1e3e 0702 12be 6113 f23d
00000130: 60f2 263e b900 a8bd 2eba ea3d 8ddd 923c
00000140: 4183 2dbe

post.4.bias f4 [3]
-0.023519183 0.010065561 0.13491294
00000000: 4dab c0bc 06ea 243c 9e26 0a3e

norm1.body.weight f4 [64]
1.0115932 1.0099643 1.0075008 1.0242985 0.9774082 0.99736977 1.0002893 1.0145051
1.0058848 1.018091 1.0304909 0.9966582 1.050037 1.0290048 0.9896672 0.99290764
0.99603146 0.9988095 0.99903166 0.9925214 0.9874275 1.0036288 1.006109 1.0056462
0.98898625 1.0052891 0.99615496 1.031875 1.039918 0.99578625 0.9990231 0.9988627
0.9969202 0.98727036 1.0264337 1.0227706 0.999527 1.0085839 0.9746836 1.0190578
1.0044402 0.99772626 0.9916749 1.0286471 0.9855198 0.9752855 0.9849226 1.014552
1.0111662 1.0100414 1.0501232 1.0031914 1.006652 0.96439785 1.0441763 1.0747241
0.9652893 1.0099229 0.99191064 0.9934888 1.0238926 0.98198223 1.0017462 0.9786992
00000000: e37b 813f 8346 813f c9f5 803f 371c 833f
00000010: 6c37 7a3f a053 7f3f 7b09 803f 4edb 813f
00000020: d5c0 803f ce50 823f 20e7 833f fe24 7f3f
00000030: 9d67 863f 6eb6 833f d45a 7d3f 322f 7e3f
00000040: ebfb 7e3f fbb1 7f3f 8ac0 7f3f e215 7e3f
00000050: 0cc8 7c3f e976 803f 2ec8 803f 04b9 803f
00000060: 342e 7d3f 50ad 803f 0304 7f3f 7b14 843f
00000070: 081c 853f d9eb 7e3f fabf 7f3f 77b5 7f3f
00000080: 2a36 7f3f c0bd 7c3f 2e62 833f 26ea 823f
00000090: 00e1 7f3f 4719 813f dd84 793f 7c70 823f
000000a0: 7f91 803f fd6a 7f3f 68de 7d3f b5aa 833f
000000b0: 074b 7c3f 4fac 793f e323 7c3f d7dc 813f
000000c0: e56d 813f 0949 813f 706a 863f 9368 803f
000000d0: f9d9 803f c7e2 763f 92a7 853f 8f90 893f
000000e0: 331d 773f 2745 813f dbed 7d3f 4855 7e3f
000000f0: ea0e 833f 3063 7b3f 3839 803f 088c 7a3f

norm1.body.bias f4 [64]
0.004367365 0.0068958406 0.018473376 -0.01770196 0.029648699 -0.0011492651 -0.00027906176 0.015658058
0.002844048 -0.013729693 -0.03533164 0.00045000686 0.0042109946 0.007174939 0.011578969 -0.0024398977
-0.013661424 0.0004601285 -0.0006467832 0.004799304 0.02235002 -0.005795976 0.003526014 0.004457673
0.010411348 -0.0065739923 0.0026147626 0.009806891 0.011231133 0.0025823626 -0.0026036522 -0.0007730387
0.010054844 0.011602703 0.004975221 0.001994691 0.024894284 -0.01225107 0.028024772 -0.021296795
0.013171503 0.0061911508 0.0070609064 0.005736307 -0.004397472 0.023738993 0.015448125 0.0063260146
-0.015843403 0.015525204 0.0047485563 -0.0030195238 0.014196135 0.034356114 -0.0033694052 0.008001704
0.031867478 -0.014474294 0.004640408 0.0068638646 -0.0077982047 0.0114380475 0.005653731 0.0039651557
00000000: 1d1c 8f3b 81f6 e13b 7a55 973c b303 91bc
00000010: d4e1 f23c f0a2 96ba 094f 92b9 5445 803c
00000020: 3563 3a3b 82f2 60bc e9b7 10bd e6ee eb39
00000030: 62fc 893b c01b eb3b b7b5 3d3c b1e6 1fbb
00000040: 2ad4 5fbc 673d f139 e38c 29ba 7b43 9d3b
00000050: 6417 b73c 2cec bdbb b314 673b ac11 923b
00000060: 5c94 2a3c a56a d7bb 705c 2b3b 15ad 203c
00000070: c902 383c db3c 293b 09a2 2abb c0a5 4aba
00000080: 13bd 243c 4319 3e3c 2e07 a33b 5db9 023b
00000090: 19ef cb3c b6b8 48bc 3594 e53c 9e76 aebc
000000a0: 4acd 573c 23df ca3b 2d5f e73b a1f7 bb3b
000000b0: ab18 90bb 4778 c23c 221a 7d3c 754a cf3b
000000c0: 06ca 81bc 6d5d 7e3c c799 9b3b 34e3 45bb
000000d0: e896 683c ffb8 0c3d 3dd1 5cbb 9419 033c
000000e0: 7987 023d 9725 6dbc 900e 983b 45ea e03b
000000f0: 1588 ffbb a666 3b3c ef42 b93b 23ee 813b

attn.scale f4 [4, 1, 1]
1.0109613 1.0115986 1.0351415 1.0139472
00000000: 2e67 813f 107c 813f 847f 843f 06c9 813f

attn.qkv1.weight f4 [96, 32, 1, 1]
-0.07877228 -0.17215845 -0.14675997 0.14832461 -0.18890797 0.11095825 0.050088372 0.11381086
0.17110816 0.09472409 0.012917097 0.122775085 -0.1356229 0.13815932 0.05166838 -0.13978387
0.07833513 0.10850545 -0.13781875 0.020670937 0.10302821 -0.15019153 -0.031527776 -0.08127406
0.16045392 0.15088786 -0.1297116 -0.15375258 -0.1677218 0.11379401 0.10544225 0.16713311
-0.07380659 -0.08672352 0.10705051 -0.035579674 -0.0766716 -0.091917746 0.019683477 0.09625973
0.13865964 0.063067235 -0.13381103 0.081240505 -0.16216165 0.18917315 0.15988798 -0.16458723
0.08399488 -0.03821654 -0.078129426 0.07112691 0.047678288 -0.14818196 -0.027610963 -0.17630498
-0.0015396321 0.067662865 -0.019273112 -0.16615011 -0.056362715 -0.09581296 0.14394431 0.09940921
0.08710327 0.064620055 0.13145803 0.05896 0.0902108 0.0095460145 0.11757449 0.043862853
0.02401519 -0.15467237 0.01658438 0.1079427 -0.1299422 0.1396664 0.1491447 -0.09590534
0.102003194 0.06469116 -0.02484083 -0.1573916 0.06982327 0.027155403 -0.14991179 -0.12077788
-0.11804685 0.15570807 0.003321917 -0.14981914 0.062910445 0.110303424 0.15092967 -0.044642583
0.07221204 -0.02078874 0.033024665 0.05011942 0.1073136 -0.075971246 0.13770258 0.07350617
0.030606119 0.1633133 -0.023835767 0.0033047607 -0.17462727 0.121553965 0.025029158 -0.11579076
0.09756602 -0.015449478 0.10680479 -0.16409355 -0.1541555 0.070506155 0.20687562 -0.014747318
-0.10084885 -0.036164477 -0.013247632 0.11785315 0.16552573 -0.16762516 0.15282264 0.1608625
-0.06928653 0.18085925 0.18334925 0.12282027 0.15316875 0.057796232 0.041106455 -0.15338343
0.03751645 -0.16445683 -0.04819934 -0.16338451 0.056884427 0.13144708 -0.052123684 0.14400956
-0.13624275 -0.12126106 -0.0074580284 0.10128948 0.07435252 -0.11171155 0.018349705 0.0031692388
-0.097129025 -0.16435283 0.08477935 0.08539777 0.04923739 -0.047394097 0.12188531 -0.070435956
0.12820895 -0.16056238 0.107856534 0.07667337 0.107593045 0.049963094 -0.14867368 0.15106086
-0.17831746 -0.07440257 -0.046176665 0.057537727 -0.10672922 0.19601919 0.07144347 0.1710714
-0.1661025 0.13317466 0.033551786 -0.006061372 -0.15387243 0.13782722 -0.040618926 0.04011506
0.13594772 -0.04675102 -0.04910795 -0.05055551 -0.09370135 0.056792196 -0.1473505 -0.119907506
0.11254951 -0.16812457 0.08538941 0.1227536 -0.18935752 0.016532004 0.020598747 -0.010475641
-0.10730983 -0.1704573 0.0819942 0.12145046 -0.11624486 -0.13144805 0.09137393 0.089107804
-0.04839996 0.04419982 0.102077566 0.10022565 -0.07669228 0.14529885 -0.17916092 0.03579719
-0.044490345 0.016994912 -0.057592254 0.0931283 -0.020608211 0.00944285 0.14132309 -0.024299836
0.0026035812 0.11140414 -0.12378935 0.16451347 -0.05224136 0.04450794 -0.12278985 0.12447387
-0.1410623 0.031126732 -0.05172196 0.033133514 0.02200244 -0.061692264 0.1787082 -0.0657322
-0.13847685 0.08002644 0.13675691 0.18304294 -0.14932276 -0.12770878 0.07824116 -0.048116717
-0.10723075 -0.09234929 0.019046796 -0.17308615 0.091054216 0.03836475 -0.1062712 0.03845448
00000000: 5c53 a1bd 4e4a 30be 3f48 16be 68e2 173e
00000010: 1771 41be 143e e33d 7729 4d3d ab15 e93d
00000020: fa36 2f3e b4fe c13d 3ba2 533c 8171 fb3d
00000030: bbe0 0abe a379 0d3e 39a2 533d 8123 0fbe
00000040: 2b6e a03d 1b38 de3d 5c20 0dbe 1956 a93c
00000050: 7400 d33d cfcb 19be 4523 01bd 0473 a6bd
00000060: 084e 243e 5982 1a3e 1ed3 04be 5171 1dbe
00000070: 43bf 2bbe d50c e93d 1bf2 d73d f124 2b3e
00000080: e927 97bd 1a9c b1bd 4c3d db3d febb 11bd
00000090: 0006 9dbd 5f3f bcbd 3e3f a13c d223 c53d
000000a0: cbfc 0d3e 6529 813d c205 09be 6c61 a63d
000000b0: b40d 26be 9bb6 413e adb9 233e 8e89 28be
000000c0: 8205 ac3d f288 1cbd 5202 a0bd fcaa 913d
000000d0: 4f4a 433d 03bd 17be 6330 e2bc 4b89 34be
000000e0: 7bcd c9ba d492 8a3d a5e2 9dbc 4123 2abe
000000f0: 97dc 66bd 9639 c4bd 2366 133e 0e97 cb3d
00000100: 3363 b23d 8557 843d ef9c 063e 0a80 713d
00000110: 71c0 b83d e366 1c3c e5ca f03d 89a9 333d
00000120: 81bb c43c 6f62 1ebe f7db 873c 1011 dd3d
00000130: 910f 05be b504 0f3e 63b9 183e 056a c4bd
00000140: 0de7 d03d cd7c 843d ff7e cbbc 432b 21be
00000150: 81ff 8e3d 0275 de3c 7a82 19be 655a f7bd
00000160: 8cc2 f1bd f071 1f3e 85b4 593b 306a 19be
00000170: 31d7 803d c3e6 e13d 4f8d 1a3e 24db 36bd
00000180: e8e3 933d 264d aabc df44 073d 054a 4d3d
00000190: 3cc7 db3d d096 9bbd e801 0d3e 678a 963d
000001a0: afb9 fa3c 9a3b 273e 3a43 c3bc af94 583b
000001b0: 7ed1 32be 49f1 f83d f309 cd3c b523 edbd
000001c0: b2d0 c73d cf1f 7dbc 78bc da3d 2408 28be
000001d0: f0da 1dbe 8865 903d 34d7 533e bc9e 71bc
000001e0: d889 cebd 3421 14bd 990c 59bc fe5c f13d
000001f0: 947f 293e eea5 2bbe 8a7d 1c3e 24b9 243e
00000200: 19e6 8dbd 2b33 393e e8bf 3b3e 3289 fb3d
00000210: 45d8 1c3e bebb 6c3d 3e5f 283d 8c10 1dbe
00000220: d9aa 193d 5f67 28be ac6c 45bd 454e 27be
00000230: a5ff 683d 109a 063e a57f 55bd 3e77 133e
00000240: 3883 0bbe b857 f8bd 7a62 f4bb dc70 cf3d
00000250: 2246 983d 06c9 e4bd 1f52 963c 01b3 4f3b
00000260: 95eb c6bd 1c4c 28be cca0 ad3d 07e5 ae3d
00000270: 25ad 493d 5020 42bd 019f f93d ba40 90bd
00000280: 3549 033e 776a 24be e3e3 dc3d ee06 9d3d
00000290: be59 dc3d 1aa6 4c3d ea3d 18be b3af 1a3e
000002a0: da98 36be 6060 98bd be23 3dbd aeac 6b3d
000002b0: d994 dabd 41b9 483e f450 923d 572d 2f3e
000002c0: c616 2abe f05e 083e 996d 093d 799e c6bb
000002d0: bc90 1dbe 9422 0d3e 0860 26bd b04f 243d
000002e0: e135 0b3e ff7d 3fbd 6b25 49bd 4b13 4fbd
000002f0: 7ee6 bfbd ef9e 683d 0de3 16be 1192 f5bd
00000300: 5c80 e63d d928 2cbe a5e0 ae3d 3d66 fb3d
00000310: f0e6 41be 206e 873c b4be a83c 06a2 2bbc
00000320: 42c5 dbbd 5c8c 2ebe 93ec a73d 05bb f83d
00000330: c911 eebd 519a 06be 4122 bb3d 277e b63d
00000340: 093f 46bd df0a 353d 0b0e d13d 1b43 cd3d
00000350: d810 9dbd 39c9 143e f675 37be 13a0 123d
00000360: 823b 36bd ea38 8b3c dbe5 6bbd 0dba be3d
00000370: 8dd2 a8bc 2fb6 1a3c 00b7 103e 7310 c7bc
00000380: d8a0 2a3b db27 e43d 4585 fdbd 3876 283e
00000390: 09fb 55bd f54d 363d 3f79 fbbd 28ec fe3d
000003a0: a372 10be 7dfd fe3c 68da 53bd 02b7 073d
000003b0: 763e b43c 07b1 7cbd 48ff 363e 9b9e 86bd
000003c0: e0cc 0dbe e7e4 a33d 010a 0c3e 9c6f 3b3e
000003d0: 11e8 18be 17c6 02be e73c a03d 0916 45bd
000003e0: cc9b dbbd a021 bdbd 0708 9c3c 7f3d 31be
000003f0: a27a ba3d 5b24 1d3d b7a4 d9bd 7282 1d3d

attn.qkv2.weight f4 [96, 96, 3, 3]
-0.043778285 -0.011475624 -0.014010337 0.020879297 -0.039801296 0.0107296 0.017901614 0.0022993512
-0.0093654115 -0.019401625 -0.020556696 -0.027827928 0.017965905 -0.00018130724 -0.01373557 0.010919903
-0.004641783 0.027345076 0.032396495 0.0027506652 0.032396853 -0.016486615 0.031357974 0.04394713
0.026889462 -0.02101327 -0.010696968 0.043927845 0.026523806 -0.016854819 0.018875211 -0.0012799816
0.034673654 0.038066536 0.0013593595 0.044768292 0.06008001 0.017804962 0.010762343 0.064984046
0.05731929 0.039860934 0.029902212 0.05247489 0.015873604 0.00064964395 -0.002410887 -0.021623936
-0.035631616 -0.011420227 0.011811972 -0.01757202 -0.021751199 -0.022902435 0.017561844 0.03347566
-0.0050108926 0.014740867 0.024087977 0.0019092141 -0.017104806 0.02767026 0.016922062 -0.021690441
-0.02431149 -0.06771913 -0.0060169874 -0.039160054 -0.04211225 -0.05879628 -0.05200784 -0.036069345
-0.019285068 -0.030841097 -0.021057317 -0.03884709 -0.04603128 -0.012627335 0.011935856 -0.029686963
-0.04287281 -0.0062364214 0.023667378 0.0043298034 -0.024193075 0.013883257 -0.018355235 0.022209568
-0.026678218 -0.0010589226 0.02689281 -0.024014777 -0.013102292 0.03954006 0.0039696274 -0.009140243
-0.021505043 -0.019999396 0.026290474 -0.03922333 0.0055002365 -0.024822002 -0.029280404 0.01534091
-0.024604019 0.021646084 -0.034534745 0.015533149 -0.010042602 -0.02563787 0.0066391947 0.008911953
0.0075142933 -0.0063020997 0.039649483 0.02356547 0.025189651 0.023871196 -0.00022186457 -0.02800484
-0.030783143 0.011771031 0.012764502 0.026727809 -0.00376104 -0.012454193 -0.000246114 -0.012797464
0.040374048 0.006173505 0.034520946 0.022249788 0.008649485 -0.013860581 0.032825243 -0.019047922
-0.0058778576 -0.022976955 -0.029842239 -0.025955757 -0.010420965 -0.0059581115 -0.015505323 -0.03758803
0.014655635 -0.01442766 -0.026827797 -0.0005481959 0.00051739736 0.021788053 -0.0024570874 0.035698522
0.025809193 -0.0063213944 -0.028828094 0.029866513 -0.000758658 0.029540345 -0.026212031 0.00019113459
0.01649372 0.030672494 -0.02777822 0.005504076 -0.04461478 -0.019048404 0.010127437 -0.014522408
0.0110864155 -0.017464474 -0.012145769 0.013821532 -0.011065505 0.001977384 -0.028739478 0.005443841
0.022180507 0.00060127024 0.0012196274 -0.032025546 -0.015402736 -0.0130420355 -0.023067944 0.008896282
-0.03057451 -0.015675735 0.013741542 -0.037076246 0.0120191695 -0.022668175 0.022601366 -0.027851965
-0.0045645298 0.01095079 -0.025870912 -0.019611893 -0.017195513 0.0061197965 0.016750172 -0.029353825
-0.002927055 -0.027874338 0.012941907 0.008660298 -7.4333955e-05 0.0071986713 0.018820006 0.013415443
-0.03195421 -0.03345496 -0.03058283 -0.009463576 -0.030197848 -0.0014910453 0.027819427 -0.006419803
-0.02684199 -0.0021529817 0.032034017 0.016337607 -0.0065726605 0.03608506 -0.00094621285 -0.01859452
-0.012356563 0.008684975 0.0013161863 0.021658076 0.009702143 0.050277468 0.039942052 -0.0024881864
0.029830968 0.021921199 0.0010211952 -0.010125419 0.03140749 0.018586658 -0.002154808 0.020141156
-0.010526078 0.02459266 0.033787962 -0.024484318 -0.04648056 0.0057972963 -0.006976844 0.0023687852
-0.028030854 -0.03558003 0.017788226 -0.017896764 -0.023439886 -0.03228082 -0.005799823 -0.042540915
00000000: dc50 33bd 4104 3cbc 9d8b 65bc 0f0b ab3c
00000010: af06 23bd 34cb 2f3c 68a6 923c b6b0 163b
00000020: 6271 19bc 28f0 9ebc 8466 a8bc 65f7 e3bc
00000030: 3c2d 933c 4b1d 3eb9 280b 61bc 65e9 323c
00000040: 191a 98bb c802 e03c 30b2 043d 8144 343b
00000050: 90b2 043d f00e 87bc 3871 003d e801 343d
00000060: 4a47 dc3c 0524 acbc 5642 2fbc afed 333d
00000070: 7448 d93c 1e13 8abc 30a0 9a3c 0ec5 a7ba
00000080: f605 0e3d a8eb 1b3d 892c b23a f55e 373d
00000090: 7516 763d b6db 913c 8a54 303c 5b16 853d
000000a0: a2c7 6a3d 3845 233d 7cf5 f43c e9ef 563d
000000b0: 5c09 823c de4c 2a3a f9ff 1dbb ae24 b1bc
000000c0: 75f2 11bd e71b 3bbc 0087 413c 32f3 8fbc
000000d0: 922f b2bc e39d bbbc dbdd 8f3c c61d 093d
000000e0: 6a32 a4bb ad83 713c 2654 c53c 983e fa3a
000000f0: 611f 8cbc beac e23c 23a0 8a3c 27b0 b1bc
00000100: e428 c7bc 54b0 8abd 262a c5bb 4b66 20bd
00000110: e57d 2cbd 5ed4 70bd 2c06 55bd 73bd 13bd
00000120: b8fb 9dbc 78a6 fcbc 6580 acbc 201e 1fbd
00000130: 4c8b 3cbd e2e2 4ebc 9c8e 433c 1332 f3bc
00000140: 669b 2fbd e55a ccbb 17e2 c13c 06e1 8d3b
00000150: 8e30 c6bc 9a76 633c b85d 96bc d7f0 b53c
00000160: 478c dabc 8ccb 8aba 4f4e dc3c a3ba c4bc
00000170: ffaa 56bc c2f4 213d a613 823b f5c0 15bc
00000180: 582b b0bc c6d5 a3bc 1f5f d73c a4a8 20bd
00000190: 543b b43b 8357 cbbc 75dd efbc 7158 7b3c
000001a0: 5e8e c9bc 2153 b13c 4e74 0dbd c07e 7e3c
000001b0: ba89 24bc 8306 d2bc 9a8d d93b 7103 123c
000001c0: 763a f63b d881 cebb 7f67 223d 5f0c c13c
000001d0: 875a ce3c 878d c33c 51a4 68b9 686a e5bc
000001e0: ee2c fcbc 48db 403c 3422 513c 47f4 da3c
000001f0: c87b 76bb ac0c 4cbc dd08 81b9 74ac 51bc
00000200: 425f 253d 1d4b ca3b d665 0d3d 3045 b63c
00000210: 92b6 0d3c 7e17 63bc c373 063d 630a 9cbc
00000220: 0b9b c0bb 2b3a bcbc b677 f4bc 2ba1 d4bc
00000230: b2bc 2abc 433c c3bb 0a0a 7ebc e8f5 19bd
00000240: 301e 703c fe61 6cbc f8c5 dbbc ceb4 0fba
00000250: f3a1 073a dc7c b23c 1607 21bb 9d38 123d
00000260: cd6d d33c b323 cfbb e528 ecbc 9eaa f43c
00000270: ade0 46ba 98fe f13c 9dba d6bc 4d6b 4839
00000280: d61d 873c e244 fb3c 268f e3bc 895b b43b
00000290: fdbd 36bd 660b 9cbc 8ded 253c 65ef 6dbc
000002a0: cca3 353c a811 8fbc 0cff 46bc b573 623c
000002b0: 184c 35bc 0097 013b 0e6f ebbc 4062 b23b
000002c0: e5b3 b53c 909e 1d3a e8db 9f3a 382d 03bd
000002d0: c25b 7cbc 43ae 55bc fcf8 bcbc b6c1 113c
000002e0: 6577 fabc 666a 80bc 3424 613c 43dd 17bd
000002f0: 0dec 443c 9cb2 b9bc 8026 b93c ce29 e4bc
00000300: 0d92 95bb f16a 333c 3cef d3bc 1fa9 a0bc
00000310: 9bdd 8cbc 9388 c83b a837 893c 6f77 f0bc
00000320: d5d3 3fbb b958 e4bc 4b0a 543c ece3 0d3c
00000330: bde3 9bb8 d5e2 eb3b 6a2c 9a3c 72cc 5b3c
00000340: 6be2 02bd 1108 09bd d888 fabc 1d0d 1bbc
00000350: 7a61 f7bc 2e6f c3ba 91e5 e33c 365d d2bb
00000360: bce3 dbbc 0a19 0dbb 1a36 033d 72d6 853c
00000370: 795f d7bb eecd 133d 450b 78ba 8953 98bc
00000380: 2e73 4abc 6d4b 0e3c e283 ac3a 476c b13c
00000390: bdf5 1e3c bfef 4d3d 479a 233d d710 23bb
000003a0: 1360 f43c 1694 b33c a0d9 853a 16e5 25bc
000003b0: 24a5 003d 0c43 983c ae37 0dbb 11ff a43c
000003c0: 9275 2cbc 8c76 c93c 3f65 0a3d 5693 c8bc
000003d0: 6662 3ebd 3ff7 bd3b 029e e4bb 9f3d 1b3b
000003e0: f6a0 e5bc 5ebc 11bd 9db8 913c 3c9c 92bc
000003f0: 0105 c0bc e538 04bd 710c bebb 623f 2ebd
