Puff-Net/model/base_iter_10000.pth (torch, 598545 bytes, 28 tensors)

pre.0.weight f4 [32, 3, 1, 1]
-0.5688958 -0.38693807 -0.44410056 -0.3222385 -0.51806134 0.054604463 -0.24777721 -0.30601105
-0.50388247 -0.17343855 0.4791414 -0.05419035 -0.19223735 -0.14975326 0.21124777 0.19091512
0.12832285 -0.13215499 -0.53031766 0.06335064 0.53319377 0.54908055 0.39018434 0.311451
-0.14124517 -0.08365879 -0.26843053 -0.4555086 -0.53717273 -0.4448796 0.123598926 -0.1814746
0.303777 0.1408294 0.5550756 0.32975718 -0.32832655 0.14785579 -0.029445758 -0.047920384
-0.5128277 -0.15358517 0.50433165 0.10971288 0.36752832 -0.224581 0.09588573 -0.31624752
0.36482835 -0.11872463 -0.13381842 0.19221465 -0.2984045 0.23171534 -0.4369535 -0.24232978
0.19550464 -0.18336616 0.40615633 0.13682283 0.102221 -0.35756943 -0.05590274 -0.22745511
-0.010764241 -0.37582448 -0.13314722 -0.54641014 -0.08356198 0.121378355 -0.48682225 0.47673067
-0.21719746 -0.5446978 -0.44043648 -0.06653211 -0.2657115 -0.3795567 0.14039971 -0.2058695
0.33717427 -0.063501514 0.23923427 -0.44381392 0.39984506 -0.24953604 -0.38541424 -0.26484925
-0.5699313 -0.27770048 -0.2836557 0.4805087 -0.37293318 0.06884536 0.3451743 0.35915002
00000000: 28a3 11bf bf1c c6be 2661 e3be 72fc a4be
00000010: ab9f 04bf eea8 5f3d 4fb9 7dbe 7bad 9cbe
00000020: 71fe 00bf e099 31be 0652 f53e b3f6 5dbd
00000030: ded9 44be eb58 19be 5651 583e 417f 433e
00000040: 1167 033e a353 07be e6c2 07bf fbbd 813d
00000050: 637f 083f 8b90 0c3f 3ec6 c73e 8176 9f3e
00000060: 93a2 10be 4d55 abbd ba6f 89be 6c38 e9be
00000070: 2784 09bf 42c7 e3be 6f21 fd3d 7ad4 39be
00000080: a988 9b3e 9535 103e 6f19 0e3f efd5 a83e
00000090: 6b1a a8be 8267 173e 3b38 f1bc 2a48 44bd
000000a0: ad48 03bf 6e45 1dbe e11b 013f 25b1 e03d
000000b0: ac2c bc3e 90f8 65be bd5f c43d 32eb a1be
000000c0: c8ca ba3e e625 f3bd b207 09be ebd3 443e
000000d0: 7ac8 98be c946 6d3e 5fb8 dfbe 4c25 78be
000000e0: 5e32 483e 57c4 3bbe b9f3 cf3e 491b 0c3e
000000f0: 3e59 d13d 5713 b7be 46fa 64bd fee9 68be
00000100: 805c 30bc 116c c0be bf57 08be 89e1 0bbf
00000110: 8b22 abbd 3795 f83d c440 f9be 0b16 f43e
00000120: 0369 5ebe 5171 0bbf e480 e1be fd41 88bd
00000130: 560b 88be 4155 c2be f1c4 0f3e 74cf 52be
00000140: 1ba2 ac3e 150d 82bd d4f9 743e 943b e3be
00000150: 7eb8 cc3e 6086 7fbe 0455 c5be 529a 87be
00000160: 05e7 11bf c22e 8ebe 523b 91be 3c05 f63e
00000170: 19f1 bebe ccfe 8c3d b0ba b03e 83e2 b73e

pre.0.bias f4 [32]
-0.47586367 0.2229065 0.39972788 0.15879476 0.129774 0.35707647 0.49413702 0.017620202
-0.30687052 -0.2822895 0.46754536 -0.32289115 -0.250954 -0.3479343 -0.47450426 0.44771403
-0.40696794 -0.3627989 0.49972805 0.54183275 0.5503093 -0.46391708 0.062704004 -0.05952148
0.18928896 -0.11715376 -0.53249073 0.5369708 0.038294654 -0.25798225 0.10342623 -0.14980912
00000000: 67a4 f3be 9a41 643e 22a9 cc3e 189b 223e
00000010: 7ae3 043e bad2 b63e 87ff fc3e 3e58 903c
00000020: 221e 9dbe 4088 90be 1b62 ef3e fd51 a5be
00000030: 0b7d 80be 7224 b2be 39f2 f2be c63a e53e
00000040: 1a5e d0be c7c0 b9be 5bdc ff3e 8db5 0a3f
00000050: 12e1 0c3f 8a86 edbe f56a 803d cccc 73bd
00000060: f7d4 413e 4fee efbd 5051 08bf eb76 093f
00000070: dbda 1c3d 4016 84be 22d1 d33d 9067 19be

pre.2.weight f4 [64, 32, 1, 1]
0.10212828 0.20677668 0.034919083 0.099220715 -0.041519664 -0.04545973 0.09065095 -0.056364357
0.009671964 -0.039297953 -0.08982285 -0.15142086 0.06487481 -0.050262645 -0.10746908 0.039753526
0.0025379567 0.011912195 -0.017158618 -0.10079312 -0.06935751 0.012849857 -0.011359854 0.084465116
0.14783616 0.089458056 -0.07302057 -0.011982686 0.1881109 0.11384005 -0.03688295 -0.0476577
0.13030525 0.1406167 0.057117093 0.056665864 0.12776563 -0.065098144 0.017040977 0.0074682767
0.13140528 -0.0018932153 -0.05878931 -0.08632558 -0.061917957 -0.093381375 0.11559809 0.081501104
-0.16794069 0.16832484 -0.05261638 0.019121839 0.11138515 0.17287788 0.052918024 0.060247894
0.02866209 0.056724325 -0.018407468 0.099494286 -0.07328299 -0.08213038 -0.07606903 0.028216457
0.011903977 -0.11414801 0.11302369 -0.021217396 -0.09790235 -0.15824386 0.07265238 0.1617268
0.0670008 -0.04929725 -0.09479414 -0.14246914 0.077554815 0.17013976 -0.16478199 0.021745991
0.024582613 -0.12918161 0.15930595 0.13127126 -0.15065053 -0.15407729 -0.060429413 0.0105123045
-0.0766084 0.03244064 0.14731556 0.13999446 0.07092887 0.097783044 0.012130766 0.0035721986
-0.15013601 0.1893654 0.07145482 -0.109662876 0.17260505 0.15758044 0.10368054 -0.101913214
0.12768738 -0.029971488 0.037018433 -0.09519817 -0.02710017 -0.12938084 0.12239133 -0.069158524
0.0798734 0.09084418 -0.098762356 -0.18214846 0.05536159 -0.11738363 0.007991815 -0.16184519
0.15349014 0.06011266 -0.09149838 0.05724397 0.040428843 -0.16660982 -0.030254886 -0.18450242
-0.17144623 0.12271809 0.009232223 -0.17475359 -0.014990146 0.10776512 0.02785216 -0.18672481
0.026481813 0.04883235 0.045892254 -0.035405125 0.17293851 -0.12224023 -0.1565548 0.14929378
-0.014280258 0.11796496 -0.09877322 0.14216477 0.11186375 0.08951814 0.18564172 0.12854616
-0.08854503 -0.016911928 0.056274198 0.11297348 0.111226454 -0.15310955 -0.18240973 -0.043261025
-0.12771685 -0.117741786 0.17541714 0.04044243 0.07887029 0.12953597 0.03656855 -0.01444346
-0.076364085 0.05477316 -0.05326787 -0.07320987 0.08102603 0.03217124 -0.006960266 -0.16146027
-0.07631947 -0.130564 -0.030723263 -0.04139613 -0.1446758 -0.12483993 0.150715 0.051662855
0.15173478 -0.020208444 -0.12200277 -0.054179106 0.16445468 -0.12967344 0.0048797806 -0.16518337
0.07403385 0.05391917 -0.17738225 -0.19083099 -0.1307019 -0.019290268 0.11578289 -0.18180299
-0.008749285 -0.09552229 0.15398222 0.04601403 0.12613766 0.051482186 0.07935142 0.09558508
0.15554431 0.16068387 -0.010087203 -0.15750161 -0.019947577 0.10881513 -0.108053535 0.26734918
0.11174482 0.15137714 0.1737818 -0.051919717 -0.09894187 -0.1759258 -0.1473103 0.09571189
-0.10182784 0.09082236 -0.0854804 -0.039179347 -0.118460216 -0.01008077 -0.061481148 0.0939745
-0.055648632 -0.1178161 -0.052985463 0.17909393 0.0027505455 -0.13388695 -0.069120735 0.010297964
0.059563063 -0.09984997 -0.033798914 0.13906594 -0.15881732 0.1573395 0.10177464 -0.0781425
-0.011428498 0.13684437 -0.13522592 -0.14678586 -0.013274515 -0.028791355 -0.08894169 0.050669145
00000000: a228 d13d 44bd 533e 5007 0f3d 3b34 cb3d
00000010: 8610 2abd fb33 3abd 35a7 b93d 50de 66bd
00000020: 2877 1e3c e4f6 20bd 0bf5 b7bd 120e 1bbe
00000030: 16dd 843d 34e0 4dbd c018 dcbd 98d4 223d
00000040: d953 263b 5e2b 433c 3b90 8cbc a06c cebd
00000050: 4f0b 8ebd 3588 523c ae1e 3abc 0cfc ac3d
00000060: 5d62 173e c935 b73d cf8b 95bd 0753 44bc
00000070: 25a0 403e f924 e93d 9412 17bd b834 43bd
00000080: bd6e 053e d3fd 0f3e 9df3 693d 771a 683d
00000090: fed4 023e 2d52 85bd 8599 8b3c 72b8 f43b
000000a0: 1b8f 063e c425 f8ba 0fcd 70bd 77cb b0bd
000000b0: af9d 7dbd bc3e bfbd b1be ec3d 0dea a63d
000000c0: a5f8 2bbe 595d 2c3e 4684 57bd 67a5 9c3c
000000d0: e61d e43d e606 313e 92c0 583d 7fc6 763d
000000e0: c2cc ea3c c457 683d 42cb 96bc a9c3 cb3d
000000f0: 6415 96bd f933 a8bd 14ca 9bbd 3326 e73c
00000100: e608 433c 6fc6 e9bd f778 e73d 1bd0 adbc
00000110: 0781 c8bd ae0a 22be c5ca 943d b69b 253e
00000120: b737 893d eaeb 49bd 6e23 c2bd 6ee3 11be
00000130: 0fd5 9e3d 1e39 2e3e 9cbc 28be a624 b23c
00000140: 7a61 c93c 2f48 04be 1921 233e f96b 063e
00000150: 2244 1abe 70c6 1dbe d584 77bd cd3b 2c3c
00000160: dde4 9cbd 7ae0 043d e4d9 163e b55a 0f3e
00000170: 2843 913d 7a42 c83d 1fc0 463c 8c1b 6a3b
00000180: 41bd 19be 01e9 413e e856 923d ee96 e0bd
00000190: 61bf 303e c45c 213e 7756 d43d e0b7 d0bd
000001a0: 7bc0 023e c486 f5bc a4a0 173d 42f7 c2bd
000001b0: 2d01 debc 697c 04be 4ea8 fa3d fca2 8dbd
000001c0: aa94 a33d 830c ba3d eb43 cabd 2085 3abe
000001d0: d6c2 623d d466 f0bd 1af0 023c bfba 25be
000001e0: 852c 1d3e b138 763d 8163 bbbd a778 6a3d
000001f0: b798 253d c49b 2abe 18d9 f7bc 34ee 3cbe
00000200: 9a8f 2fbe 9f53 fb3d c042 173c 9bf2 32be
00000210: 3b99 75bc f6b3 dc3d 372a e43c ca34 3fbe
00000220: 63f0 d83c 6e04 483d 84f9 3b3d f704 11bd
00000230: cb16 313e 1659 fabd e74f 20be 78e0 183e
00000240: bef7 69bc 9d97 f13d 9d49 cabd a493 113e
00000250: d218 e53d 4955 b73d dd18 3e3e 9ba1 033e
00000260: 1957 b5bd e28a 8abc c67f 663d a45e e73d
00000270: b2ca e33d c0c8 1cbe 9ec9 3abe 7932 31bd
00000280: 35c8 02be 9b22 f1bd 8da0 333e f6a6 253d
00000290: bf86 a13d 14a5 043e e7c8 153d 43a4 6cbc
000002a0: c664 9cbd d259 603d 692f 5abd 0eef 95bd
000002b0: faf0 a53d fdc5 033d f112 e4bb d755 25be
000002c0: 624d 9cbd 92b2 05be 5aaf fbbc fd8e 29bd
000002d0: e525 14be 14ac ffbd 0855 1a3e 6e9c 533d
000002e0: 5d60 1b3e 2e8c a5bc 97dc f9bd e9ea 5dbd
000002f0: cf66 283e 1dc9 04be 91e6 9f3b d425 29be
00000300: 0f9f 973d 59da 5c3d b1a3 35be 3369 43be
00000310: b8d6 05be a006 9ebc 941f ed3d 902a 3abe
00000320: 2959 0fbc 31a1 c3bd 84ad 1d3e 3579 3c3d
00000330: 3b2a 013e fcde 523d ff82 a23d 1cc2 c33d
00000340: 0247 1f3e 508a 243e cc44 25bc 1a48 21be
00000350: 1a69 a3bc 78da de3d 2c4b ddbd fee1 883e
00000360: 78da e43d 9c02 1b3e dbf3 313e c5a9 54bd
00000370: 09a2 cabd e525 34be 83d8 16be 9804 c43d
00000380: 1d8b d0bd 1301 ba3d 5910 afbd 867a 20bd
00000390: 459b f2bd d029 25bc a8d3 7bbd b475 c03d
000003a0: d2ef 63bd 9149 f1bd 4907 59bd 6664 373e
000003b0: 7f42 343b a919 09be 2c8f 8dbd cbb8 283c
000003c0: 66f8 733d 247e ccbd bb70 0abd 4d67 0e3e
000003d0: 02a1 22be 9b1d 213e 396f d03d 2d09 a0bd
000003e0: 983e 3bbc ee20 0c3e aa78 0abe 084f 16be
000003f0: 5a7d 59bc d9db ebbc 1027 b6bd 738a 4f3d

pre.2.bias f4 [64]
-0.10044402 -0.022290166 -0.04098718 0.16134746 -0.0020747015 0.13238144 0.15442748 -0.08888488
0.10054794 -0.022710487 0.0029671923 -0.14993995 0.12441809 -0.065610245 -0.11709303 0.094183676
0.1076343 0.15643115 -0.096303195 0.018176092 -0.15101159 0.007083325 0.047244143 0.072307624
-0.0677445 -0.16450894 0.05415764 0.15074225 0.090473086 -0.011983728 0.010912219 0.08144513
0.060280144 0.05889964 0.03311784 -0.14017795 0.1496579 0.14754178 -0.09187608 0.042039532
-0.064259075 -0.035632078 0.12759224 -0.083389856 0.00529269 -0.01577115 0.10674275 -0.003869082
0.13577545 -0.1584549 -0.0069506248 0.073210105 -0.14257532 0.048374355 0.10315846 0.07086484
-0.034802403 0.09337238 0.09912114 -0.09885489 0.05190198 0.18260671 0.018869871 -0.024119904
00000000: 98b5 cdbd de99 b6bc 2ce2 27bd 4538 253e
00000010: b7f7 07bb 008f 073e 3d22 1e3e 4709 b6bd
00000020: 14ec cd3d 580b babc 3a75 423b dc89 19be
00000030: e9ce fe3d aa5e 86bd 78ce efbd 5fe3 c03d
00000040: 5f6f dc3d 7d2f 203e 9c3a c5bd 07e6 943c
00000050: c8a2 1abe 3d1b e83b 1383 413d 0516 943d
00000060: a1bd 8abd 0875 28be 67d4 5d3d 2d5c 1a3e
00000070: f449 b93d 6657 44bc 2ac9 323c b4cc a63d
00000080: 50e8 763d c040 713d 92a6 073d cf8a 0fbe
00000090: ec3f 193e 3115 173e 8729 bcbd a531 2c3d
000000a0: 439a 83bd f1f2 11bd 8aa7 023e 4dc8 aabd
000000b0: 4d6e ad3b 8032 81bc f19b da3d 6d90 7dbb
000000c0: b808 0b3e 0042 22be 11c2 e3bb 2eef 953d
000000d0: 44ff 11be 3024 463d be44 d33d 9621 913d
000000e0: f78c 0ebd 053a bf3d 0600 cb3d 6f74 cabd
000000f0: 2c97 543d 41fd 3a3e fd94 9a3c 1b97 c5bc

pre.4.weight f4 [64, 64, 3, 3]
-0.03228088 0.009105013 -0.026173424 -0.009805074 0.037311513 0.014533064 0.009266236 0.0007722346
0.022854958 -0.032900322 0.022670813 -0.020539403 -0.012749629 0.035811905 0.043959327 0.028770259
-0.008893089 0.0112997135 -0.027422152 0.013921247 0.038059328 0.00041874306 -0.0064099208 0.045707036
0.018566556 -0.014484497 0.028455338 0.00040147942 -0.04692152 0.0011650803 -0.010851681 0.015983557
0.006721025 -0.009713864 -0.0019120723 -0.015259216 -0.03314674 -0.036878116 -0.011728902 -0.024344306
0.0006853031 0.044360057 0.023405557 0.037361003 0.032282714 -0.050046343 -0.03901283 -0.004751148
-0.036966555 -0.0031221963 -0.028060386 -0.038812973 0.013093959 0.019322468 0.004486759 0.0020128626
-0.009591106 -0.028322695 0.022927424 -0.021376612 -0.06522404 -0.01032563 -0.0052910615 -0.0044236546
0.014072364 0.021928431 -0.017107002 -0.039990697 0.006597944 -0.027291417 -0.051500928 -0.042122006
0.0043219575 -0.00969412 0.012396495 0.04146453 0.011860029 0.05506496 -0.013257785 -0.016215699
0.016044399 0.007563441 0.011391299 -0.034699418 -0.04679334 -0.04934792 0.030746162 0.0041654627
-0.007515717 -0.030631252 0.035092894 0.022247069 0.0053345747 0.0025683441 0.0047276407 0.008974394
0.0188499 0.012466778 0.028994985 -0.004050086 -0.035103552 0.025538262 -0.03257821 -0.0005489371
0.030231155 0.00302227 -0.023022102 -0.027869767 0.052594516 0.009668835 0.013669205 -0.033810824
0.007787189 -0.022066757 0.037116796 0.0076145628 -0.03117093 -0.044429764 -0.0021903776 0.025270807
-0.038167484 0.042459782 -0.025637502 -0.03653734 -0.007774139 0.0341341 0.034355063 -0.021920364
0.011484102 -0.0140882 0.014527785 0.024438865 -0.013758018 -0.02925087 0.028246602 -0.053563084
-0.041065414 -0.049184542 0.026924513 0.031034429 -0.034597628 -0.024401322 -0.031006027 -0.038062368
-0.046498306 -0.044444736 0.021274311 -0.04587359 0.0011958902 -0.0035326127 0.012303162 -0.018158356
0.007672231 -0.028838811 0.020592473 0.0095849475 0.021361256 0.056522 -0.026399823 0.026940392
-0.0029560996 0.030682057 -0.027934764 0.0021802783 -0.054004036 0.0024186987 0.0134161385 -0.026255688
-0.051422685 0.036488276 0.00948788 0.02835591 0.010053623 -0.032884255 0.021305697 0.030955378
0.037689593 -0.0029137116 -0.019345842 -0.024453469 -0.015826385 0.029627042 -0.019326795 -0.03359819
0.005370772 -0.027618414 -0.012008667 0.01814154 -0.022398192 -0.067359984 -0.046435036 -0.034520265
-0.043594655 -0.04380516 -0.06282021 -0.021076132 -0.033939824 -0.03034624 0.025294138 -0.024377337
-0.04636546 -0.033180315 -0.0036234162 -0.030239908 -0.00046092924 0.024992106 -0.03165514 0.033759315
0.030615559 0.039250083 -0.007931807 -0.02870527 0.02046678 -0.030746982 0.04324502 0.009680815
-0.029741755 0.023816349 -0.03557626 0.0062858243 0.031446368 -0.0014502798 -0.03935701 -0.020135375
-0.0113207735 -0.012581153 -0.017424667 -0.025903266 -0.029940214 -0.025820933 -0.025004655 -0.019655723
-0.045977373 0.022550298 0.033112608 0.04491239 0.038716055 -0.0073229796 -0.0022650443 -0.015827358
-0.025019538 -0.03291983 -0.014965569 -0.038888007 -0.04196549 0.00079353026 0.0013760236 -0.046389382
-0.0306857 0.011305632 0.034478437 0.020283137 -0.028701838 -0.013522292 0.0038312548 0.037630633
00000000: f538 04bd 312d 153c a669 d6bc 76a5 20bc
00000010: f5d3 183d 171c 6e3c 69d1 173c c96f 4a3a
00000020: 523a bb3c 7dc2 06bd 24b8 b93c 4042 a8bc
00000030: d2e3 50bc 81af 123d b20e 343d 9baf eb3c
00000040: 52b4 11bc 6f22 393c 6ca4 e0bc f115 643c
00000050: 19e4 1b3d be8a db39 500a d2bb 4d37 3b3d
00000060: e418 983c 6250 6dbc 2b1b e93c a87d d239
00000070: c830 40bd 9cb5 983a 40cb 31bc f3ef 823c
00000080: 0b3c dc3b e626 1fbc 809e faba ca01 7abc
00000090: e0c4 07bd 820d 17bd 952a 40bc b66d c7bc
000000a0: eaa5 333a e4b2 353d 03bd bf3c da07 193d
000000b0: e13a 043d 65fd 4cbd ebcb 1fbd 85af 9bbb
000000c0: 3e6a 17bd c39d 4cbb e5de e5bc 5afa 1ebd
000000d0: 0b88 563c 274a 9e3c aa05 933b 3bea 033b
000000e0: 0424 1dbc ff04 e8bc 4bd2 bb3c 011e afbc
000000f0: 2e94 85bd d52c 29bc a460 adbb 4ef4 90bb
00000100: c68f 663c 41a3 b33c fc23 8cbc 49cd 23bd
00000110: 9133 d83b 4092 dfbc a3f2 52bd 2088 2cbd
00000120: 359f 8d3b 16d4 1ebc ab1a 4b3c b6d6 293d
00000130: 9150 423c cc8b 613d 2e37 59bc c9d6 84bc
00000140: 8b6f 833c bed6 f73b 92a2 3a3c fa20 0ebd
00000150: 60aa 3fbd 0b21 4abd 60df fb3c 6f7e 883b
00000160: 6746 f6bb 64ee fabc 91bd 0f3d 7c3f b63c
00000170: a8cd ae3b aa51 283b 53ea 9a3b 5609 133c
00000180: 1b6b 9a3c 7541 4c3c e486 ed3c 95b6 84bb
00000190: bec8 0fbd 9e35 d13c bb70 05bd 8ce6 0fba
000001a0: 54a7 f73c 4711 463b d998 bcbc 234f e4bc
000001b0: 596d 573d 096a 1e3c cdf4 5f3c 387d 0abd
000001c0: ad2b ff3b 58c5 b4bc c807 183d 9583 f93b
000001d0: 2e5a ffbc fcfb 35bd 708c 0fbb b904 cf3c
000001e0: 8255 1cbd 4fea 2d3d bd05 d2bc 2ea8 15bd
000001f0: 34be febb 33d0 0b3d e5b7 0c3d 5692 b3bc
00000200: d127 3c3c 32d2 66bc f205 6e3c 0434 c83c
00000210: 4f69 61bc 859f efbc 6b65 e73c f764 5bbd
00000220: 3534 28bd bb75 49bd cc90 dc3c ea3b fe3c
00000230: 3eb6 0dbd 48e5 c7bc 5a00 febc 49e7 1bbd
00000240: 0275 3ebd af0b 36bd 7747 ae3c f2e5 3bbd
00000250: 6bbf 9c3a 6883 67bb 3493 493c d5c0 94bc
00000260: 5767 fb3b 5f3f ecbc 8cb1 a83c 2f0a 1d3c
00000270: cdfd ae3c 9d83 673d 7144 d8bc 19b2 dc3c
00000280: 1fbb 41bb f058 fb3c 72d7 e4bc 00e3 0e3b
00000290: 5633 5dbd 0883 1e3b 5dcf 5b3c 2b16 d7bc
000002a0: 98a0 52bd bb74 153d 0e73 1b3c a74a e83c
000002b0: f3b7 243c a4b1 06bd 4989 ae3c 2296 fd3c
000002c0: 6760 1a3d f8f3 3ebb 2c7b 9ebc a452 c8bc
000002d0: 56a6 81bc 69b4 f23c 3a53 9ebc 419e 09bd
000002e0: 4dfd af3b 0340 e2bc 00c0 44bc 919d 943c
000002f0: 6a7c b7bc 08f4 89bd aa32 3ebd 1f65 0dbd
00000300: 4f90 32bd 0a6d 33bd e2a7 80bd daa7 acbc
00000310: 7c04 0bbd ae98 f8bc a735 cf3c fbb2 c7bc
00000320: b5e9 3dbd 15e8 07bd d676 6dbb afb9 f7bc
00000330: e0a8 f1b9 3fbc cc3c d2a8 01bd 3547 0a3d
00000340: 7bcd fa3c b2c4 203d 69f4 01bc 5027 ebbc
00000350: f3a9 a73c 18e1 fbbc b121 313d 489c 1e3c
00000360: fba4 f3bc 811a c33c 6ab8 11bd 51f9 cd3b
00000370: e8cd 003d 5117 beba d134 21bd f1f2 a4bc
00000380: c47a 39bc 2e21 4ebc 2dbe 8ebc 1633 d4bc
00000390: 2e45 f5bc 6c86 d3bc 90d6 ccbc 0a05 a1bc
000003a0: c552 3cbd 67bb b83c 16a1 073d 0ef6 373d
000003b0: ba94 1e3d 9bf5 efbb 2371 14bb 60a8 81bc
000003c0: c6f5 ccbc f2d6 06bd 2532 75bc 0849 1fbd
000003d0: 01e4 2bbd ea04 503a b15b b43a cb02 3ebd
000003e0: 9460 fbbc 423b 393c 4339 0d3d d228 a63c
000003f0: 1e20 ebbc 9a8c 5dbc ca15 7b3b 9422 1a3d

pre.4.bias f4 [64]
0.035588283 0.018961601 0.015733063 -0.041185983 0.0030310163 -0.014938727 0.008622829 -0.027565554
-0.029349815 0.016861122 -0.012767735 0.044180665 0.0014308859 0.03269546 -0.027908493 0.014195943
-0.0063130045 -0.009536117 -0.035778914 0.029553412 -0.012708689 0.019542508 -0.042327553 -0.007011951
-0.024493022 -0.01863447 0.036146812 0.013138727 -0.019211624 0.011326078 -0.019123033 0.021395527
0.009780966 0.004674821 -0.01867952 0.00726255 -0.016764535 0.028552301 -0.008595201 -0.036756523
0.03023663 0.00848001 -0.0035407622 -0.021798074 -0.024570722 -0.026295807 0.022029672 -0.02303111
0.017432285 0.039714497 0.029719237 -0.022345643 0.01944638 -0.005489354 -0.002496024 -0.028740587
-0.033771884 0.043910712 0.032450844 -0.014855877 -0.014711382 -0.037061896 0.025231011 0.032664668
00000000: 05c5 113d 5c55 9b3c a0e2 803c a2b2 28bd
00000010: 04a4 463b 90c1 74bc c446 0d3c 28d1 e1bc
00000020: 066f f0bc 5620 8a3c c32f 51bc c9f6 343d
00000030: 908c bb3a adeb 053d 5aa0 e4bc 1a96 683c
00000040: 52dd cebb 603d 1cbc e98c 12bd ff19 f23c
00000050: 1b38 50bc 9c17 a03c a85f 2dbd 82c4 e5bb
00000060: 97a5 c8bc 51a7 98bc ae0e 143d d143 573c
00000070: b261 9dbc 0491 393c e8a7 9cbc ac45 af3c
00000080: 5840 203c 3e2f 993b cb05 99bc affa ed3b
00000090: c755 89bc 84e6 e93c e3d2 0cbc 028e 16bd
000000a0: cfb2 f73c bdef 0a3c 220c 68bb e091 b2bc
000000b0: 8a48 c9bc 4e6a d7bc 9277 b43c bdab bcbc
000000c0: 27ce 8e3c abab 223d c275 f33c 360e b7bc
000000d0: 044e 9f3c 0ae0 b3bb 5594 23bb 6171 ebbc
000000e0: 6354 0abd b8db 333d 2deb 043d 1066 73bc
000000f0: 0208 71bc 37ce 17bd 44b1 ce3c 63cb 053d

post.0.weight f4 [32, 64, 1, 1]
-0.06351206 -0.076346986 0.043212444 0.09898474 0.057158545 0.061671156 0.08938932 -0.060401767
-0.094734065 -0.07776375 0.0011587621 0.11404673 0.14346373 -0.13603814 0.088869676 0.112257846
-0.027860448 0.0063321786 -0.087841235 0.05456734 0.06878929 -0.035515156 -0.0138212 0.10717214
0.020789903 0.06818844 0.0822254 0.036919262 0.05319353 -0.012920406 -0.10429744 -0.027231582
0.0016611167 -0.05194592 -0.12214399 -0.10192381 0.042439867 -0.14350072 0.060953066 0.054506212
0.123876296 -0.0067579267 -0.020931195 -0.19164146 0.080070995 -0.04063612 -0.10926832 0.018116103
-0.099507175 -0.024790464 -0.037263874 -0.058703616 -0.071419954 -0.10726791 0.046050828 -0.15759559
-0.056996915 -0.0669396 -0.0010716295 -0.080448255 -0.009285013 0.035043374 0.023728652 -0.15323102
-0.0030916787 -0.005303303 -0.0021725777 0.1313818 0.06875768 -0.135706 0.09436978 -0.074333005
-0.12998046 -0.07191579 -0.07828551 0.0479733 -0.14221683 0.06749133 -0.08029958 -0.10998885
0.006670599 -0.12375585 -0.02679634 -0.12886925 -0.12852061 -0.10951779 -0.086621776 -0.05176951
-0.08860387 -0.13858727 0.0031041065 -0.06364838 -0.07308991 -0.07401433 -0.03985514 -0.08601864
0.011825522 -0.09187099 0.023842134 -0.11888137 0.023786245 0.14662457 -0.009632759 0.015544877
-0.006368319 -0.018921603 -0.044759195 -0.064994775 -0.083695516 0.04985704 -0.07976913 0.03238443
-0.066526234 0.05130231 0.052516222 -0.036557596 0.024468824 -0.010974353 0.024652995 0.12017606
-0.07791363 0.13013348 0.033214185 0.08539762 -0.0520523 0.024056014 -0.043655466 -0.07870423
-0.056942757 -0.0073935357 -0.027994765 0.055185895 -0.06457857 -0.039263964 0.03312571 -0.038073
0.049431287 -0.04877983 -0.063380286 0.06984879 0.045036636 -0.005069929 -0.05091542 -0.014359906
0.10652543 -0.051225994 0.013039099 -0.018201208 -0.041752752 -0.11241454 -0.11646458 0.03014085
0.045537014 -0.080506526 0.08734065 -0.10807204 0.12845515 -0.024580076 -0.00024480672 0.10111202
-0.02806989 -0.092387654 0.0975546 -0.071409635 0.005120961 0.029561693 0.038082685 -0.10154598
0.0467678 -0.013857281 0.06422361 0.1104402 -0.035074938 -0.019557906 -0.118482 0.032410465
-0.014508399 -0.011205933 0.049589906 0.08826488 -0.093951166 0.08348995 -0.064872205 0.047725707
-0.113316156 -0.048330814 -0.08968626 -0.06420919 -0.14331472 -0.13013278 -0.043535266 0.06880503
-0.12402804 0.0050254273 -0.0083236005 -0.027198272 0.069262855 -0.014151089 -0.06522836 0.037470248
-0.12551206 -0.0699476 -0.08639882 0.071771845 0.1244608 0.014513176 -0.022184249 -0.042173646
0.0643544 0.10143827 -0.03970544 0.06498513 0.07708711 -0.05792232 -0.0075026657 0.12483384
0.100520045 -0.022650108 0.114585474 0.10067449 0.02568489 0.048909567 0.09110678 -0.12865151
-0.03915602 -0.010931594 -0.03390349 0.021429753 0.073471844 -0.11454436 0.044122852 -0.1202853
0.095940545 -0.06595825 -0.045535617 0.042351443 0.0019876312 -0.054045144 -0.12773377 0.07492354
0.050803963 0.0737538 -0.0680533 -0.053775482 0.07700841 0.091403805 -0.075287655 -0.079381265
0.08064056 0.051579073 0.085577995 0.09994968 -0.10347696 0.0480677 0.025460703 -0.021863306
00000000: 9c12 82bd cf5b 9cbd 88ff 303d 83b8 ca3d
00000010: 141f 6a3d e59a 7c3d bf11 b73d d867 77bd
00000020: ef03 c2bd 9a42 9fbd 9be1 973a 5591 e93d
00000030: 28e8 123e 954d 0bbe 4e01 b63d 71e7 e53d
00000040: 983b e4bc 2a7e cf3b 1be6 b3bd 0182 5f3d
00000050: 66e1 8c3d 5778 11bd 5072 62bc 117d db3d
00000060: 964f aa3c 61a6 8b3d ca65 a83d a738 173d
00000070: 75e1 593d 1cb0 53bc e599 d5bd c414 dfbc
00000080: d4b9 d93a 3fc5 54bd a126 fabd 6ebd d0bd
00000090: 6dd5 2d3d daf1 12be eca9 793d e841 5f3d
000000a0: dbb2 fd3d 9971 ddbb e677 abbc a93d 44be
000000b0: 43fc a33d 0f72 26bd 12c8 dfbd 3968 943c
000000c0: 6bca cbbd 5f15 cbbc 01a2 18bd 3473 70bd
000000d0: a044 92bd 47af dbbd cb9f 3c3d bd60 21be
000000e0: 9975 69bd a117 89bd eb75 8cba 0ec2 a4bd
000000f0: 2b20 18bc a489 0f3d 9762 c23c 98e8 1cbe
00000100: c39d 4abb 54c7 adbb ce61 0ebb f388 063e
00000110: d4d0 8c3d 83f6 0abe f144 c13d e73b 98bd
00000120: 9919 05be 9648 93bd 2754 a0bd a77f 443d
00000130: 4aa1 11be e538 8a3d 1b74 a4bd d641 e1bd
00000140: 0a95 da3b b573 fdbd ff83 dbbc 4df6 03be
00000150: e89a 03be dd4a e0bd c266 b1bd 440c 54bd
00000160: f275 b5bd d2e9 0dbe 446e 4b3b 155a 82bd
00000170: 2ab0 95bd d394 97bd 253f 23bd 8a2a b0bd
00000180: d6bf 413c dc26 bcbd 9450 c33c 1378 f3bd
00000190: 5fdb c23c c024 163e b8d2 1dbc f1af 7e3c
000001a0: 55ad d0bb 7a01 9bbc 6b55 37bd fb1b 85bd
000001b0: 8e68 abbd e536 4c3d ff5d a3bd 89a5 043d
000001c0: e83e 88bd 5f22 523d 401b 573d 6bbd 15bd
000001d0: d872 c83c c6cd 33bc 14f5 c93c de1e f63d
000001e0: 2e91 9fbd b641 053e 990b 083d f3e4 ae3d
000001f0: cb34 55bd 1e11 c53c 13d0 32bd af2f a1bd
00000200: cf3c 69bd 7945 f2bb 4755 e5bc 9b0a 623d
00000210: c541 84bd 40d3 20bd d3ae 073d 6ff2 1bbd
00000220: 7678 4a3d 5ccd 47bd 86cd 81bd e20c 8f3d
00000230: 5678 383d a621 a6bb b08c 50bd d045 6bbc
00000240: 012a da3d 59d2 51bd f2a1 553c b31a 95bc
00000250: ef04 2bbd 9839 e6bd fb84 eebd f2e9 f63c
00000260: 0585 3a3d 9be0 a4bd a8df b23d e054 ddbd
00000270: bf89 033e 285c c9bc 6759 80b9 d213 cf3d
00000280: d3f2 e5bc bd35 bdbd b5ca c73d 373f 92bd
00000290: bccd a73b 5d2b f23c 97fc 1b3d 57f7 cfbd
000002a0: 988f 3f3d a609 63bc ab87 833d 792e e23d
000002b0: bdaa 0fbd e737 a0bc b1a6 f2bd d6c0 043d
000002c0: a3b4 6dbc 1799 37bc c91e 4b3d 38c4 b43d
000002d0: 7869 c0bd c7fc aa3d b8db 84bd 087c 433d
000002e0: 4d12 e8bd 88f6 45bd 6ead b7bd 1c80 83bd
000002f0: 18c1 12be 8741 05be 0952 32bd a7e9 8c3d
00000300: 6a02 febd 57ac a43b b65f 08bc e9ce debc
00000310: afd9 8d3d f8d9 67bc 7296 85bd 677a 193d
00000320: 3c86 00be b040 8fbd ddf1 b0bd 1efd 923d
00000330: 4ee5 fe3d acc8 6d3c bebb b5bc 46be 2cbd
00000340: 3dcc 833d debe cf3d 2ca2 22bd ed16 853d
00000350: d9df 9d3d f43f 6dbd ecd8 f5bb e2a8 ff3d
00000360: 74dd cd3d b88c b9bc caab ea3d 6d2e ce3d
00000370: 1e69 d23c 6655 483d 3196 ba3d 39bd 03be
00000380: 1062 20bd 6e1a 33bc 63de 0abd 738d af3c
00000390: 6878 963d 3c96 eabd 2aba 343d 2458 f6bd
000003a0: 7a7c c43d 1e15 87bd 8e83 3abd b578 2d3d
000003b0: eb42 023b 715e 5dbd a4cc 02be 8371 993d
000003c0: d117 503d 3b0c 973d 875f 8bbd ae43 5cbd
000003d0: 96b6 9d3d eb31 bb3d 6a30 9abd a592 a2bd
000003e0: e126 a53d 9444 533d 8443 af3d 6bb2 cc3d
000003f0: baeb d3bd a3e2 443d f792 d03c ad1a b3bc

post.0.bias f4 [32]
-0.07950692 -0.0400555 0.062201545 -0.06537463 -0.09849311 0.08681685 -0.11769618 0.007941122
-0.106631316 -0.08758654 -0.083463706 -0.06344773 0.05058982 -0.10963827 -0.00666819 -0.04652724
-0.090738826 0.079317376 0.090278104 0.09109576 -0.021180807 -0.11123997 -0.096560046 0.118014686
0.08668595 -0.010642404 0.07538019 0.014398636 0.044534802 -0.07897764 -0.0257441 0.12656797
00000000: 86d4 a2bd 3c11 24bd 0cc7 7e3d 22e3 85bd
00000010: c1b6 c9bd 08cd b13d b20a f1bd 7b1b 023c
00000020: 8561 dabd 9260 b3bd 05ef aabd e2f0 81bd
00000030: 4537 4f3d 088a e0bd d580 dabb 5993 3ebd
00000040: 47d5 b9bd 2671 a23d bae3 b83d 6a90 ba3d
00000050: 5f83 adbc c8d1 e3bd 46c1 c5bd afb1 f13d
00000060: 6788 b13d 7a5d 2ebc ee60 9a3d 42e8 6b3c
00000070: 206a 363d 07bf a1bd 4ae5 d2bc 099b 013e

post.2.weight f4 [3, 32, 1, 1]
-0.17260472 0.15944512 0.19425213 -0.15507346 0.09057125 0.17672622 -0.15427881 -0.15316886
0.026747309 0.13643101 -0.13433005 -0.14086139 0.106788926 -0.11234341 0.11769376 0.049028605
0.044155344 -0.047413222 0.030300112 -0.15139961 -0.11527156 0.18780622 -0.070801854 0.0893181
-0.016522316 -0.14383207 0.17589882 0.078317136 -0.1499848 -0.12476054 0.06726037 0.16537192
-0.161766 0.15605913 0.06006238 -0.15693577 0.01855856 -0.13558693 0.13305497 0.11828636
0.12103755 0.060805462 -0.15485859 -0.15821376 0.08829117 -0.09345089 -0.004366589 0.0730421
0.19646637 -0.08831654 -0.13160242 0.055135697 0.1288599 -0.058520112 -0.1997412 0.10023213
0.120512106 0.13760376 -0.051394265 -0.17815308 0.16701326 -0.06253348 -0.19478635 -0.12110134
-0.05998017 0.055868946 0.031034827 -0.0768789 0.0900877 0.149768 -0.006402114 -0.01857055
-0.029800238 -0.175139 0.11562309 -0.10963439 -0.16217726 0.105700724 -0.0392627 0.013909235
0.17157213 0.09480366 0.06900968 -0.18144348 0.12100854 -0.0802857 -0.04007915 -0.1532401
-0.0828605 -0.057787184 0.030699363 0.016286448 -0.18931554 0.1366438 -0.03573668 -0.06356503
00000000: 4bbf 30be 9545 233e 08ea 463e 94cb 1ebe
00000010: 6b7d b93d b8f7 343e 44fb 1dbe 4cd8 1cbe
00000020: 2c1d db3c 92b4 0b3e d18d 09be f83d 10be
00000030: 27b4 da3d 4d14 e6bd 6d09 f13d 38d2 483d
00000040: 3cdc 343d 5e34 42bd f137 f83c 8008 1bbe
00000050: 7f13 ecbd 4650 403e 9000 91bd 68ec b63d
00000060: cf59 87bc b748 13be d21e 343e bc64 a03d
00000070: 9e95 19be 7482 ffbd cebf 893d 4257 293e
00000080: fca5 25be f7cd 1f3e f803 763d c5b3 20be
00000090: 1f08 983c 4dd7 0abe 903f 083e 1e40 f23d
000000a0: 89e2 f73d 260f 793d 4093 1ebe ca02 22be
000000b0: 00d2 b43d 2e63 bfbd 9a15 8fbb 1997 953d
000000c0: 7b2e 493e 4ddf b4bd c9c2 06be f8d5 613d
000000d0: daf3 033e c9b2 6fbd f588 4cbe 8146 cd3d
000000e0: 0dcf f63d 00e8 0c3e cb82 52bd c36d 36be
000000f0: 8605 2b3e 8e11 80bd 1376 47be fb03 f8bd
00000100: c4ad 75bd d6d6 643d c03c fe3c af72 9dbd
00000110: e67f b83d c85c 193e d3c8 d1bb 4421 98bc
00000120: a11f f4bc a357 33be cccb ec3d ff87 e0bd
00000130: cc11 26be 9f79 d83d edd1 20bd 8fe3 633c
00000140: 9bb0 2f3e 6c28 c23d f254 8d3d 52cc 39be
00000150: 53d3 f73d d46c a4bd 092a 24bd f9ea 1cbe
00000160: c4b2 a9bd 41b2 6cbd 3b7d fb3c 286b 853c
00000170: efdb 41be 5aec 0b3e a060 12bd 622e 82bd

post.2.bias f4 [3]
0.073494226 0.08405439 -0.12705162
00000000: 2484 963d b524 ac3d d219 02be

post.4.weight f4 [3, 3, 3, 3]
0.13306774 0.18681669 -0.032734867 -0.0013950185 -0.018063186 0.03545351 -0.17380391 0.12772585
-0.09494282 -0.023325862 0.0028978537 0.1639329 -0.19308451 -0.19191599 0.0135438405 -0.051257737
-0.054318484 0.011102889 -0.14615747 -0.017708093 0.010157569 -0.03754435 0.02838057 0.021013204
0.036275603 -0.1289502 -0.04621145 0.03637762 -0.17170168 0.1513481 0.064326 0.16468547
-0.10683081 0.08719353 -0.05990612 0.19628538 0.16128552 -0.17261796 -0.037729084 -0.14131726
0.068774864 0.13112846 -0.079501085 0.0013719675 -0.10753098 -0.034540977 0.029695924 -0.17403205
0.18131222 0.16799328 -0.10343155 0.044009198 0.12537926 -0.16287808 -0.04319477 0.13889356
0.021796137 -0.13604535 -0.14144357 0.19365792 0.005006299 -0.052180637 0.15173385 0.03490957
0.11090654 -0.07155467 -0.007808018 -0.12237489 0.10261981 -0.1080779 -0.17485867 0.038620796
0.12722117 0.15409118 -0.14257436 0.11585557 0.1624546 -0.0799983 0.115391284 0.020174805
-0.16538462
00000000: e942 083e e04c 3f3e ff14 06bd 0ed9 b6ba
00000010: 3ff9 93bc b337 113d a7f9 31be 91ca 023e
00000020: 6271 c2bd e115 bfbc ebe9 3d3b 07de 273e
00000030: f2b7 45be a085 44be fce6 5d3c a2f3 51bd
00000040: 0f7d 5ebd e4e8 353c 4eaa 15be 9010 91bc
00000050: ef6b 263c 1bc8 19bd 5e7e e83c e223 ac3c
00000060: ba95 143d 850b 04be 3848 3dbd b300 153d
00000070: 91d2 2fbe fffa 1a3e 5abd 833d 4fa3 283e
00000080: 1dca dabd 8592 b23d 1f60 75bd 09ff 483e
00000090: 0828 253e c3c2 30be d089 1abd 79b5 10be
000000a0: d6d9 8c3d 8a46 063e 77d1 a2bd 97d3 b33a
000000b0: 3439 dcbd d77a 0dbd de44 f33c 7535 32be
000000c0: e9a9 393e 6e06 2c3e ecd3 d3bd fd42 343d
000000d0: 6c63 003e 83c9 26be 00ed 30bd 1d3a 0e3e
000000e0: d08d b23c 794f 0bbe 95d6 10be 434e 463e
000000f0: e10b a43b 5dbb 55bd 1e60 1b3e 56fd 0e3d
00000100: f822 e33d 418b 92bd 67da ffbb b09f fabd
00000110: 562a d23d f257 ddbd 270e 33be d730 1e3d
00000120: 4446 023e 14ca 1d3e 03ff 11be af45 ed3d
00000130: 805a 263e 26d6 a3bd 4452 ec3d a245 a53c
00000140: 965a 29be

post.4.bias f4 [3]
-0.024873573 0.0056697633 0.12875412
00000000: aac3 cbbc 6cc9 b93b 1fd8 033e

norm1.body.weight f4 [64]
1.0288283 1.0133078 1.01414 1.0209748 0.9911984 0.9983658 1.0015388 1.0200282
1.012412 1.0147414 1.025904 0.9975605 1.0368534 1.0242162 0.9939457 1.0071499
1.0042515 1.0028051 1.0052483 0.9997127 1.0044181 1.0072778 1.0035669 1.0119945
0.9970677 1.0129933 1.0034995 1.0318819 1.0266936 0.9976982 1.0054297 1.0002067
1.0029827 0.99364716 1.0205433 1.020997 1.0020784 1.012279 0.9807439 1.0182897
1.0062295 1.0009217 1.0018097 1.0213019 0.99531853 0.9895773 0.9888648 1.0165607
1.0138233 1.0104595 1.041994 1.0044905 1.0051054 0.97715086 1.0343747 1.0602956
0.98183286 1.0127059 0.99836355 0.9976667 1.0216949 0.9853991 1.0101075 0.99522436
00000000: a5b0 833f 12b4 813f 57cf 813f 4daf 823f
00000010: 2ebf 7d3f e794 7f3f 6c32 803f 4990 823f
00000020: b796 813f 0ce3 813f d350 833f 2060 7f3f
00000030: 9db7 843f 8419 833f 3a73 7e3f 4aea 803f
00000040: 508b 803f eb5b 803f faab 803f 2ced 7f3f
00000050: c690 803f 7bee 803f e174 803f 0989 813f
00000060: d43f 7f3f c4a9 813f ac72 803f b514 843f
00000070: b26a 833f 2669 7f3f ecb1 803f c606 803f
00000080: bd61 803f a95f 7e3f 2aa1 823f 08b0 823f
00000090: 1b44 803f 5c92 813f 0812 7b3f 5157 823f
000000a0: 21cc 803f 341e 803f 4d3b 803f 05ba 823f
000000b0: 32cd 7e3f f054 7d3f 3e26 7d3f a91e 823f
000000c0: f6c4 813f bd56 813f 0f60 853f 2593 803f
000000d0: 4ba7 803f 8f26 7a3f 6466 843f c4b7 873f
000000e0: 6659 7b3f 59a0 813f c194 7f3f 1667 7f3f
000000f0: e6c6 823f 1e43 7c3f 344b 813f 06c7 7e3f

norm1.body.bias f4 [64]
-3.012007e-05 0.007767852 0.01799589 -0.015357243 0.015299841 -0.0014110163 -0.0030403007 0.017970294
0.0024366097 -0.010656151 -0.029232075 0.004367164 0.0018446272 0.00597943 0.0059605455 -0.0052889674
-0.0073564984 -0.0025817624 -0.007225257 -0.0007877444 0.0077846227 -0.008949613 0.00055761007 0.006674361
0.0020765462 -0.012371928 -0.005074227 0.0089690965 0.006312082 0.0021352153 -0.007997198 -0.0019719398
0.010346747 0.004808874 0.0038504968 0.0038015633 0.015291252 -0.011762079 0.022063414 -0.019368794
0.013194953 0.003757467 0.013191016 0.0046024593 -0.00068467815 0.009145249 0.012105108 0.0096954
-0.017612277 0.014411453 0.0059952764 -0.0034171038 0.009397799 0.02197438 -0.0038317104 0.0074387444
0.017490083 -0.01100905 -0.0012943944 0.00341156 -0.0030981891 0.006948944 0.0037556053 0.002449484
00000000: 5caa fcb7 7789 fe3b 1e6c 933c f29c 7bbc
00000010: 2fac 7a3c daf1 b8ba c83f 47bb 7036 933c
00000020: 87af 1f3b 2397 2ebc 1b78 efbc 6d1a 8f3b
00000030: 6bc7 f13a 18ef c33b ae50 c33b 134f adbb
00000040: c80e f1bb c932 29bb d9c1 ecbb a280 4eba
00000050: 2616 ff3b 66a1 12bc 942c 123a 99b4 da3b
00000060: aa16 083b a1b3 4abc b445 a6bb 1ef3 123c
00000070: 95d5 ce3b f8ee 0b3b ae06 03bc a93b 01bb
00000080: 6785 293c c293 9d3b 9e58 7c3b a623 793b
00000090: 2988 7a3c bcb5 40bc 55be b43c 4eab 9ebc
000000a0: a52f 583c d63f 763b 221f 583c 3ad0 963b
000000b0: f97b 33ba f4d5 153c 8154 463c 74d9 1e3c
000000c0: 9f47 90bc 041e 6c3c 0674 c43b 7df1 5fbb
000000d0: 3af9 193c 9d03 b43c 6f1d 7bbb b6c0 f33b
000000e0: 5d47 8f3c 4d5f 34bc aba8 a9ba 7b94 5f3b
000000f0: fd0a 4bbb f8b3 e33b 9a20 763b 8687 203b

attn.scale f4 [4, 1, 1]
1.0225569 1.0196142 1.0226171 1.0168879
00000000: 25e3 823f b882 823f 1ee5 823f 6229 823f

attn.qkv1.weight f4 [96, 32, 1, 1]
-0.07126808 -0.16625066 -0.15799138 0.1494546 -0.18767463 0.112211764 0.051358245 0.10633532
0.16308776 0.10064884 0.014155812 0.118275106 -0.14554973 0.13210626 0.052898843 -0.13330957
0.09421014 0.10974603 -0.13652617 0.02191533 0.10367786 -0.14891422 -0.02448524 -0.063860275
0.16173576 0.15218161 -0.12843826 -0.15047885 -0.16567369 0.11499034 0.10671277 0.16840655
-0.09529199 -0.057575464 0.1105727 -0.036329266 -0.07729453 -0.0926417 0.018977024 0.100588016
0.16268516 0.06321119 -0.13458307 0.083508514 -0.14624332 0.18583886 0.15918645 -0.15540329
0.0906954 -0.038907416 -0.07877097 0.070490666 0.046920817 -0.14884709 -0.028209796 -0.17833602
-0.002182254 0.06711538 -0.019941045 -0.13754593 -0.040209766 -0.096494205 0.14330892 0.09871632
0.06183608 0.082375385 0.12877356 0.05826828 0.08969637 0.008944433 0.11702261 0.043695636
0.02551082 -0.14686576 0.015931692 0.104498014 -0.122106254 0.13969518 0.1485931 -0.08822241
0.10548196 0.06417583 -0.025299272 -0.15790237 0.06910227 0.026671102 -0.13631247 -0.123751804
-0.11851205 0.15514526 0.0027873178 -0.13276525 0.09417212 0.109759405 0.1504441 -0.045175858
0.07697057 -0.023229511 0.03377626 0.04743069 0.104747616 -0.07855045 0.13514173 0.075670436
0.033017255 0.15136077 -0.02633114 0.0003963841 -0.1661712 0.13378477 0.022475615 -0.117933735
0.092562325 -0.018037507 0.1042593 -0.16663879 -0.15735365 0.067876875 0.18945752 -0.016974058
-0.10343163 -0.038760386 -0.01577468 0.11499493 0.15823022 -0.17016864 0.15029083 0.15828007
-0.079933524 0.17985252 0.17976937 0.12783627 0.1581415 0.06277069 0.04609231 -0.1578904
0.035433847 -0.15912999 -0.043209184 -0.16468558 0.054403193 0.12947735 -0.047120605 0.14680153
-0.13844343 -0.116250075 -0.0024703257 0.10627258 0.0793257 -0.106702775 0.026243968 -0.009438415
-0.09214444 -0.159361 0.08975539 0.083498 0.047131404 -0.04238342 0.12686744 -0.065434396
0.1242721 -0.14681628 0.108252 0.07262358 0.103581004 0.0459129 -0.15273108 0.15544838
-0.16594423 -0.07943645 -0.050270174 0.060279727 -0.09559824 0.18575816 0.06736649 0.17178251
-0.15288171 0.1291091 0.029503712 -0.010090099 -0.1592715 0.13378696 -0.05124509 0.04720258
0.13190569 -0.050734974 -0.053168014 -0.039302256 -0.09562594 0.052738484 -0.15138644 -0.12396464
0.119431555 -0.17197327 0.0793583 0.121418595 -0.19065979 0.015315117 0.019371357 -0.0127956495
-0.11849815 -0.16709767 0.08078581 0.114318766 -0.11827102 -0.13257618 0.09010985 0.08999762
-0.03729016 0.04295156 0.10081976 0.09897176 -0.07743676 0.14405258 -0.1769531 0.052476432
-0.0457485 0.015726367 -0.05884125 0.08996219 -0.017350044 0.008186442 0.14007507 -0.025576063
0.0164129 0.1186793 -0.12256116 0.16202468 -0.054531235 0.042167287 -0.12509255 0.12737486
-0.13694303 0.032918725 -0.054075204 0.035399187 0.022807859 -0.06588723 0.17636248 -0.061003998
-0.13872448 0.0776731 0.13446411 0.1806838 -0.14828916 -0.13006665 0.07666804 -0.04050559
-0.10952676 -0.09513768 0.01675339 -0.1648888 0.089818105 0.03595648 -0.108601265 0.036142055
00000000: 00f5 91bd 9d3d 2abe 7ec8 21be a00a 193e
00000010: c72d 40be 48cf e53d 065d 523d 55c6 d93d
00000020: 7a00 273e fb20 ce3d c7ed 673c 383a f23d
00000030: fd0a 15be dd46 073e 75ac 583d 4e82 08be
00000040: 3ff1 c03d 87c2 e03d 84cd 0bbe c787 b33c
00000050: 0f55 d43d f87c 18be 4595 c8bc 2dc9 82bd
00000060: 0f9e 253e 7fd5 1b3e 5285 03be 2117 1abe
00000070: 5da6 29be 0e80 eb3d 3a8c da3d c472 2c3e
00000080: 7228 c3bd 40d4 6bbd f173 e23d ffcd 14bd
00000090: 984c 9ebd eeba bdbd b475 9b3c 1701 ce3d
000000a0: f096 263e de74 813d 25d0 09be 8306 ab3d
000000b0: cfc0 15be 8b4c 3e3e c601 233e 0a22 1fbe
000000c0: 83be b93d 625d 1fbd ad52 a1bd 695d 903d
000000d0: 0b30 403d 5f6b 18be 3b18 e7bc b89d 36be
000000e0: 2604 0fbb ca73 893d 675b a3bc d7d8 0cbe
000000f0: ffb2 24bd c19e c5bd 93bf 123e c82b ca3d
00000100: d447 7d3d 6db4 a83d 37dd 033e b8aa 6e3d
00000110: bbb2 b73d ac8b 123c 8da9 ef3d 32fa 323d
00000120: 11fc d03c fa63 16be 2e83 823c 0e03 d63d
00000130: d812 fabd 410c 0f3e ca28 183e f3ad b4bd
00000140: ed06 d83d 9e6e 833d 6b40 cfbc 29b1 21be
00000150: 7e85 8d3d 5b7d da3c 7f95 0bbe 9671 fdbd
00000160: 72b6 f2bd 66de 1e3e 6fab 363b 9df3 07be
00000170: 50dd c03d 8ac9 e03d 050e 1a3e 520a 39bd
00000180: bfa2 9d3d d14b bebc fa58 0a3d af46 423d
00000190: eb85 d63d 0fdf a0bd 9862 0a3e 1af9 9a3d
000001a0: 1a3d 073d 51fe 1a3e 67b4 d7bc c6d1 cf39
000001b0: c828 2abe e0fe 083e c81e b83c 3e87 f1bd
000001c0: 5191 bd3d 65c3 93bc e685 d53d 5ca3 2abe
000001d0: 5121 21be 0803 8b3d 2701 423e 2e0d 8bbc
000001e0: f6d3 d3bd 36c3 1ebd e739 81bc 7682 eb3d
000001f0: 1a07 223e b040 2ebe d7e5 193e 2c14 223e
00000200: 30b4 a3bd 422b 383e 7615 383e 83e7 023e
00000210: d8ef 213e eb8d 803d 4acb 3c3d 05ae 21be
00000220: 1523 113d f9f2 22be 1dfc 30bd 56a3 28be
00000230: e2d5 5e3d b695 043e 8901 41bd 2453 163e
00000240: 1dc4 0dbe 8514 eebd 30e5 21bb 70a5 d93d
00000250: 8375 a23d fc86 dabd 97fd d63c 95a3 1abc
00000260: 39b6 bcbd 882f 23be add1 b73d 0001 ab3d
00000270: dc0c 413d 3d9a 2dbd 8ae9 013e 7802 86bd
00000280: 5f82 fe3d 0257 16be 39b3 dd3d acbb 943d
00000290: 4722 d43d 2a0f 3c3d 8965 1cbe dc2d 1f3e
000002a0: 49ed 29be 94af a2bd 19e8 4dbd e0e7 763d
000002b0: 03c9 c3bd 6337 3e3e 71f7 893d c1e7 2f3e
000002c0: 068d 1cbe 2d35 043e c5b1 f13c f150 25bc
000002d0: 1118 23be 73ff 083e 5fe6 51bd 7e57 413d
000002e0: 4912 073e 7acf 4fbd b4c6 59bd 67fb 20bd
000002f0: 88d7 c3bd 4f04 583d 0c05 1bbe 2ce1 fdbd
00000300: 8898 f43d c319 30be 9b86 a23d 50aa f83d
00000310: 523c 43be 42ec 7a3c aeb0 9e3c d8a4 51bc
00000320: 28af f2bd a71b 2bbe 0873 a53d f51f ea3d
00000330: 1438 f2bd 0dc2 07be 838b b83d ac50 b83d
00000340: 91bd 18bd faed 2f3d 977a ce3d b5b1 ca3d
00000350: 2a97 9ebd 8582 133e 3233 35be 87f1 563d
00000360: c762 3bbd 95d4 803c 8603 71bd 193e b83d
00000370: ae21 8ebc 6d20 063c d76f 0f3e e484 d1bc
00000380: 5974 863c 220e f33d 5801 fbbd cce9 253e
00000390: 255c 5fbd 9bb7 2c3d 4318 00be 8e6e 023e
000003a0: cb3a 0cbe c9d5 063d f67d 5dbd bdfe 103d
000003b0: 8cd7 ba3c e2ef 86bd 5e98 343e 54df 79bd
000003c0: ca0d 0ebe 1313 9f3d f6b0 093e 2d05 393e
000003d0: 1dd9 17be 3130 05be 2204 9d3d 31e9 25bd
000003e0: 914f e0bd 8bd7 c2bd 683e 893c 9cd8 28be
000003f0: 8ef2 b73d 1a47 133d 576a debd b109 143d

attn.qkv2.weight f4 [96, 96, 3, 3]
-0.044001356 -0.0118927155 -0.0143772075 0.020631958 -0.040232077 0.010377577 0.017694594 0.0019505536
-0.009612827 -0.009654461 -0.010850925 -0.018155532 0.027719315 0.0095243985 -0.004062781 0.020701818
0.005099952 0.03706517 0.019219052 -0.010537556 0.01908183 -0.029660622 0.018058088 0.030623214
0.013751733 -0.03425892 -0.023971792 0.042964682 0.025524562 -0.01789233 0.017820865 -0.002388409
0.033519432 0.03706688 0.00030794696 0.043659717 0.050894387 0.008926882 0.001593576 0.055866025
0.04843856 0.0305898 0.020688076 0.043382216 0.006376509 0.008379698 0.00524948 -0.013937332
-0.027902214 -0.0037591066 0.019507589 -0.009805238 -0.014041502 -0.015154163 -0.0059124087 0.009755101
-0.028568897 -0.008804268 0.00031342544 -0.021658342 -0.040575884 0.004028767 -0.0065078656 0.0019598445
-0.00062674895 -0.043942545 0.01746143 -0.015542946 -0.018298505 -0.035471145 -0.028469544 -0.012332074
-0.014525637 -0.026270652 -0.016455539 -0.03412287 -0.041500363 -0.008038627 0.01669108 -0.025092918
-0.03820955 -0.0039515197 0.025841668 0.0065083774 -0.021906685 0.016045552 -0.016190207 0.024553023
-0.0244495 0.0011768445 0.021231301 -0.029491084 -0.018606944 0.033906303 -0.0014406843 -0.014566685
-0.027201558 -0.025470663 0.020796638 -0.030995926 0.013567864 -0.01681836 -0.021158399 0.023302615
-0.016680459 0.029716253 -0.026595602 0.023449194 -0.010203075 -0.025524506 0.006568801 0.008885781
0.0077227917 -0.0063571963 0.03955172 0.023624053 0.024961397 0.022923453 -0.0010843126 -0.028917652
-0.0317565 0.0108881965 0.01183325 0.025681417 -0.00472304 -0.013465329 0.004064915 -0.008270509
0.044727627 0.010558151 0.039068885 0.02655493 0.012941753 -0.009479366 0.036945827 -0.01508748
-0.0019189953 -0.019000929 -0.025865505 -0.021964481 -0.0064066923 -0.002033034 -0.011557758 -0.03362495
0.013311024 -0.015523821 -0.028029568 -0.001818481 -0.0005090479 0.020623952 -0.003805428 0.034550976
0.024524033 -0.0120760705 -0.03460091 0.024091577 -0.006498009 0.023783686 -0.03197322 -0.005552604
0.0107340375 0.024904845 -0.035051577 -0.0019409464 -0.05198185 -0.02635195 0.0026566156 -0.021900754
0.0038156966 -0.024874307 -0.019465243 0.017225899 -0.0077262553 0.0053744675 -0.025469135 0.008651347
0.025479386 0.0038319142 0.0044114 -0.02873188 -0.009958805 -0.0076501067 -0.017649071 0.014311753
-0.02520882 -0.010273177 0.019182988 -0.031672787 0.017460348 -0.023939047 0.021194957 -0.029266134
-0.0058446415 0.009533409 -0.027290337 -0.020829955 -0.018530888 0.0047863685 0.0229607 -0.02320234
0.0032296753 -0.021776883 0.01897225 0.014718101 0.005995482 0.01321447 0.024879662 -0.00031355143
-0.046288192 -0.04771338 -0.04469021 -0.024140842 -0.04464784 -0.015715752 0.013181239 -0.02074112
-0.022241022 0.0029711965 0.036996827 0.021133307 -0.0012755936 0.041121956 0.003764435 -0.013493845
-0.0075509613 -0.0019132096 -0.009237082 0.01103328 -0.0010730874 0.039505113 0.029086703 -0.013374514
0.018922819 0.010946372 -0.0070948466 -0.018270422 0.023295753 0.010450742 -0.010304334 0.012036336
-0.018642578 0.016482638 0.025704643 -0.013658059 -0.03574935 0.016652906 0.0037478665 0.013001643
-0.017244818 -0.024849242 0.028449753 -0.0070771994 -0.014412196 -0.02334354 0.0031887363 -0.03352049
00000000: c43a 34bd aad9 42bc 618e 6bbc 5a04 a93c
00000010: 64ca 24bd b606 2a3c 41f4 903c b8a9 ff3a
00000020: 1e7f 1dbc bf2d 1ebc 14c8 31bc e9ba 94bc
00000030: 9e13 e33c 390c 1c3c 1421 85bb dc96 a93c
00000040: 801d a73b a6d1 173d 4671 9d3c b7a5 2cbc
00000050: 7f51 9c3c d5fa f2bc 8eee 933c 89dd fa3c
00000060: f34e 613c 1553 0cbd 7e60 c4bc bcfb 2f3d
00000070: e318 d13c f092 92bc 10fd 913c db86 1cbb
00000080: ac4b 093d 71d3 173d f173 a139 88d4 323d
00000090: a276 503d 0f42 123c 8adf d03a c6d3 643d
000000a0: 8367 463d 7697 fa3c 0a7a a93c 8db1 313d
000000b0: 09f2 d03b 004b 093c d403 ac3b 6859 64bc
000000c0: 2f93 e4bc 585b 76bb 61ce 9f3c 26a6 20bc
000000d0: 540e 66bc 2b49 78bc e1bc c1bb dcd3 1f3c
000000e0: 5209 eabc c73f 10bc 4053 a439 d66c b1bc
000000f0: e632 26bd bf03 843b ef3f d5bb bc70 003b
00000100: 694c 24ba 19fd 33bd 460b 8f3c d7a7 7ebc
00000110: bfe6 95bc 314a 11bd f638 e9bc 780c 4abc
00000120: f0fc 6dbc 8d35 d7bc c4cd 86bc 6cc4 0bbd
00000130: 49fc 29bd 72b4 03bc bbbb 883c aa8f cdbc
00000140: 9e81 1cbd c07b 81bb e8b1 d33c 3a44 d53b
00000150: a675 b3bc f671 833c 53a1 84bc 6c23 c93c
00000160: 514a c8bc 5940 9a3a 44ed ad3c 4997 f1bc
00000170: 976d 98bc 56e1 0a3d 58d5 bcba 1ba9 6ebc
00000180: cdd5 debc daa7 d0bc b65d aa3c 2beb fdbc
00000190: bf4b 5e3c a8c6 89bc 6154 adbc 20e5 be3c
000001a0: 75a5 88bc 806f f33c 05df d9bc 8618 c03c
000001b0: cc2a 27bc c518 d1bc 193f d73b ab95 113c
000001c0: 790f fd3b 0750 d0bb fc00 223d 3b87 c13c
000001d0: d87b cc3c f7c9 bb3c 7e1f 8eba b6e4 ecbc
000001e0: 1b13 02bd 6864 323c 3fe0 413c d661 d23c
000001f0: bbc3 9abb af9d 5cbc fa32 853b 0781 07bc
00000200: 5134 373d 18fc 2c3c b206 203d b989 d93c
00000210: a509 543c 584f 1bbc 8254 173d 7a31 77bc
00000220: cc86 fbba d6a7 9bbc e5e3 d3bc dbee b3bc
00000230: 3bef d1bb a73c 05bb c05c 3dbc 51ba 09bd
00000240: 7b16 5a3c a057 7ebc 449e e5bc 195a eeba
00000250: a071 05ba 90f3 a83c 7d64 79bb 5385 0d3d
00000260: a0e6 c83c b6da 45bc afb9 0dbd b35b c53c
00000270: 40ed d4bb 01d6 c23c 5af6 02bd 9ef2 b5bb
00000280: d1dd 2f3c 3f05 cc3c 3e92 0fbd 5b67 feba
00000290: ecea 54bd 0be0 d7bc 9d1a 2e3b 3669 b3bc
000002a0: c410 7a3b 34c5 cbbc 9375 9fbc 541d 8d3c
000002b0: 872c fdbb 4d1c b03b a6a4 d0bc 61be 0d3c
000002c0: 25ba d03c da20 7b3b 818d 903b 1f5f ebbc
000002d0: 412a 23bc bfad fabb c994 90bc d87b 6a3c
000002e0: ba82 cebc d450 28bc a425 9d3c 53bb 01bd
000002f0: 0109 8f3c d21b c4bc 0ca1 ad3c 88bf efbc
00000300: 6884 bfbb 0432 1c3c fc8f dfbc 95a3 aabc
00000310: 17ce 97bc f8d6 9c3b 1418 bc3c d512 bebc
00000320: f6a8 533b 6f65 b2bc b16b 9b3c 3124 713c
00000330: c075 c43b 8181 583c 6fd0 cb3c 2964 a4b9
00000340: b098 3dbd 1b6f 43bd 150d 37bd 04c3 c5bc
00000350: a7e0 36bd 52be 80bc 20f6 573c 48e9 a9bc
00000360: ce32 b6bc 68b8 423b fc89 173d c21f ad3c
00000370: d231 a7ba 7f6f 283d bdb4 763b 4a15 5dbc
00000380: 0e6e f7bb a9c4 faba 2157 17bc eec4 343c
00000390: d7a6 8cba 1dd0 213d 3d47 ee3c c720 5bbc
000003a0: 0704 9b3c 6958 333c e37b e8bb daab 95bc
000003b0: bcd6 be3c 9739 2b3c 82d3 28bc 0d34 453c
000003c0: 52b8 98bc 9906 873c 8b92 d23c 0dc6 5fbc
000003d0: e96d 12bd ad6b 883c c49e 753b d804 553c
000003e0: 0145 8dbc a390 cbbc 750f e93c dae7 e7bb
000003f0: 2221 6cbc f43a bfbc 1efa 503b c84c 09bd
