Puff-Net/model/detail_iter_10000.pth (torch, 470479 bytes, 157 tensors)

pre.0.weight f4 [32, 3, 1, 1]
0	0x3e699abc	0.22812933
1	0xbdd1e532	-0.10248794
2	0xbe7bedc7	-0.24602424
3	0xbea9738e	-0.33095974
4	0x3dc6ded3	0.09710469
5	0xbe5cadde	-0.215507
6	0xbee68f36	-0.45031136
7	0xbe61a38d	-0.22035046
8	0x3f0cc11c	0.5498216
9	0xbeb3e011	-0.35131887
10	0xbd8a70dd	-0.06759808
11	0x3c9d36a7	0.0191911
12	0x3eeca341	0.46218303
13	0xbe45449a	-0.1926445
14	0xbe31adef	-0.17351507
15	0x3dfbf9ec	0.12303528
16	0x3e0cda74	0.13755208
17	0x3e20bb0f	0.15696357
18	0xbf088cd5	-0.5333989
19	0x3f0ba6e4	0.5455153
20	0xbe8cb3c1	-0.2748089
21	0x3e6b5526	0.229817
22	0xbeb49b76	-0.35274857
23	0x3dc657ef	0.09684741
24	0xbd32e65c	-0.04367672
25	0xbe4c97dd	-0.19979806
26	0xbed45d59	-0.4147747
27	0xbea89468	-0.32925725
28	0x3e86ea16	0.26350468
29	0xbe0161e0	-0.12634993
30	0xbe88b4ca	-0.2670043
31	0x3e85c6e9	0.2612832
32	0x3e1c4ce1	0.15263702
33	0xbe12ed9d	-0.14348455
34	0xbe61ab8b	-0.22038095
35	0x3df875ab	0.121318184
36	0x3e333547	0.17500792
37	0x3dafd372	0.08585252
38	0xbf0e3344	-0.55546975
39	0x3e07c400	0.13258362
40	0x3e3709f1	0.17874886
41	0xbe968a5e	-0.2940244
42	0xbebaa279	-0.36452082
43	0xbeab7702	-0.33489233
44	0x3e33e82e	0.17569038
45	0x3ec0ca4d	0.37654343
46	0xbe43486c	-0.19070596
47	0xbed09282	-0.40736777
48	0xbeb40c4c	-0.35165632
49	0x3ec06020	0.37573338
50	0x3ea89c08	0.32931542
51	0xbeffda7d	-0.4997138
52	0x3f11808b	0.56836766
53	0xbde6ffbd	-0.11279247
54	0x3eb4c65f	0.35307595
55	0x3e910fcf	0.28332373
56	0xbf0eba5c	-0.5575311
57	0xbf078eb5	-0.5295213
58	0xbc9eeaf4	-0.019399144
59	0xbccf1f9c	-0.025283627
60	0x3eda95d0	0.42692423
61	0x3ebeadd3	0.37241992
62	0x3defc96c	0.1170834
63	0xbf0ab2c8	-0.5417905
64	0xbe416c55	-0.18888982
65	0xbef8441c	-0.48489463
66	0xbe799323	-0.24372534
67	0xbe224eb1	-0.15850331
68	0xbf12e53d	-0.5738104
69	0xbdfb3ab7	-0.12267058
70	0xbed83ba5	-0.42233005
71	0x3ecf3089	0.40466717
72	0x3ef3f450	0.47647333
73	0xbf073cd1	-0.52827173
74	0xbeec1835	-0.46112218
75	0x3e99f32e	0.30068344
76	0xbee25817	-0.44207832
77	0x3e6ef129	0.23334183
78	0xbd90651a	-0.070505336
79	0x3d03a73c	0.03214191
80	0xbcdff3b6	-0.02733789
81	0x3eca6231	0.3952804
82	0x3dec1126	0.11526708
83	0x3e4713eb	0.19441192
84	0xbebaec98	-0.36508632
85	0xbeff29bb	-0.49836525
86	0x3dce2b90	0.10066903
87	0x3eae86e5	0.3408729
88	0x3f0e2a13	0.5553295
89	0x3eab6917	0.33478615
90	0xbd69393f	-0.05693936
91	0xbeeb970d	-0.4601368
92	0xbf06ef3f	-0.5270881
93	0xbda591ba	-0.08084436
94	0x3b2163e8	0.00246262
95	0x3edbc392	0.42922646

pre.0.bias f4 [32]
0	0xbefd81c7	-0.49513075
1	0x3e9b979f	0.30389115
2	0xbed8ecf1	-0.42368272
3	0xbc6b72ca	-0.01437063
4	0x3eb69bc4	0.35665715
5	0xbe6b8966	-0.23001632
6	0x3f1166cd	0.56797487
7	0x3e5882f3	0.21143703
8	0x3e90eca8	0.28305554
9	0xbdbcf962	-0.092272535
10	0xbef9eee3	-0.4881507
11	0xbf133b5d	-0.57512456
12	0xbdcef3c2	-0.10105087
13	0xbd3ed173	-0.046586465
14	0x3e8be255	0.27321115
15	0x3d87faa8	0.06639606
16	0xbd6f6b98	-0.05845222
17	0xbb0b42eb	-0.0021249603
18	0x3e2a13f5	0.16609176
19	0x3f1098e8	0.56483316
20	0xbee2269a	-0.44170076
21	0x3dd8b105	0.10580639
22	0x3ebdb64e	0.3705315
23	0x3f04fa54	0.5194447
24	0xbed41a63	-0.4142638
25	0xbe299550	-0.16560864
26	0x3dbf1962	0.09331013
27	0xbf102153	-0.5630085
28	0x3e8df7bc	0.2772807
29	0xbdb18a89	-0.086690016
30	0x3e90d1ee	0.28285164
31	0x3f11f45a	0.57013476

pre.2.weight f4 [64, 32, 1, 1]
0	0xbd670b24	-0.05640711
1	0xbc1ae2d0	-0.00945349
2	0x3daa5a45	0.08317999
3	0x3dd7b992	0.105334416
4	0x3c62ad77	0.013835303
5	0xbd92f353	-0.07175317
6	0xbdc18a48	-0.09450203
7	0xbe1a2039	-0.15051354
8	0x3d231153	0.039811444
9	0xbd2a15d9	-0.04152474
10	0xbd1daff4	-0.03849788
11	0x3c08947c	0.008336183
12	0xbe110d00	-0.14165115
13	0x3e0a64a0	0.13514948
14	0x3de62bb8	0.112388074
15	0xbcbc039e	-0.022950944
16	0xbdeb3750	-0.114851594
17	0x3d5ed91d	0.054406274
18	0xbda09e51	-0.078426965
19	0xbdb8e2cc	-0.09027633
20	0x3cbb7082	0.022880796
21	0xbd9ae1fb	-0.075626336
22	0x3d8237ed	0.06358323
23	0x3da9b960	0.082873106
24	0x3df7e93e	0.12105034
25	0x3d6ad7e9	0.057334814
26	0x3e2336b1	0.15938832
27	0x3dc274f6	0.09494965
28	0x3e0d653a	0.13808146
29	0x3e0ac5ec	0.13552064
30	0xbd7736b4	-0.060354903
31	0x3cc94f09	0.02457382
32	0xbe0c615b	-0.13709013
33	0x3df2dd42	0.11858608
34	0xbe23a204	-0.15979773
35	0xbbae5e3c	-0.005321292
36	0xbe27aaf8	-0.16373813
37	0xbd11c167	-0.035584833
38	0x3c2bba24	0.010481391
39	0xbe059913	-0.13046674
40	0x3dc0b6a6	0.094098374
41	0xbd4f8719	-0.05066595
42	0x3dcefebc	0.101071805
43	0x3dab24c1	0.083566196
44	0x3d7b1bf0	0.06130594
45	0x3d98bc57	0.07457798
46	0xbe08a04c	-0.13342398
47	0x3e0a9926	0.13534984
48	0xbe08de6b	-0.13366096
49	0x3d828d8d	0.06374655
50	0xbdc052eb	-0.09390815
51	0xbe0608ba	-0.13089266
52	0xbd8e9e94	-0.0696384
53	0x3e330fcc	0.17486495
54	0xbd77e374	-0.06051965
55	0x3d142f42	0.03617788
56	0x3e0807b0	0.13284183
57	0x39d4b4c7	0.0004057048
58	0xbcde39f7	-0.02712725
59	0x3e1ea430	0.1549232
60	0xbe2f1433	-0.17097549
61	0xbdb24122	-0.08703829
62	0x3c809ad1	0.015698822
63	0xbe1733bb	-0.14765827
64	0xbdb39b77	-0.08769887
65	0x3d46d0e8	0.048539072
66	0x3c2e0ef4	0.010623682
67	0x3d8e102e	0.0693668
68	0xbdc10b0f	-0.094259374
69	0xbd8a5464	-0.067543775
70	0x3e25bba8	0.16184866
71	0xbe2cd5b6	-0.16878399
72	0xbbb846cf	-0.0056236754
73	0xbcbfc238	-0.02340804
74	0x3e14ec15	0.14543183
75	0xbd5f2be8	-0.05448523
76	0xbcc73ab9	-0.024319993
77	0x3d99a149	0.07501466
78	0xbe065a79	-0.1312045
79	0x3ddd4b9f	0.10805439
80	0xbdb985b0	-0.09058702
81	0xbd99bede	-0.07507108
82	0x3be51fcf	0.0069923173
83	0xbc6c791b	-0.014433171
84	0x393c3ef7	0.00017952533
85	0xbdb2acb8	-0.0872435
86	0x3c589ebc	0.013221439
87	0xbd06eb7e	-0.032939427
88	0xbd0ddf48	-0.034636766
89	0x3d3779a0	0.044793725
90	0xbe2dc21c	-0.16968578
91	0x3df135cb	0.11777838
92	0x3e1b7b89	0.15183844
93	0xbd2c03ac	-0.04199569
94	0x3e18d426	0.14924678
95	0x3e238aaf	0.15970872
96	0x3c5807b4	0.01318543
97	0xbd9471b5	-0.072482504
98	0x3e065b9b	0.13120882
99	0xbbfbaf64	-0.0076808203
100	0x3e1be885	0.15225418
101	0x3e310343	0.172864
102	0x3d9b51f5	0.075839914
103	0xba7e7c1e	-0.0009707826
104	0xbbcdbba1	-0.0062784706
105	0x3e1c2eac	0.15252179
106	0x3e2d2694	0.16909248
107	0x3dce6ba3	0.10079124
108	0x3d6eef11	0.05833346
109	0x3cae5e1d	0.021285111
110	0xbde3fd2f	-0.11132275
111	0x3d3ad246	0.04561069
112	0x3c26f778	0.010190837
113	0x3e3077aa	0.17233148
114	0x3de45079	0.111481614
115	0xbd842e6a	-0.06454165
116	0x3c87b6b3	0.01656661
117	0xbd82e49d	-0.06391261
118	0xbb310c05	-0.002701522
119	0xbe11b36e	-0.14228603
120	0x3b11dd7c	0.002225726
121	0xbc01dfc6	-0.007926887
122	0xbdd59d07	-0.10430341
123	0xbdfe9581	-0.12430859
124	0x3d5526a5	0.052038807
125	0xbb9fb974	-0.0048744027
126	0x3ddc04c3	0.10743096
127	0x3d9756d2	0.073896065
128	0xbe1bc35c	-0.15211242
129	0x3d4cc410	0.049991667
130	0xbc5fe421	-0.01366523
131	0x3d53befb	0.051695805
132	0xbe00e907	-0.12588893
133	0xbe0d060d	-0.1377184
134	0xbd589346	-0.052874826
135	0xbd73f132	-0.059556194
136	0xbd695d02	-0.056973465
137	0xbe378c2a	-0.17924562
138	0xbd834277	-0.064091615
139	0x3e0a00bf	0.13476847
140	0x3dbf5f7b	0.09344383
141	0xbca784de	-0.020449098
142	0xbd92a22e	-0.071598396
143	0xbdcbfe6d	-0.09960637
144	0x3dc8df7b	0.098082505
145	0x3e0b46d7	0.13601242
146	0xbddeefae	-0.10885559
147	0xbdeafd65	-0.114741124
148	0x3dc37e6f	0.095456
149	0xbda7a165	-0.081850804
150	0xbe14d3a3	-0.14533858
151	0xbe26d877	-0.16293512
152	0x3bee5970	0.0072738454
153	0xbde263b4	-0.11054173
154	0x3e27b2bc	0.16376776
155	0xbc8a9270	-0.01691553
156	0x3cf742b4	0.030183174
157	0x3e12648c	0.14296168
158	0x3da400a5	0.080079354
159	0xbe0d2e5a	-0.13787213
160	0x3ced922a	0.02900036
161	0x3a8a439e	0.0010548716
162	0xbd1091bf	-0.035295244
163	0x3cf5cf77	0.030006154
164	0xbd9e2d4b	-0.07723483
165	0xbc19d1fa	-0.009388441
166	0xbdd50ffc	-0.104034394
167	0xbcedb45f	-0.029016672
168	0x3dc8f459	0.098122306
169	0x3d8c7e59	0.068600364
170	0xbd88065e	-0.066418394
171	0xbdd5a18d	-0.10431204
172	0x3dccdadc	0.100026816
173	0x3dcee093	0.10101428
174	0xbdcd222a	-0.10016282
175	0xbcb731d0	-0.02236262
176	0x3d8bf396	0.0683357
177	0xbda90779	-0.082533784
178	0xbd9ce329	-0.07660515
179	0xbdf07013	-0.117401265
180	0x3db287ad	0.08717284
181	0xbda92737	-0.08259433
182	0xbd8e1a0d	-0.069385625
183	0x3dfcb795	0.12339703
184	0x3dead9c4	0.11467317
185	0x3c2e3cb1	0.010634587
186	0x3e0a0a97	0.13480602
187	0xbdd49f4a	-0.103819445
188	0xbca38006	-0.019958507
189	0xbd7bfb48	-0.061518937
190	0x3dac49d0	0.08412516
191	0x3df49dee	0.11944185
192	0xbdc7b098	-0.097504795
193	0x3b34a93f	0.00275667
194	0xbde49b35	-0.11162416
195	0x3ded9b50	0.11601889
196	0xbd3aec98	-0.04563579
197	0x3e3fb57b	0.18721573
198	0x3dc3f7e8	0.09568769
199	0xbc7e03b8	-0.015503816
200	0x3e0bf25f	0.13666676
201	0xbc799660	-0.015233606
202	0x3ceba9bb	0.028767457
203	0xbd0b42a5	-0.033999104
204	0xbdd3ce0c	-0.10342035
205	0x3d9d8e9e	0.07693218
206	0xbe043558	-0.12910974
207	0x3de7068e	0.11280547
208	0xbdb7396d	-0.089465
209	0xbdf6dda1	-0.12053991
210	0xbd682682	-0.05667735
211	0x3d929383	0.07157042
212	0x3e03b13f	0.12860583
213	0x3e0bbb61	0.13645698
214	0xbc5d5242	-0.013508381
215	0xbe06f47a	-0.13179198
216	0x3e144adf	0.14481686
217	0x3db3e7bb	0.087844335
218	0x3d6af752	0.05736477
219	0xbdc40308	-0.09570891
220	0x3dbbdf4b	0.09173449
221	0x3e26a936	0.16275486
222	0x3db727e7	0.08943158
223	0x3db9ec1f	0.0907824
224	0x3de35ec9	0.11102063
225	0xbe279ceb	-0.16368453
226	0xbe2c8408	-0.16847241
227	0x3dc3ff2b	0.09570154
228	0x3d963d86	0.073359534
229	0xbcae7189	-0.021294372
230	0x3d87802e	0.06616245
231	0xbd9d71a3	-0.0768769
232	0xbc9c567b	-0.019084206
233	0xbde5d359	-0.11221952
234	0xbe18ea0e	-0.14933035
235	0x3c8c9d7b	0.017164936
236	0xbe35dc8a	-0.1775991
237	0x3d2a1459	0.04152331
238	0x3daac7a1	0.083388574
239	0x3e21437a	0.15748397
240	0xbd8e9cd6	-0.06963508
241	0xbddea1f0	-0.10870731
242	0xbe0e4d3d	-0.13896652
243	0xbe0288b7	-0.12747465
244	0x3da40e73	0.080105685
245	0x3dab3288	0.083592474
246	0x3e2c6442	0.1683512
247	0x3e03d8ac	0.12875623
248	0x3db30179	0.08740515
249	0xbdae6943	-0.08516171
250	0x3d5d9895	0.05410059
251	0xbd93c121	-0.07214571
252	0xbcc404f9	-0.023928152
253	0x3e264beb	0.16239898
254	0x3dbc1f98	0.091857135
255	0xbc60e3a3	-0.013726148

pre.2.bias f4 [64]
0	0x3e023cba	0.12718478
1	0x3da57d96	0.08080594
2	0xbe289ace	-0.16465303
3	0xbd71fcdd	-0.05907904
4	0x3d7a59c9	0.061120782
5	0x3e094637	0.13405691
6	0x3e34dfba	0.1766347
7	0xbcb40341	-0.021974208
8	0x3d5cc7c2	0.05390144
9	0x3c6e21c2	0.014534416
10	0x3d019051	0.03163177
11	0x3e204218	0.15650213
12	0xbdf2d7ac	-0.118575424
13	0xbc5a7dcc	-0.013335656
14	0xbd323984	-0.043511882
15	0x3e2853ef	0.16438268
16	0xbe017b79	-0.12644757
17	0x3cf6f1c7	0.030144585
18	0x3d50c176	0.05096575
19	0xbd2227fe	-0.03958892
20	0xbd5ee32b	-0.054415863
21	0x3dd96cbd	0.10616443
22	0x3df88555	0.12134806
23	0x3e374309	0.17896666
24	0xbc226189	-0.0099109495
25	0xbe1db94a	-0.15402713
26	0x3d080b75	0.03321405
27	0xbdf618a0	-0.120164156
28	0x3e127e01	0.14305879
29	0x3c81c2b8	0.01583992
30	0xbcdff00a	-0.02733614
31	0x3e1f9b92	0.15586689
32	0xbdd9b04d	-0.1062933
33	0x3d862aa5	0.065511025
34	0xbd500f86	-0.050796054
35	0x3de24a6b	0.1104935
36	0xbd835247	-0.064121775
37	0xbd90232c	-0.070379585
38	0xbc66ff87	-0.014099008
39	0xbe18f0b8	-0.14935577
40	0xbdd1e090	-0.1024791
41	0xbe043ec6	-0.12914571
42	0xbe158790	-0.14602494
43	0xbe2d8f57	-0.16949211
44	0xbbe9695a	-0.0071231546
45	0xbd75d395	-0.060016233
46	0x3e21c7fe	0.15798947
47	0x3e302c8f	0.17204498
48	0xbe23b876	-0.15988335
49	0x3d40d429	0.04707733
50	0x3e287e36	0.16454396
51	0xbde71469	-0.1128319
52	0xbd374c47	-0.044750478
53	0x3d810d35	0.06301347
54	0x3be00d19	0.006837499
55	0x3d3a0ae6	0.04542055
56	0x3b270164	0.0025483007
57	0xbe256dba	-0.16155139
58	0xbccaa863	-0.024738496
59	0x3ca08011	0.019592317
60	0x3ddfce1f	0.10927986
61	0xbccf674f	-0.025317816
62	0xbe0a548c	-0.13508815
63	0x3e0e772b	0.13912646

pre.4.weight f4 [64, 64, 3, 3]
0	0xbd016a7b	-0.03159569
1	0x3c22fc8b	0.009947906
2	0xbb7e83c0	-0.0038835853
3	0x3cc23758	0.02370803
4	0xbcc52548	-0.024065629
5	0xbcae8d10	-0.021307498
6	0xbcb5111e	-0.022102889
7	0x3c1a8fe0	0.009433717
8	0x3d23152f	0.039815124
9	0x3d29e43f	0.041477438
10	0xbcf2f833	-0.029659366
11	0xbcc843b0	-0.024446338
12	0x3c7335f0	0.014844403
13	0xbd20cd1a	-0.0392581
14	0x3d2193e0	0.039447665
15	0xbb971feb	-0.004611959
16	0x3c3b7a16	0.011442682
17	0x3caf6b1b	0.021413377
18	0xbc7bfeb6	-0.015380552
19	0xbc56b540	-0.013104737
20	0xbd1db77f	-0.038505074
21	0x3ce92ab0	0.028462738
22	0xbd0a74b7	-0.033802714
23	0x3bd64cab	0.0065399013
24	0x3cc4e638	0.024035558
25	0x3bf4aeeb	0.007467141
26	0x3c2597a0	0.010106951
27	0x3cfeaf5e	0.031089481
28	0x3cc200c0	0.023681998
29	0xbd214a58	-0.03937754
30	0xbbb2ff40	-0.005462557
31	0x3b5eef40	0.0034017116
32	0x3cf9b1ae	0.030480232
33	0x3ceef20e	0.029168155
34	0xb8fec000	-0.000121474266
35	0x3b0c2d2b	0.0021389227
36	0xbd0a16c3	-0.033713114
37	0x3bc3988b	0.0059691123
38	0xbc56f666	-0.013120269
39	0x3bfc308b	0.0076962165
40	0x3ca0cc4e	0.01962867
41	0x3c4b45bb	0.012406762
42	0x3bbf7576	0.00584286
43	0xbc97b2c6	-0.018517863
44	0x3d00c51a	0.03143797
45	0x3cdbee88	0.026847139
46	0x3c93eafe	0.018056389
47	0xbc999228	-0.01874645
48	0xbbdf4ec0	-0.0068148077
49	0x3b90e2ab	0.004421552
50	0x3c4680cb	0.012115668
51	0x3d200670	0.03906864
52	0x3d1e6036	0.038665973
53	0x3c3ffecb	0.011718462
54	0x3cd89036	0.026435953
55	0x3d0594b4	0.032612517
56	0x3d08f804	0.03343965
57	0x3b440c80	0.0029914677
58	0x3cb48053	0.022033846
59	0xbcca5040	-0.02469647
60	0xba040e56	-0.00050375366
61	0xbd073332	-0.033007808
62	0xbc6a5226	-0.014301812
63	0xbcd10be8	-0.025518373
64	0xbb8f26cb	-0.004368638
65	0xbc27f026	-0.010250127
66	0xbaab852b	-0.0013085952
67	0x3c9054d6	0.017618578
68	0xbcc9833b	-0.024598708
69	0x3cc66b26	0.024221014
70	0xbc0cf86b	-0.008604149
71	0x3d227ab6	0.039667808
72	0xbbffdac0	-0.0078080595
73	0x3c92fd46	0.017943036
74	0xbc5cce20	-0.013476878
75	0xbc9ef110	-0.019402057
76	0x3ba1030b	0.004913693
77	0xbc01ba50	-0.0079179555
78	0x3d283347	0.041064527
79	0x3cba3933	0.022732353
80	0x3cf36900	0.029713154
81	0xbc98651e	-0.018602904
82	0xbc50b9b0	-0.012739584
83	0x3cd07e68	0.0254509
84	0x3ce7caab	0.028294882
85	0x3cb3d0ae	0.021950092
86	0x3c89f05b	0.016838243
87	0x3c399710	0.01132752
88	0x3c387336	0.011257937
89	0xbc906cdb	-0.017630031
90	0xbc9a98e8	-0.01887174
91	0x3cad6bc3	0.021169549
92	0xbd19e60a	-0.037572898
93	0x3a6257ab	0.00086342794
94	0x3d1806f4	0.037116006
95	0x3cf5e10e	0.030014541
96	0xbc8c3d1b	-0.017118981
97	0xbb02626b	-0.0019895087
98	0x3ceaf3c8	0.028680697
99	0xbcbd2066	-0.023086738
100	0xbcccdbd8	-0.025007173
101	0xbc5f66ab	-0.013635318
102	0x3c509d3b	0.012732799
103	0x3cda19f0	0.026623696
104	0x3d087cee	0.033322267
105	0x3c054f30	0.008136556
106	0x3c219256	0.009861549
107	0xbc99ab83	-0.018758541
108	0xbd1661f4	-0.03671451
109	0x3c7bdca6	0.015372431
110	0x3d235ed7	0.03988537
111	0xb96a2eab	-0.00022333364
112	0xbc630376	-0.013855806
113	0x3cbcff0b	0.023070833
114	0x3b4212ab	0.0029613178
115	0xbc82b950	-0.015957505
116	0x3d0cba2c	0.034357235
117	0x3d05d252	0.03267128
118	0x3d13b92e	0.036065273
119	0xbc8531b6	-0.016259056
120	0xbc7f2300	-0.0155723095
121	0xbcc7e5c0	-0.024401546
122	0xbcd9eaf0	-0.026601285
123	0xbd22960c	-0.039693877
124	0xbcf01c68	-0.02931042
125	0x3ba644e0	0.0050741285
126	0x3c259d46	0.010108298
127	0xbac8eb80	-0.0015328974
128	0xbc9a22de	-0.018815454
129	0x3b9c7c80	0.0047755837
130	0xbcb7c606	-0.022433292
131	0xbc4d1870	-0.012518033
132	0x3d1be70b	0.038062137
133	0x3bd6cf2b	0.006555458
134	0x3d0ad0b2	0.033890434
135	0xbcee862b	-0.02911671
136	0x3cfdab86	0.030965578
137	0x3ce98650	0.028506428
138	0xbd054624	-0.032537594
139	0xbd158196	-0.036500536
140	0xbcb81a13	-0.02247337
141	0xbcbf159b	-0.023325732
142	0x3d0a7e1c	0.033811674
143	0xbd09cee6	-0.03364458
144	0x3d0b8a57	0.034067478
145	0x3d021b6a	0.031764425
146	0xbc58bdc0	-0.013228834
147	0x3c2f1a26	0.010687387
148	0xbc88a01b	-0.016677907
149	0x3cfcdc1b	0.030866673
150	0xbce27bf6	-0.027647
151	0x3d1fa7c7	0.038978364
152	0x3c472a06	0.012156015
153	0x3d1fe4c7	0.03903654
154	0x3d082192	0.03323514
155	0x395c96ab	0.00021036963
156	0xbc40bed6	-0.011764249
157	0x3d23faf3	0.040034246
158	0xbccf7c20	-0.025327742
159	0x3c998048	0.018737927
160	0xbd192162	-0.037385352
161	0xbd24de48	-0.040251046
162	0x3cb846db	0.022494724
163	0xbb45c796	-0.0030178777
164	0xbcd4b898	-0.025966927
165	0x3ca5b1ce	0.020226385
166	0xbbcb810b	-0.0062104515
167	0x3bb1ab0b	0.0054220012
168	0xbbb24540	-0.005440384
169	0x3cd69660	0.026194751
170	0xbaed5700	-0.0018107593
171	0x3c3816d0	0.011235908
172	0x3c892a06	0.016743671
173	0x3c9cfb5b	0.019162824
174	0xbb20eb96	-0.0024554483
175	0x3ce67080	0.028129816
176	0xbc2d6ffb	-0.01058578
177	0xbbab11c0	-0.005220622
178	0x3cc2efde	0.023796018
179	0xbd2a538e	-0.04158359
180	0xbcc0a3f6	-0.023515683
181	0x3ccc4fd3	0.024940407
182	0xbc2291b6	-0.0099224355
183	0xbd02fe4b	-0.031980794
184	0x3cb2b906	0.021816742
185	0x3bcd6f20	0.0062693506
186	0xbcb9c973	-0.022679066
187	0xbd191c2c	-0.037380382
188	0x3cefedf8	0.029288277
189	0xbd05e2c8	-0.03268698
190	0xbc31436b	-0.010819296
191	0x3c55fa26	0.013060128
192	0xbcdc56fe	-0.02689695
193	0x3cf5572e	0.029948797
194	0xb89bdaab	-7.431706e-05
195	0xbc657f60	-0.014007419
196	0xbc57901b	-0.013156916
197	0x3d097e07	0.033567455
198	0xbd0c7c7e	-0.034298413
199	0x3bc9ec00	0.0061621666
200	0x3bab8780	0.0052346587
201	0xbd1fd340	-0.039019823
202	0xbd1381bc	-0.036012396
203	0xbd012512	-0.031529494
204	0x39baeb56	0.00035652024
205	0x3c9c42ae	0.019074764
206	0xbb82f3f6	-0.0039963676
207	0xbd26cfd6	-0.04072555
208	0x3b313ceb	0.0027044367
209	0x3d135a1a	0.0359746
210	0xbd0b6b84	-0.03403808
211	0xbc86b780	-0.016444921
212	0xbd128d93	-0.035779547
213	0x3b61bdab	0.0034445326
214	0xbd0c74ac	-0.034290954
215	0xbcd865b8	-0.02641569
216	0x3baaa056	0.005207102
217	0x3a8f71d6	0.001094396
218	0x3c92c940	0.01791823
219	0x3d001c48	0.03127697
220	0x3d1b7f32	0.0379631
221	0x3d0c0bd8	0.034190983
222	0x3d06f49a	0.032948114
223	0xbc265b46	-0.010153597
224	0x3cd9cab6	0.026585918
225	0x3d19e4a0	0.03757155
226	0xbccbcb2b	-0.024877151
227	0xbd0b0cb0	-0.033947647
228	0x3c4fdd7b	0.012687082
229	0xbc9db7fb	-0.019252768
230	0x3c03ec8b	0.008052002
231	0xbcc2f448	-0.023798123
232	0x3d263c1c	0.04058467
233	0xbd0a3d0c	-0.033749625
234	0x3cf3481b	0.029697469
235	0xba822456	-0.0009929042
236	0x3ce58f33	0.028022384
237	0xbc188506	-0.009309059
238	0xbd02a6ff	-0.03189754
239	0x3cb2fd83	0.0218494
240	0xbcb1195b	-0.021618536
241	0x3bc8c336	0.0061267866
242	0xbc3640db	-0.011123861
243	0xbca725b3	-0.020403719
244	0x3d12ea6e	0.0358681
245	0x3d038747	0.032111432
246	0xbd031cf2	-0.032010026
247	0xbbee7600	-0.0072772503
248	0x3d214a8e	0.03937774
249	0x3bccc996	0.006249617
250	0x3cd566d3	0.026050007
251	0x3ca731cb	0.020409485
252	0xbaa3fd56	-0.0012511413
253	0xbd17c9bf	-0.037057634
254	0x3c5ad7f0	0.013357148
255	0xbac72556	-0.0015193622

pre.4.bias f4 [64]
0	0x3ca042a8	0.019563034
1	0x3be47520	0.00697197
2	0x3a718556	0.0009213289
3	0xbc68d6c6	-0.014211362
4	0x3c82c32a	0.015962202
5	0x3d28e32a	0.041232266
6	0x3bbb0720	0.0057076365
7	0x3ce6a3eb	0.028154334
8	0x3c8f5f17	0.017501397
9	0x3c030374	0.007996429
10	0xbcf97610	-0.030451804
11	0x3ccb1b7b	0.024793377
12	0xbc9eb4c0	-0.019373298
13	0x3bcb2231	0.0061991443
14	0xbc48b51d	-0.012250212
15	0xbcc443bd	-0.023958081
16	0x3cf3241f	0.02968031
17	0xbc3087b6	-0.0107745435
18	0x3c762a97	0.015024803
19	0xbce4b189	-0.027916687
20	0xbceb4490	-0.028719217
21	0x3cac3b41	0.021024348
22	0xbd1c701b	-0.03819285
23	0xbc4ef126	-0.012630736
24	0xbcbf1b00	-0.023328304
25	0xbb1172da	-0.00221937
26	0x3b844b8b	0.0040373257
27	0xbcea721a	-0.028618861
28	0xbc55a299	-0.013039255
29	0x3ce4b13d	0.027916545
30	0x3cadb04e	0.021202233
31	0xbca2a57b	-0.019854298
32	0x3d169923	0.036767136
33	0x3c5dc701	0.013536216
34	0xbd2e51df	-0.042558547
35	0xbc90f016	-0.017692607
36	0xbcd75cb7	-0.026289327
37	0xbcc36b17	-0.023854775
38	0x3caeb503	0.021326547
39	0xbba8c0ec	-0.005149951
40	0x3cde6161	0.027146043
41	0x3d1652fc	0.036700234
42	0xbc93ced5	-0.018042961
43	0xbcdbf71a	-0.026851226
44	0xbc1acf83	-0.009448889
45	0x3a0a19cb	0.00052681257
46	0x3d005456	0.03133043
47	0x3bf7c2f0	0.00756108
48	0x3c8c67a4	0.017139263
49	0x3d20ad50	0.039227784
50	0x3ceb2ae0	0.028706968
51	0xbce6c619	-0.028170632
52	0x3c9d1632	0.019175623
53	0x3cf20095	0.029541293
54	0xbbf4206b	-0.0074501536
55	0x3c737e71	0.014861689
56	0x3c36c67b	0.01115572
57	0xbd02d656	-0.031942688
58	0xbcc9ebd4	-0.024648584
59	0xbced8797	-0.028995318
60	0x3aa79541	0.001278557
61	0x3c87abb0	0.01656136
62	0x3c3e8110	0.011627451
63	0xb94a7365	-0.00019307209

post.0.weight f4 [32, 64, 1, 1]
0	0xbd9031af	-0.070407264
1	0x3d1e138d	0.038592864
2	0x3d7e4c6a	0.062084593
3	0xbc2574aa	-0.010098616
4	0x3ccce7bf	0.025012849
5	0x3dc3c3d6	0.09558837
6	0x3da03f33	0.07824554
7	0x3df192c0	0.117955685
8	0xbd0669f1	-0.032815877
9	0xbd32dfa0	-0.043670297
10	0x3c8237c2	0.015895728
11	0xbd67c37e	-0.05658292
12	0x3cede8d3	0.029041683
13	0x3daf0ccc	0.08547363
14	0x3d78b5c2	0.060720213
15	0x39b10115	0.00033760877
16	0xbe0c6a83	-0.13712506
17	0xbe63904c	-0.22223014
18	0x3dab986b	0.08378681
19	0x3dc75572	0.09733094
20	0xbe2e247c	-0.17006105
21	0xbc51b83a	-0.012800271
22	0x3b614c77	0.0034377852
23	0x3e094a8c	0.13407344
24	0xbe26d958	-0.16293848
25	0x3d86d943	0.06584408
26	0x3cf5e20f	0.03001502
27	0xbd75f2e2	-0.060046084
28	0xbd13e0cc	-0.036103055
29	0x3de261e8	0.110538304
30	0xbdb1bd01	-0.08678628
31	0x3e08455f	0.13307713
32	0xbdebdf3b	-0.11517187
33	0xbc171368	-0.009220935
34	0x3b8915df	0.0041835154
35	0x3e52af07	0.2057458
36	0x3e74bbdd	0.23899789
37	0xbe0779b4	-0.1323002
38	0xbd3d14a8	-0.046162277
39	0xbe4ba773	-0.19888096
40	0xbcc9bd58	-0.024626419
41	0xbda230db	-0.07919475
42	0xbd6c9fe4	-0.05776967
43	0xbd9ae200	-0.07562637
44	0x3dc7d2b5	0.09756986
45	0x3e651d45	0.22374447
46	0xbe2a65a7	-0.1664034
47	0x3de2090e	0.11036883
48	0xbe605588	-0.21907628
49	0x3c42ac78	0.01188194
50	0x3e057895	0.1303428
51	0x3dc2c976	0.09511082
52	0xbdfdfa13	-0.124012135
53	0xbd71e72a	-0.059058346
54	0x3d7371da	0.05943475
55	0xbbda1534	-0.0066553596
56	0x3c88f297	0.016717238
57	0x3d8fb51e	0.07016967
58	0x3d094c12	0.033519812
59	0x3b52023d	0.003204479
60	0x3e041533	0.12898712
61	0x3e12c007	0.14331065
62	0x3dba7400	0.091041565
63	0x3d6af4e0	0.057362437
64	0x3d8bbb3b	0.06822821
65	0xbdaaa4a5	-0.08332185
66	0x3e4c085b	0.19925062
67	0x3d10142f	0.0351755
68	0x3deb1a4d	0.11479626
69	0xbcb362ba	-0.021897662
70	0x3d26e6e4	0.04074754
71	0x3eaec86b	0.34137282
72	0x3ce6cef7	0.02817486
73	0xbdfc14f6	-0.123086855
74	0x3de0b85e	0.10972665
75	0xbdf0467d	-0.117321946
76	0x3dc5d83b	0.09660383
77	0xbdc55d8c	-0.09636983
78	0x3ca08ecd	0.019599343
79	0xbd93b366	-0.07211952
80	0x3daf9d3f	0.08574914
81	0xbe7944fa	-0.24342719
82	0x3cc3c7b4	0.023898937
83	0x3c283ad6	0.010267934
84	0xbc5e6657	-0.013574204
85	0xbd3215b4	-0.04347773
86	0xbdd7a4fc	-0.10529515
87	0x3df84e69	0.121243306
88	0x3c0291be	0.007969318
89	0x3e2b9136	0.16754612
90	0xbd27c87f	-0.040962692
91	0xbbd8a82a	-0.0066118436
92	0xbdf467e1	-0.11933876
93	0x3deac93b	0.11464163
94	0xbcd6c5f0	-0.02621743
95	0x3e98767f	0.29777905
96	0x3dfc0de0	0.12307334
97	0x3e535363	0.20637278
98	0xbe4a3399	-0.19746245
99	0xbd0347e1	-0.03205097
100	0x3e48e3f3	0.19618206
101	0x3e90a29b	0.28249058
102	0x3e43c83b	0.1911935
103	0xbe8c9ae8	-0.27461934
104	0xbe3a868d	-0.1821539
105	0xbe2a76f9	-0.16646947
106	0x3e1c2aea	0.15250745
107	0xbea85aec	-0.32881868
108	0x3df6cd33	0.120508574
109	0xbdbbbfe3	-0.09167459
110	0xbe9e30cd	-0.30896607
111	0x3d9951bb	0.07486292
112	0xbe836c7d	-0.25668707
113	0xbea9b2c7	-0.3314421
114	0xbd753c67	-0.059872057
115	0x3e57c281	0.21070291
116	0xbe72aab7	-0.23697935
117	0x3e0daec4	0.13836199
118	0xbdaba4ce	-0.083810434
119	0x3e6ae527	0.22938977
120	0xbe627939	-0.22116555
121	0xbe11ee66	-0.14251098
122	0xbe1e42ee	-0.15455219
123	0x3de701fc	0.11279675
124	0x3eae8107	0.34082815
125	0x3ec28fac	0.38000238
126	0x3e399f7f	0.18127249
127	0xbdb4e37e	-0.08832453
128	0x3d38b1ab	0.045091312
129	0xbdc50415	-0.09619919
130	0xbc2e8591	-0.010651962
131	0x3cf852d6	0.030312937
132	0x3d4e5843	0.05037714
133	0x3ce0100e	0.027351405
134	0x3d163e55	0.03668054
135	0xbdb8373c	-0.0899491
136	0x3b936760	0.0044984072
137	0xbe090e63	-0.13384394
138	0x3d689d26	0.056790493
139	0xbdb0e54c	-0.08637485
140	0x3d8233c1	0.063575275
141	0xbdd61f28	-0.10455161
142	0x3c264bba	0.010149891
143	0xbdb6c286	-0.08923821
144	0x3d1975ed	0.03746598
145	0x3dfe973f	0.12431192
146	0x3d07c163	0.033143412
147	0x3bd40fa1	0.0064715897
148	0xbc8235e7	-0.015894843
149	0xbd3e4d0b	-0.046460193
150	0xbdb40936	-0.08790819
151	0x3b6b28e6	0.0035882532
152	0x3d5ff795	0.054679472
153	0x3e42d51e	0.1902661
154	0xbc20ceb8	-0.009814911
155	0xbd030028	-0.03198257
156	0xbd962607	-0.07331472
157	0x3d9ddb8f	0.07707893
158	0x3d64d892	0.0558706
159	0x3d1a069e	0.037603967
160	0x3cf8a138	0.030350313
161	0x3dcc4f79	0.09976096
162	0xbce2a57a	-0.027666796
163	0xbdcb121d	-0.09915564
164	0xbd8ce801	-0.06880189
165	0x3e288660	0.1645751
166	0xbd238bbb	-0.03992818
167	0x3cb8aaec	0.02254244
168	0x3e19a2b4	0.15003473
169	0x3c9de5af	0.01927456
170	0x3e19d9f1	0.15024544
171	0xbdc14b0f	-0.094381444
172	0x3e4fe089	0.20300497
173	0xbdca74d0	-0.098855615
174	0x3da4f807	0.0805512
175	0xbbfbc1f9	-0.0076830355
176	0x3d8e2a7a	0.069416955
177	0xbe0960fe	-0.13415906
178	0xbe53b2c0	-0.20673656
179	0xbd366930	-0.04453391
180	0x3d0f344f	0.034961995
181	0xbc5d1efb	-0.013496156
182	0xbe73cf7e	-0.2380962
183	0x3e9857c2	0.29754454
184	0xbd284b66	-0.04108753
185	0xbe49af12	-0.1969569
186	0x3da5d9b1	0.08098162
187	0x3aa13cec	0.0012301481
188	0x3e0117cb	0.12606733
189	0x3c2dcd2f	0.010608002
190	0x3dd17267	0.10226899
191	0xbe1aaba3	-0.15104537
192	0x3c4974da	0.012295926
193	0xbd709a05	-0.058740634
194	0xbce09dda	-0.02741902
195	0xbc0f60a1	-0.0087510655
196	0xbd270a4a	-0.040781297
197	0xbc8544b7	-0.016268117
198	0xbd1386e2	-0.036017306
199	0x3d8e16c0	0.06937933
200	0xbd999a4a	-0.075001314
201	0xbda41b0e	-0.08012973
202	0xbd8cddfe	-0.06878279
203	0x3df301d7	0.11865585
204	0x3cfc4213	0.030793225
205	0xbc0f8d0d	-0.0087616565
206	0xbb34d6f3	-0.002759394
207	0xbd48116a	-0.048844732
208	0x3da0a1ed	0.07843385
209	0x3e4b76f5	0.19869597
210	0x3d8e97b5	0.069625296
211	0x3dc4c6c3	0.09608223
212	0x3daf45bb	0.08558222
213	0xbd87d103	-0.06631663
214	0x3d62ec9f	0.05540144
215	0x3ca48610	0.020083457
216	0xbda608ed	-0.08107171
217	0x3df5380e	0.11973582
218	0xbd4eadee	-0.05045884
219	0x3de4125f	0.111363165
220	0xbd9e500a	-0.0773011
221	0x3d9c7da3	0.07641151
222	0xbdb2d19c	-0.08731386
223	0x3c059143	0.008152309
224	0x3e16a5d3	0.14711694
225	0x3ac6f03e	0.0015177799
226	0x3d12b348	0.035815507
227	0xbe0142f1	-0.12623192
228	0xbd6beb41	-0.057597402
229	0x3def5dba	0.11687799
230	0x3e191908	0.14950955
231	0x3da0b4c6	0.0784698
232	0x3d6b84f3	0.057499837
233	0x3e2335b0	0.15938449
234	0x3cf3fcff	0.029783724
235	0x3c4b03fa	0.012391085
236	0x3dda5c9d	0.10662196
237	0xbe665f7d	-0.22497363
238	0xbd0b7dd7	-0.034055557
239	0x3ca2de8f	0.019881515
240	0x3d8674f0	0.06565273
241	0xbe3fd9ab	-0.18735377
242	0x3c96e704	0.018420704
243	0x3e4b5335	0.1985596
244	0x3c2841b3	0.01026957
245	0x3d53ff96	0.051757418
246	0xbb74aec8	-0.0037335623
247	0x3e4e6cd0	0.20158696
248	0xbcd9bd4f	-0.026579527
249	0xbe0f435e	-0.13990542
250	0xbd97b101	-0.07406808
251	0xbd9c0585	-0.0761824
252	0xbd90b274	-0.07065287
253	0x3d60b624	0.054861203
254	0x3d64f5a2	0.055898316
255	0x3c8cb417	0.017175717

post.0.bias f4 [32]
0	0x3cbe7c40	0.023252606
1	0x3e9bc5cf	0.30424353
2	0x3dc9ea9c	0.09859201
3	0xbd71729a	-0.058947183
4	0xbe05365f	-0.13009022
5	0x3d8db190	0.06918633
6	0x3e822e0c	0.25425756
7	0x3e6f58bc	0.23373693
8	0x3e7b84e5	0.24562414
9	0x3dadfff9	0.084960885
10	0xbdc6806d	-0.09692464
11	0x3e4a6f3c	0.19768995
12	0x3b610b4a	0.0034339004
13	0x3d84e1c2	0.064883724
14	0x3d04565b	0.032308917
15	0xbaf13f05	-0.0018405622
16	0x3ec38aca	0.38191825
17	0xbe0d8f45	-0.13824184
18	0x3e8b4d0c	0.2720722
19	0xbe1dd4a5	-0.15413149
20	0x3e6efe6f	0.23339246
21	0x3ea8a471	0.3293796
22	0x3d2c5319	0.042071436
23	0x3d8cf299	0.06882209
24	0x3ed17b50	0.40914392
25	0x3ea06117	0.31324074
26	0x3d853a40	0.06505251
27	0x3e0e19b8	0.13876998
28	0x3d6bf87d	0.057610024
29	0x3e6ce143	0.23132806
30	0x3e95815b	0.29200253
31	0x3da8f5f4	0.08250037

post.2.weight f4 [3, 32, 1, 1]
0	0x3d85cf71	0.06533707
1	0x3e281ac8	0.16416466
2	0xbe009625	-0.12557276
3	0xbdf9a70c	-0.12190065
4	0xbda4504f	-0.0802313
5	0xbe227d5f	-0.15868138
6	0xbdb40dab	-0.087916695
7	0x3e87cbf4	0.2652279
8	0xbe08b028	-0.13348448
9	0xbd88bb7d	-0.066763856
10	0x3d2897f9	0.041160557
11	0xbbd3fd7c	-0.0064694267
12	0x3e8d808d	0.2763714
13	0xbdb50c75	-0.088402666
14	0xbe04e7f0	-0.12979102
15	0xbe3e8ec6	-0.18609151
16	0x3cb1b3f4	0.021692254
17	0xbe0a6d67	-0.13518296
18	0x3db9e89f	0.09077572
19	0xbe0c85da	-0.13722935
20	0xbdf01672	-0.11723031
21	0x3e34b510	0.17647195
22	0x3d89190d	0.06694231
23	0x3d962101	0.07330514
24	0x3d973b31	0.07384337
25	0x3e34c843	0.17654519
26	0xbd6eee4a	-0.05833272
27	0x3e155da7	0.14586507
28	0x3d8adb58	0.06780118
29	0xbdb0dea6	-0.08636217
30	0x3d8388b5	0.06422559
31	0xbd3cc124	-0.04608263
32	0x3cf7f3ba	0.030267585
33	0xbe1ef86c	-0.15524453
34	0xbcd22170	-0.02565071
35	0xbdfb8239	-0.122806974
36	0x3ca74f3b	0.020423522
37	0xbcb83e17	-0.022490544
38	0xbd3a78c2	-0.04552532
39	0xbe67e366	-0.2264534
40	0x3dc45cb8	0.09587997
41	0x3d648b6a	0.055797018
42	0x3dd9e4bf	0.10639333
43	0x3e019407	0.12654124
44	0xbc9111d3	-0.017708695
45	0xbdf9f9e8	-0.12205869
46	0xbcf4aeaa	-0.029868443
47	0x3d3e0b24	0.046397343
48	0xbdf2b787	-0.11851411
49	0xbc105eb4	-0.0088116415
50	0xbe0c2430	-0.1368568
51	0x3d3dc840	0.04633355
52	0x3c10dafb	0.0088412715
53	0xbd771bd5	-0.060329277
54	0x3dcea3de	0.10089849
55	0x3e6a856a	0.22902456
56	0xbdd7edee	-0.10543428
57	0xbd9421ce	-0.0723301
58	0x3e14808b	0.1450216
59	0x3d6ac51d	0.057316888
60	0x3e03cb3f	0.12870501
61	0xbe318583	-0.17336087
62	0xbe374607	-0.17897807
63	0x3d82a075	0.06378261
64	0xbd1a03a2	-0.03760112
65	0xbda0cdf6	-0.07851784
66	0x3dc80f16	0.097685024
67	0xbd673390	-0.05644566
68	0x3d9d760e	0.07688533
69	0x3e34aa16	0.17643008
70	0x3dc6339e	0.09677814
71	0x3df2a889	0.11848552
72	0xbdc3fe88	-0.09570032
73	0xbe183add	-0.14866205
74	0x3d8d45f1	0.06898106
75	0xbd37c1e0	-0.044862628
76	0xbda73f1d	-0.08166335
77	0xbdb1f2ea	-0.0868891
78	0xbe3dd352	-0.18537644
79	0xbe23c502	-0.15993121
80	0x3d5cf315	0.05394276
81	0xbd2fdb68	-0.04293385
82	0x3e1bfcd9	0.15233172
83	0x3c5c8625	0.013459717
84	0xbc98c64a	-0.01864924
85	0x3cc2ab76	0.0237634
86	0x3cc14324	0.023591585
87	0x3dd9f7b1	0.106429465
88	0x3e08348a	0.13301292
89	0xbda2cfbd	-0.07949779
90	0x3da017bc	0.07817027
91	0xbc109bfe	-0.008826254
92	0xbe2b4ab9	-0.16727723
93	0x3e0e0667	0.1386963
94	0x3d4680c9	0.048462663
95	0xbdcba7b2	-0.09944095

post.2.bias f4 [3]
0	0x3e201d7a	0.15636244
1	0xbe9f845b	-0.31155667
2	0x3ece917d	0.40345374

post.4.weight f4 [3, 3, 3, 3]
0	0x3e781837	0.24227987
1	0x3e091c0a	0.13389602
2	0x3e0b18e8	0.1358372
3	0x3e4e0ee7	0.20122872
4	0xbd5f4d42	-0.05451704
5	0x3daeffd8	0.08544892
6	0x3d7f0c25	0.06226744
7	0x3c7e94e5	0.015538429
8	0x3c07cd19	0.008288645
9	0xbe2187b0	-0.15774417
10	0xbd1cdc53	-0.038296055
11	0xbcb601ed	-0.022217715
12	0xbe3e9f2c	-0.18615407
13	0xbe01a93e	-0.12662217
14	0xbbafb1aa	-0.0053617554
15	0xbcfdc761	-0.03097886
16	0x3d216889	0.039406333
17	0xbd501203	-0.050798427
18	0xbd12cd15	-0.035840113
19	0x3dba953d	0.09110496
20	0x3c291de8	0.010322072
21	0xbdc983d1	-0.09839595
22	0x3defe465	0.11713485
23	0xbdd963db	-0.10614749
24	0x3c019c9f	0.007910877
25	0x3cbfa67e	0.02339482
26	0xbddb8aa0	-0.107198
27	0x3dcd1c52	0.10015167
28	0xbdd7d685	-0.10538963
29	0x3d0abe02	0.03387261
30	0x3dcc0e56	0.09963672
31	0x3e50f94f	0.20407604
32	0xbdd05d57	-0.10174053
33	0xbd712dd4	-0.058881596
34	0xbdd420f3	-0.10357847
35	0xbd0a0ddf	-0.033704635
36	0x3c83e527	0.01610048
37	0xbe3ac87d	-0.18240543
38	0xbaf7bdd0	-0.0018901173
39	0xbd2a7b5b	-0.041621547
40	0xbe2948b3	-0.16531639
41	0x3d2c1e2f	0.042020973
42	0xbd60ca17	-0.054880228
43	0x3d1cfe45	0.038328428
44	0xbd7f0812	-0.062263556
45	0x3e26a603	0.16274266
46	0xbc747852	-0.014921265
47	0x3e189062	0.14898828
48	0x3d18efdf	0.037338134
49	0xbc1c31e6	-0.009533381
50	0xbddd7f8a	-0.10815342
51	0x3dac3ec1	0.08410407
52	0xbde1e421	-0.1102984
53	0x3e8b2a22	0.27180582
54	0x3e0a84bc	0.13527197
55	0xbd1208b5	-0.035652835
56	0xbe1a3098	-0.150576
57	0xbd421d0b	-0.04739098
58	0x3e24544d	0.16047783
59	0xbdba738c	-0.0910407
60	0xbde25541	-0.11051417
61	0x3d7ba94b	0.061440747
62	0xbe5f9039	-0.2183236
63	0xbda43bc9	-0.080192156
64	0xbe0c5a8e	-0.13706419
65	0xbe082e9a	-0.13299027
66	0x3c7f7bbc	0.015593465
67	0xbd63ddb6	-0.055631362
68	0xbc4a613f	-0.012352287
69	0x3cbe32f4	0.023217656
70	0xbe402ef3	-0.1876791
71	0x3d8d29f2	0.06892766
72	0x3cd65e6b	0.026168069
73	0xbde21723	-0.11039569
74	0x3d08beee	0.03338521
75	0x3dd7bd5d	0.10534165
76	0x3dd0e81e	0.10200523
77	0x3e418153	0.1889699
78	0xbcd036bb	-0.025416723
79	0x3e0a2221	0.13489582
80	0xbe37524e	-0.1790249

post.4.bias f4 [3]
0	0x3ca1e6aa	0.01976331
1	0x3e7c2a9c	0.24625629
2	0x3ed57990	0.41694307

post.6.weight f4 [3]
0	0x3f941262	1.156811
1	0x3f6d5d26	0.9272026
2	0x3f614e97	0.88010544

post.6.bias f4 [3]
0	0x3b0c763d	0.002143278
1	0xbded8bdb	-0.11598941
2	0x3bdd66a6	0.0067566214

post.6.running_mean f4 [3]
0	0x41d97d85	27.186289
1	0x415b7b95	13.717671
2	0x41048c98	8.284325

post.6.running_var f4 [3]
0	0x42c4d0f9	98.40815
1	0x41a29fa2	20.327946
2	0x41ab6752	21.42545

net.0.theta_phi.bottleneckBlock.0.weight f4 [64, 32, 1, 1]
0	0x3c78808b	0.015167366
1	0x3dafc2af	0.08582055
2	0x3dd80ab0	0.105489135
3	0xbda4fd08	-0.080560744
4	0xbcaa0163	-0.020752614
5	0x3a211ad6	0.00061456615
6	0x3e3d8fa3	0.18511824
7	0x3db65be9	0.08904249
8	0x3b2b3fc2	0.0026130532
9	0xbd3f1fd7	-0.046661224
10	0xbd83a4a0	-0.06427884
11	0xbdd9eb05	-0.106405295
12	0xbc38aacd	-0.011271191
13	0x3d3cf2c7	0.046129968
14	0x3d8eafe9	0.06967146
15	0xbd211b43	-0.03933264
16	0xbd80db94	-0.06291881
17	0x3d827865	0.0637062
18	0xbd9a6481	-0.07538701
19	0x3dfa252e	0.12214123
20	0x3d6f7d69	0.05846921
21	0x3c2eaa59	0.010660731
22	0xbd871f80	-0.06597805
23	0xbe038472	-0.12843493
24	0x3d3b361d	0.045705903
25	0x3ca32864	0.01991672
26	0x3c24757a	0.010037774
27	0xbe2a15b2	-0.16609839
28	0xbd753c68	-0.05987206
29	0xbd85e5be	-0.065379605
30	0xbe0adf57	-0.1356176
31	0xbddf3b15	-0.10899941
32	0xbcde00f4	-0.027100064
33	0xbcc47150	-0.023979813
34	0xbd389d4f	-0.045071896
35	0xbc015156	-0.007892927
36	0x3e0741af	0.1320865
37	0x3d9c2593	0.07624354
38	0xbba15856	-0.0049238605
39	0xbded464a	-0.11585672
40	0xbe0e4274	-0.13892537
41	0xbdd2787d	-0.102768876
42	0x3d45f2a6	0.04832711
43	0xbe120657	-0.14260231
44	0xbdea4701	-0.11439324
45	0xbb6ef63f	-0.0036462692
46	0x3c7d0e34	0.015445281
47	0xbd7cea6b	-0.061746996
48	0x3de40816	0.11134355
49	0xbd891317	-0.06693094
50	0xbd2ed3cf	-0.042682465
51	0x3e338b2f	0.17533563
52	0x3d8b33d3	0.06796994
53	0xbe08f51c	-0.13374752
54	0xbd657c5c	-0.0560268
55	0x3d89deae	0.06731926
56	0xbe344b05	-0.17606743
57	0x3e158239	0.14600457
58	0x3e2deece	0.16985628
59	0xbe1af272	-0.15131548
60	0xbc97ad37	-0.018515212
61	0x3d47a2a6	0.048739098
62	0xbd7e4c08	-0.062084228
63	0xbcd0effe	-0.025505062
64	0xbe0b1eb6	-0.13585934
65	0x3d2c956f	0.0421347
66	0xbe2505c8	-0.16115487
67	0xbcc09b06	-0.023511421
68	0x3cd840a0	0.026398003
69	0xbdbd637b	-0.0924749
70	0x3da9d044	0.08291677
71	0xbc815d59	-0.015791582
72	0xbe19304d	-0.14959832
73	0xbb37565b	-0.0027975056
74	0xbc4fef85	-0.012691383
75	0xbd6fba9a	-0.058527566
76	0x3d79be63	0.060972583
77	0x3e1b1df6	0.15148148
78	0x3d7e8173	0.06213517
79	0x3cf519ea	0.029919583
80	0xbe11422e	-0.14185402
81	0xbe20064c	-0.15627402
82	0x3dc47d39	0.09594197
83	0xbe049ca4	-0.12950379
84	0x3cd8f418	0.02648358
85	0x3d9a2fb6	0.075286314
86	0x3dffe96a	0.12495692
87	0x3d64a020	0.05581677
88	0x3dddfaa3	0.10838821
89	0x3af1a0de	0.0018434783
90	0x3e17795a	0.14792386
91	0x3cec7693	0.028865134
92	0xbbe5f49c	-0.007017685
93	0x3d81051c	0.06299803
94	0x3d5e21c8	0.054231435
95	0x3c6902d0	0.014221862
96	0x3da634d5	0.08115546
97	0x3e081560	0.13289404
98	0xbd278da8	-0.04090658
99	0x3e02c6eb	0.12771194
100	0xbd8d63d1	-0.06903804
101	0x3d347b3a	0.04406283
102	0xbde38735	-0.11109773
103	0xbdbfb26a	-0.09360202
104	0x3e0ad4c4	0.13557726
105	0x3d81f3c4	0.06345323
106	0x3df3efa8	0.11910945
107	0xbd8796f3	-0.06620588
108	0xbd8a74a7	-0.06760531
109	0xbc589a51	-0.013220386
110	0xbd3e4156	-0.046449028
111	0xbd354a89	-0.044260535
112	0xbb221863	-0.0024733774
113	0xbd97c8c0	-0.07411337
114	0xbd81f2a7	-0.063451104
115	0x3dde94db	0.10868236
116	0xbca7ceb7	-0.020484312
117	0xbe0d788e	-0.13815519
118	0x3d6d9632	0.058004566
119	0x3db520ea	0.088441685
120	0x3bfaa6ef	0.0076492946
121	0x3cfc282f	0.03078088
122	0x3daea9df	0.08528494
123	0xbe198a85	-0.14994247
124	0x3e0d08f7	0.13772951
125	0x3ddabedc	0.10680935
126	0x3e30b855	0.17257817
127	0x3e214c3b	0.15751736
128	0x3dd1d9ee	0.10246645
129	0xbdd8453c	-0.105600804
130	0x3e26e13d	0.16296859
131	0x3e0cd64c	0.13753623
132	0x3d5f6e62	0.05454863
133	0xbe21621a	-0.15760079
134	0x3d744e6a	0.059645094
135	0x3e0db2c9	0.13837732
136	0xbdbe63c8	-0.092963755
137	0x3dc61534	0.09672013
138	0x3de1b0d8	0.110200584
139	0x3e0f74f5	0.1400946
140	0xbe226f64	-0.15862805
141	0xbe34d156	-0.1765798
142	0xbe2bfec7	-0.16796409
143	0x3e0fa7f7	0.14028917
144	0x3d8adca3	0.06780364
145	0xbdd59fa1	-0.104308374
146	0xbd8a3c49	-0.0674978
147	0x3d8261f4	0.06366339
148	0x3d3b3a2f	0.045709785
149	0xbe1cb2fe	-0.15302655
150	0xbda16732	-0.07881011
151	0xbde5443f	-0.111946575
152	0xbced831e	-0.028993186
153	0xbdc0834d	-0.09400044
154	0x3d1b072b	0.037848633
155	0xbe201375	-0.15632422
156	0x3d97a758	0.07404965
157	0xbd90d0b5	-0.07071058
158	0xbe1e7396	-0.1547378
159	0x3e3855ca	0.18001476
160	0xbd17186e	-0.036888532
161	0x3e040b9b	0.12895052
162	0x3e05cca1	0.13066341
163	0x3bef1277	0.0072959024
164	0xbcf043ba	-0.02932917
165	0x3df8d43d	0.12149856
166	0xbc07ef22	-0.00829676
167	0x3de753bb	0.11295267
168	0x3d5ef1de	0.05442988
169	0xbdaa3b03	-0.08312037
170	0x3ddae7ee	0.10688768
171	0x3d883e0e	0.06652461
172	0x3dd85af2	0.105642214
173	0x3ce9a7ca	0.02852239
174	0x3db51690	0.08842194
175	0xbcba14f1	-0.022715064
176	0xbdb353a1	-0.08756185
177	0x3cda7ae1	0.026669921
178	0x3e2b6099	0.16736068
179	0xbe2eabff	-0.17057799
180	0xbbb8321d	-0.0056212083
181	0x3d84331f	0.06455063
182	0xbddc4929	-0.10756142
183	0xbd34d7d7	-0.044151153
184	0x3ceac7ee	0.028659787
185	0x3e2e97ab	0.17050044
186	0x3cab7228	0.020928457
187	0xbe2d59a1	-0.16928722
188	0x3e210ba4	0.15727097
189	0xbda76df6	-0.0817527
190	0xba2ac025	-0.0006513617
191	0x3d810f75	0.06301776
192	0x3ddbc52e	0.107309684
193	0x3d234098	0.039856523
194	0x3d4e855a	0.050420143
195	0xbc8809f6	-0.016606312
196	0x3db11b08	0.08647734
197	0x3c5df44e	0.013547016
198	0xbd52f343	-0.051501524
199	0x3e15a203	0.14612584
200	0x3d266062	0.04061926
201	0xbd80f544	-0.06296781
202	0x3e3a3187	0.18182956
203	0x3d6f1581	0.058370117
204	0xbd3e72ae	-0.046496086
205	0xbe17914b	-0.14801519
206	0xbdc4bfa0	-0.09606862
207	0x3e1a6e77	0.15081201
208	0xbc7e9f60	-0.015540928
209	0x3d03637d	0.0320773
210	0x3e36eacf	0.1786301
211	0xbdc1915a	-0.09451552
212	0xbe2eeb67	-0.17081986
213	0x3d319c21	0.043361787
214	0xbcdd6ec0	-0.027030349
215	0xbd221ed7	-0.039580192
216	0x3dc94d5f	0.098292105
217	0xbca74c13	-0.020422017
218	0xbe0d06ee	-0.13772175
219	0xbcbf9953	-0.02338854
220	0xbe241183	-0.16022305
221	0xbdd096d8	-0.10185021
222	0xbdde9f21	-0.10870195
223	0xbd888b8c	-0.066672415
224	0xbb3db21a	-0.0028945268
225	0x3dab7007	0.08370977
226	0xbdc413c3	-0.09574082
227	0xbd45d9f0	-0.048303545
228	0xbdf848b3	-0.12123241
229	0xbd169959	-0.036767337
230	0x3e018bb7	0.12650953
231	0x3e3384c9	0.17531122
232	0x3e1d0997	0.1533569
233	0xbdf8883f	-0.12135362
234	0x3dbd9986	0.09257798
235	0xbdffa7a6	-0.12483148
236	0x3e317ac4	0.17331988
237	0x3d9256f4	0.07145491
238	0x3e117a43	0.14206795
239	0xbbbfc508	-0.0058523454
240	0xbdd8bed3	-0.10583272
241	0x3c81593d	0.015789622
242	0xbccbd982	-0.02488399
243	0xbe2dd558	-0.16975915
244	0xbbcbe0ec	-0.006221881
245	0xbcd38ee4	-0.025824971
246	0x3e13886b	0.14407508
247	0x3da5f0e7	0.08102589
248	0xbe0ff226	-0.14057216
249	0x3da93719	0.08262462
250	0x3e16fbf7	0.14744554
251	0x3e342eda	0.17595997
252	0xbdcef30d	-0.10104952
253	0x3df4da08	0.11955649
254	0xbd82324a	-0.06357248
255	0x3da500fc	0.080568284

net.0.theta_phi.bottleneckBlock.1.weight f4 [64]
0	0x3f808657	1.0040997
1	0x3f7f2ef7	0.9968104
2	0x3f7d2f78	0.98900557
3	0x3f6d789b	0.92762154
4	0x3f7fcaba	0.9991871
5	0x3f7a0b63	0.97673625
6	0x3f7ebded	0.99508554
7	0x3f770344	0.9648936
8	0x3f7c524c	0.98563075
9	0x3f77c658	0.96787024
10	0x3f802a7a	1.0012963
11	0x3f7fef42	0.99974453
12	0x3f7e4f1b	0.99339455
13	0x3f8106e9	1.0080234
14	0x3f83179a	1.0241578
15	0x3f742f36	0.9538454
16	0x3f76ed33	0.9645569
17	0x3f7d3510	0.9890909
18	0x3f7f2397	0.9966368
19	0x3f7d5346	0.9895519
20	0x3f6e4db8	0.9308734
21	0x3f7e21fa	0.99270594
22	0x3f7dc32f	0.9912595
23	0x3f788e14	0.97091794
24	0x3f7915c5	0.9729884
25	0x3f7acf66	0.97972715
26	0x3f7f2c98	0.9967742
27	0x3f7b91cb	0.9826934
28	0x3f6b309d	0.91871053
29	0x3f7ecc7c	0.9953077
30	0x3f7e62dd	0.99369603
31	0x3f74272a	0.9537226
32	0x3f791f04	0.9731295
33	0x3f7eff0c	0.9960792
34	0x3f804d74	1.0023637
35	0x3f80f146	1.0073631
36	0x3f7d78ab	0.9901225
37	0x3f81bdf7	1.0136098
38	0x3f802bf4	1.0013413
39	0x3f7a9671	0.97885805
40	0x3f7c6cff	0.98603815
41	0x3f7cbc81	0.98725134
42	0x3f8081f0	1.0039654
43	0x3f708283	0.93949145
44	0x3f76876b	0.9630038
45	0x3f76592a	0.96229804
46	0x3f79ff98	0.9765563
47	0x3f6865d8	0.907804
48	0x3f7e1728	0.99254084
49	0x3f7de28b	0.991738
50	0x3f806777	1.0031575
51	0x3f816ff7	1.0112294
52	0x3f7e3137	0.99293846
53	0x3f6a6a1e	0.9156817
54	0x3f798789	0.97472435
55	0x3f7e24c1	0.9927483
56	0x3f80d77a	1.0065758
57	0x3f8188b8	1.0119848
58	0x3f81048f	1.0079516
59	0x3f7e8961	0.99428374
60	0x3f7cd1d8	0.98757696
61	0x3f7b3d27	0.98140186
62	0x3f7b7ff9	0.98242146
63	0x3f7d9009	0.99047905

net.0.theta_phi.bottleneckBlock.1.bias f4 [64]
0	0x3c4f7d04	0.012664083
1	0x3c15df31	0.009147451
2	0x3c588b72	0.01321684
3	0xbd0c65dd	-0.034276832
4	0x3c02a629	0.007974186
5	0x3cdaefda	0.026725698
6	0x3c0d47cd	0.008623076
7	0x3cd9aec2	0.026572589
8	0x3c6a9a5e	0.014319031
9	0x3ccfea35	0.025380233
10	0xba7e996d	-0.0009712193
11	0x3c0ff2b0	0.008785889
12	0x3b5c2c6c	0.0033595813
13	0x3aad52f1	0.0013223571
14	0x3cd158b9	0.025555002
15	0x3cdc6ac5	0.02690638
16	0x3cc1ad87	0.023642315
17	0x3aea0592	0.0017854443
18	0x3bbd94e0	0.0057855695
19	0x3c303a82	0.010756137
20	0x3d0fb8a8	0.03508821
21	0x3b27d7e5	0.002561086
22	0x3c1fc52e	0.009751601
23	0x3c8bfc6c	0.017088138
24	0x3cb733fa	0.022363652
25	0x3d0d8f59	0.034560535
26	0x3aebc412	0.0017987511
27	0x3c974fea	0.018470723
28	0x3d58f8ac	0.052971527
29	0x3c720fcb	0.014774273
30	0x3c2625bc	0.0101408325
31	0x3d09c0ca	0.033631124
32	0x3c65e985	0.014032726
33	0x3cd4a40a	0.025957126
34	0xbabc96d0	-0.0014388207
35	0x3c186e2d	0.009303612
36	0x3c7afaac	0.015318554
37	0x3a01c0b3	0.0004949674
38	0x3c583cfe	0.013198135
39	0x3d11c539	0.035588477
40	0x3c8a698e	0.016896036
41	0x3c16c9a3	0.009203347
42	0x3bf1f263	0.007383631
43	0x3d30b3b7	0.04314014
44	0x3cac46d2	0.021029864
45	0x3cec5465	0.028848836
46	0x3c813cdc	0.01577609
47	0x3d53e4ab	0.051731747
48	0x3c072726	0.00824908
49	0x3ca12891	0.019672664
50	0xbc022460	-0.007943243
51	0x3b0decc4	0.0021656016
52	0xba5e6882	-0.0008484201
53	0x3d5b7bd3	0.053584885
54	0xbc180af0	-0.009279951
55	0xbc02b9e1	-0.007978887
56	0x3a903dc7	0.0011004739
57	0xbaeb04be	-0.001793049
58	0x3cb8dffe	0.022567745
59	0x3ce663b3	0.028123712
60	0x3c324ad9	0.010882103
61	0x3cda7eff	0.026671885
62	0xbc0cd139	-0.008594804
63	0x3c257c85	0.010100489

net.0.theta_phi.bottleneckBlock.1.running_mean f4 [64]
0	0xbcb33b9a	-0.021879006
1	0x3d7409e0	0.05957973
2	0x3b43007c	0.0029754927
3	0x3db47691	0.08811677
4	0x3dbe7ccd	0.093011476
5	0x3cbed3bc	0.023294322
6	0xbc86a906	-0.016438019
7	0xbcd4ba76	-0.025967818
8	0xbcf5fb17	-0.030026956
9	0x3c84cb2c	0.016210161
10	0x3cb8aee9	0.022544341
11	0x3a8ea3f7	0.0010882606
12	0x3d08843a	0.033329226
13	0xbc12dcc0	-0.008963764
14	0x3d112273	0.035433244
15	0x3aac9f0e	0.0013169961
16	0xbd226570	-0.03964752
17	0x3d73d632	0.059530444
18	0x3ca4c597	0.02011375
19	0xbcf7572d	-0.030192936
20	0xbd06129f	-0.032732602
21	0xbcc8bc8e	-0.024503972
22	0x3bc46721	0.0059937392
23	0x3cda9928	0.026684359
24	0xbce85217	-0.028359456
25	0xbd50a5af	-0.05093926
26	0x3c7c46fb	0.015397782
27	0x3a996b2c	0.0011704913
28	0x3c85a2aa	0.016312916
29	0xbd168ec3	-0.036757242
30	0x3d001bd9	0.031276558
31	0xbb1913d0	-0.0023357756
32	0x3b9c3277	0.004766758
33	0xbbb7f30b	-0.00561369
34	0xbd2ce060	-0.04220617
35	0xba89fa7f	-0.0010526924
36	0xbd1cf62d	-0.03832071
37	0xbb7f8985	-0.003899188
38	0xbc8f7feb	-0.01751705
39	0x3c2542d9	0.0100867385
40	0x3cfe2c77	0.031027062
41	0x3b1cc5bc	0.002392157
42	0x3cb1fb16	0.021726172
43	0xbc39befd	-0.011337039
44	0x3b53de2a	0.0032328465
45	0xbdb8daaa	-0.09026082
46	0x3cd9e40f	0.026598005
47	0xbd5528d7	-0.0520409
48	0x3d4ee98c	0.050515696
49	0xbc9ce9c0	-0.01915443
50	0x3c8c7cb9	0.017149316
51	0xbbbcc6e1	-0.005761013
52	0xbc353978	-0.011061065
53	0x3d53c8bb	0.051705103
54	0x3d37d9af	0.044885334
55	0x3caf3ec6	0.021392237
56	0x3cfcf1a9	0.030876951
57	0xbcdd51ce	-0.027016547
58	0x3bbc8d94	0.005754182
59	0x3c5d5998	0.01351013
60	0xbbfc8b82	-0.0077070603
61	0x3ca180e8	0.019714788
62	0x3bde3ecd	0.006782389
63	0xbc8964af	-0.016771642

net.0.theta_phi.bottleneckBlock.1.running_var f4 [64]
0	0x39552869	0.00020328317
1	0x39a32b34	0.00031121972
2	0x399ce864	0.00029927783
3	0x385fd43c	5.3365e-05
4	0x390f65cb	0.00013675464
5	0x39255873	0.00015768576
6	0x389753d7	7.2158575e-05
7	0x3a3a43fe	0.00071054685
8	0x39b8b763	0.0003523185
9	0x38c97eae	9.608023e-05
10	0x39e50ce5	0.0004368789
11	0x3974a7f7	0.00023332225
12	0x398a8d70	0.0002642679
13	0x3a38f0c6	0.0007054921
14	0x3924b380	0.00015707128
15	0x3981f39c	0.000247863
16	0x3843f4cc	4.6719608e-05
17	0x396518fe	0.00021848452
18	0x39142386	0.00014127613
19	0x3950bef8	0.00019907567
20	0x38ab1a17	8.158775e-05
21	0x39189f8a	0.00014555283
22	0x39a9aeed	0.00032364522
23	0x381b88c5	3.7082256e-05
24	0x39e80528	0.0004425433
25	0x3a307daf	0.00067325955
26	0x3983c9bc	0.0002513657
27	0x39b4d3a8	0.00034489972
28	0x39177003	0.0001444221
29	0x39c016e6	0.00036638154
30	0x396406ff	0.0002174638
31	0x3916998c	0.00014362315
32	0x399e2bec	0.00030168833
33	0x38d222ad	0.00010020039
34	0x395f424b	0.00021291633
35	0x3987cf65	0.00025903728
36	0x398d4bb7	0.00026950028
37	0x3889027e	6.533133e-05
38	0x392c9a58	0.00016460696
39	0x3842f42b	4.6480603e-05
40	0x39390a68	0.00017646851
41	0x395c386e	0.00021001857
42	0x393b8c32	0.00017885937
43	0x39f9cee8	0.00047647138
44	0x38bdc476	9.048816e-05
45	0x3a40d17c	0.00073554344
46	0x396720f6	0.00022042156
47	0x382c0606	4.1013605e-05
48	0x38d522ba	0.000101631
49	0x3900f1ad	0.00012297062
50	0x391e8e38	0.00015121035
51	0x39464e51	0.00018911927
52	0x39b1579a	0.0003382534
53	0x389f18d1	7.586333e-05
54	0x388dfd9a	6.770641e-05
55	0x38f5018e	0.000116828
56	0x391c1317	0.00014884431
57	0x38b532c4	8.6402084e-05
58	0x39f5d474	0.0004688833
59	0x38f75a4d	0.00011794698
60	0x38323f44	4.2497428e-05
61	0x3999ef25	0.0002936061
62	0x38df5e4a	0.00010651031
63	0x38ec13de	0.000112570575
