Puff-Net/model/detail_iter_5000.pth (torch, 470479 bytes, 157 tensors)

pre.0.weight f4 [32, 3, 1, 1]
000000 bc 9a 69 3e 32 e5 d1 bd c7 ed 7b be 47 88 ad be
       0.22812933 -0.10248794 -0.24602424 -0.33893034
000010 b1 e9 c5 3d 5a 77 59 be 36 8f e6 be 8d a3 61 be
       0.09663714 -0.21236935 -0.45031136 -0.22035046
000020 1c c1 0c 3f 11 e0 b3 be dd 70 8a bd a7 36 9d 3c
       0.5498216 -0.35131887 -0.06759808 0.0191911
000030 29 0f ea 3e fe 99 43 be 94 6c 2e be b6 4b fe 3d
       0.4571469 -0.19101712 -0.17033607 0.124167845
000040 42 42 0e 3e 18 9c 21 3e 8f c4 08 bf 19 76 0b 3f
       0.13892463 0.15782201 -0.53424925 0.5447708
000050 cf 8d 8f be 7f 63 6c 3e e1 73 ae be 5c d5 d9 3d
       -0.2803788 0.2308483 -0.34072784 0.10636398
000060 d5 0e 27 bd fe 47 49 be 46 c7 d8 be 8d 91 93 be
       -0.04078563 -0.19656369 -0.42339534 -0.28821984
000070 00 02 88 3e 5e 12 ff bd ca b4 88 be e9 c6 85 3e
       0.26564026 -0.12454675 -0.2670043 0.2612832
000080 e1 4c 1c 3e 9d ed 12 be 8b ab 61 be ab 75 f8 3d
       0.15263702 -0.14348455 -0.22038095 0.121318184
000090 d1 28 34 3e ea f1 b2 3d a4 07 10 bf b9 ef c3 3d
       0.17593695 0.08737548 -0.5626166 0.09567208
0000a0 e2 f0 11 3e f7 79 a2 be 3c 13 c1 be 0e bd ab be
       0.14252046 -0.31733677 -0.37709987 -0.33542675
0000b0 44 1e 39 3e 3f a8 c3 3e f5 03 3d be 1f c2 d0 be
       0.18077952 0.382143 -0.1845854 -0.40773103
0000c0 3a d4 af be e5 e5 c2 3e a7 4a aa 3e 0e 82 f9 be
       -0.34341604 0.3806602 0.3326008 -0.48732036
0000d0 6c 32 12 3f d7 0c dd bd fd 4c b5 3e 23 51 94 3e
       0.5710819 -0.10793465 0.354103 0.28968152
0000e0 34 5b 0f bf a6 fd 08 bf 48 89 b5 bc 37 3b f2 bc
       -0.5599854 -0.53512037 -0.022160187 -0.029569251
0000f0 c1 58 e0 3e 34 77 c4 3e 8c 20 ff 3d a3 6f 0e bf
       0.43817714 0.38372195 0.1245738 -0.55639094
000100 b0 01 30 be c1 dc 02 bf 35 2f 72 be 70 17 14 be
       -0.17188144 -0.51118094 -0.2365082 -0.14462066
000110 53 76 10 bf d7 cf f5 bd 2e 0e d7 be 2a d8 d2 3e
       -0.5643055 -0.12002533 -0.42003006 0.41180545
000120 31 2c f4 3e e9 20 07 bf 54 e0 eb be 93 42 a1 3e
       0.47689965 -0.5278459 -0.46069586 0.31496105
000130 0f 04 dd be 5f a7 71 3e 62 8f 8f bd 1e 59 f1 3c
       -0.4316716 0.23599003 -0.0700977 0.02946144
000140 f6 b3 ef bc f5 5d c8 3e 0e 0f e5 3d 49 29 42 3e
       -0.029260617 0.39134184 0.11184512 0.18961062
000150 d9 be bb be 7f a4 ff be eb 00 be 3d ec b3 ad 3e
       -0.36669043 -0.49930188 0.09277519 0.33926332
000160 2f 94 0d 3f 6c 75 aa 3e f0 26 2e bd 62 44 e2 be
       0.55304235 0.3329271 -0.042517602 -0.44192797
000170 54 01 03 bf 1e c0 a4 bd 81 5b da ba 56 61 da 3e
       -0.511739 -0.08044456 -0.001665935 0.42652386

pre.0.bias f4 [32]
000000 c7 81 fd be 90 f0 9a 3e f1 ec d8 be ca 72 6b bc
       -0.49513075 0.3026166 -0.42368272 -0.01437063
000010 86 89 b6 3e 7c 7c 6a be b5 59 11 3f 75 8e 58 3e
       0.35651797 -0.2289905 0.5677751 0.21148093
000020 36 bc 91 3e c6 d0 b9 bd e3 ee f9 be 5d 3b 13 bf
       0.28463906 -0.090730235 -0.4881507 -0.57512456
000030 ac eb c6 bd 95 46 cb bd dd 3e 88 3e 93 b4 98 3d
       -0.097129196 -0.09925572 0.2661046 0.07456317
000040 d5 39 60 bd cd af 19 3b 59 59 1e 3e dd 6c 0e 3f
       -0.054742653 0.0023450733 0.15463771 0.5563486
000050 a3 a5 dc be 5c 7f 82 3d 61 4c c2 3e 82 81 05 3f
       -0.4309512 0.06371948 0.37948897 0.5215074
000060 82 e2 d3 be 59 0c 1c be 50 18 c1 3d f6 f2 10 bf
       -0.4138375 -0.15239085 0.09428465 -0.5662073
000070 c6 3e 8f 3e 7d ef fb bd 04 0a 99 3e f8 c3 12 3f
       0.2797758 -0.12301538 0.29890454 0.57330275

pre.2.weight f4 [64, 32, 1, 1]
000000 24 0b 67 bd d6 1e 46 bc 45 5a aa 3d 92 b9 d7 3d
       -0.05640711 -0.012092313 0.08317999 0.105334416
000010 59 58 67 3c 92 e8 82 bd 62 97 c4 bd 69 8d 1a be
       0.014120185 -0.063920155 -0.095991865 -0.15093006
000020 ff 6c 1f 3d 9d dd 73 bd f4 af 1d bd 7c 94 08 3c
       0.038922306 -0.05953752 -0.03849788 0.008336183
000030 a9 49 19 be 0c 3d ff 3d e9 6c e4 3d f9 00 cc bc
       -0.14969505 0.12462816 0.111535855 -0.024902808
000040 f0 fc ee bd 67 af 5d 3d 09 6c a0 bd 97 3d be bd
       -0.11669338 0.054122355 -0.07833106 -0.09289091
000050 a5 d5 ea 3c 26 ce bb bd ae 51 82 3d 5b 5f a8 3d
       0.028666327 -0.09170179 0.063632354 0.082213126
000060 26 88 f7 3d 33 a9 76 3d e5 fc 20 3e 98 8d ca 3d
       0.12086515 0.060219955 0.15721472 0.09890288
000070 c9 44 0e 3e 58 ae 0c 3e 10 cd 72 bd 1c 10 d6 3c
       0.13893427 0.13738382 -0.059277594 0.026130728
000080 5b 61 0c be a6 71 f8 3d 04 a2 23 be 3c 5e ae bb
       -0.13709013 0.12131052 -0.15979773 -0.005321292
000090 de 79 23 be 71 a6 07 bd 43 e0 29 3c f1 97 04 be
       -0.15964457 -0.033117715 0.01036841 -0.12948586
0000a0 85 84 cb 3d 4f 72 93 bd bc fe ce 3d c1 24 ab 3d
       0.099373855 -0.07199537 0.101071805 0.083566196
0000b0 da 2b 53 3d 23 24 4c 3d db 2f 05 be 59 51 11 3e
       0.051555492 0.04983915 -0.13006537 0.14191188
0000c0 61 f3 0b be 25 1c 68 3d ee 1c b0 bd aa 17 08 be
       -0.1366706 0.056667466 -0.08599268 -0.13290277
0000d0 0d e5 88 bd 9f 13 28 3e bc 72 60 bd 42 c3 00 3d
       -0.06684313 0.16413735 -0.05479692 0.031436212
0000e0 bf 01 0a 3e d1 6e 1b 3c 5d f7 dd bc d3 9b 1c 3e
       0.13477229 0.00948687 -0.027095491 0.15293817
0000f0 4e 06 2d be 8d 86 b7 bd 32 d6 a0 3c d3 fe 1a be
       -0.16896936 -0.089612104 0.019633386 -0.1513627
000100 77 9b b3 bd a0 06 52 3d f4 0e 2e 3c 2e 10 8e 3d
       -0.08769887 0.05127585 0.010623682 0.0693668
000110 d8 c7 b3 bd 01 4f 8b bd 0c 82 26 3e 08 9f 2b be
       -0.087783515 -0.06802178 0.16260546 -0.16759884
000120 30 5b dc ba 4c 24 b2 bc 15 ec 14 3e e8 2b 5f bd
       -0.0016811844 -0.021745823 0.14543183 -0.05448523
000130 91 7e dd bc cf 01 51 3d d1 1f 04 be 48 70 ef 3d
       -0.02703789 0.051027115 -0.12902762 0.11691338
000140 52 32 c5 bd 01 38 a1 bd f5 a4 9a 3c ac 8c 82 bc
       -0.096287385 -0.0787201 0.018877486 -0.015936218
000150 e0 3f e7 3a 42 de b5 bd 07 d4 8c 3c a2 90 20 bd
       0.0017642938 -0.08880283 0.017190946 -0.039200433
000160 d8 20 0f bd 58 5f 45 3d 31 34 2d be aa 66 ea 3d
       -0.03494343 0.04818663 -0.1691444 0.11445363
000170 25 5f 1e 3e ea b6 35 bd 27 92 1a 3e 20 51 1e 3e
       0.15465982 -0.044363894 0.15094815 0.15460634
000180 b4 07 58 3c 44 22 96 bd 9b 5b 06 3e 64 af fb bb
       0.01318543 -0.073307544 0.13120882 -0.0076808203
000190 35 07 1c 3e 4b 4b 35 3e 78 28 9c 3d 92 28 b5 3a
       0.15237124 0.17704503 0.07624906 0.0013821295
0001a0 1b 95 ee bb c8 ba 2c 3e 94 26 2d 3e a3 6b ce 3d
       -0.0072809584 0.16868126 0.16909248 0.10079124
0001b0 c3 6b 64 3d 89 32 f0 3c 3a 76 e5 bd 95 99 20 3d
       0.055766832 0.029320972 -0.112041906 0.039208967
0001c0 a0 00 10 3c e6 a7 14 3e 99 c8 e0 3d 6b 39 7d bd
       0.0087892115 0.14517173 0.10975761 -0.061822336
0001d0 e7 95 9f 3c ed 83 b6 bc 5a 57 93 bb 79 98 0f be
       0.019480659 -0.022279704 -0.004496497 -0.14023007
0001e0 81 74 4f 3b 68 66 9f bc 2e 83 d1 bd c9 fd f9 bd
       0.0031655135 -0.01945801 -0.10230099 -0.12206609
0001f0 69 b0 54 3d 6c 84 bc bb 6f 97 e5 3d 89 7f 94 3d
       0.05192605 -0.0057530906 0.11210524 0.07250888
000200 5c c3 1b be a4 cd 45 3d 21 e4 5f bc fb be 53 3d
       -0.15211242 0.048291817 -0.01366523 0.051695805
000210 3c 73 fe bd 4c f9 09 be e9 e9 5e bd 71 ff 6c bd
       -0.12424323 -0.13474005 -0.054422293 -0.057860795
000220 09 e9 7c bd 6d 4d 2c be 77 42 83 bd bf 00 0a 3e
       -0.061745677 -0.1682641 -0.064091615 0.13476847
000230 b8 03 cd 3d f0 b8 fa bb 77 da 91 bd 23 b2 d4 bd
       0.10010475 -0.007651441 -0.07121747 -0.103855394
000240 5f 57 c3 3d 42 d8 e3 3d 56 b7 db bd 1c 3f ed bd
       0.09538149 0.11125232 -0.10728328 -0.11584303
000250 e8 60 ca 3d 27 8e 92 bd db 65 1a be 05 c8 27 be
       0.09881765 -0.0715602 -0.15077917 -0.16384895
000260 f8 e7 06 3c 80 b3 02 be c1 df 26 3e 1e 82 39 bc
       0.008234017 -0.12763786 0.16296293 -0.011322526
000270 60 c0 f7 3c e2 8e 13 3e df f4 9d 3d bb 78 0e be
       0.030243099 0.14409974 0.07712721 -0.13913243
000280 2a 92 ed 3c fe f9 38 3a bf 91 10 bd 77 cf f5 3c
       0.02900036 0.00070562947 -0.035295244 0.030006154
000290 ea 63 9f bd 9e 2e 55 bc b9 bd ce bd 5f 6d d6 bc
       -0.07782729 -0.013011603 -0.100947805 -0.0261752
0002a0 3d c1 cd 3d 71 1b 42 3d 5e 06 88 bd 8d a1 d5 bd
       0.10046623 0.04738945 -0.066418394 -0.10431204
0002b0 51 61 d4 3d 65 07 ef 3d c0 ec d2 bd 40 75 cb bc
       0.10370124 0.11671332 -0.10299063 -0.024836183
0002c0 23 7b 91 3d d4 15 b9 bd 02 eb a5 bd c0 b4 e6 bd
       0.071035646 -0.090373665 -0.08101465 -0.11264944
0002d0 1a 79 a8 3d 2c 1c 6c bd 29 1c 8d bd 85 0e 04 3e
       0.08226223 -0.057644054 -0.06890137 0.12896164
0002e0 a6 93 e9 3d 61 08 68 3c e6 f0 0d 3e 51 5e e0 bd
       0.11405115 0.014162154 0.13861427 -0.109554894
0002f0 a3 79 b0 bc 9c 3e 80 bd 42 3c b0 3d 4e d2 f8 3d
       -0.021542376 -0.06261942 0.08605243 0.121494874
000300 98 b0 c7 bd e4 a9 51 bb 35 9b e4 bd 50 9b ed 3d
       -0.097504795 -0.0031992132 -0.11162416 0.11601889
000310 f8 86 18 bd 05 36 37 3e 8a 8d bd 3d 5d 94 e9 bb
       -0.03723809 0.178917 0.09255512 -0.007128282
000320 8d 1b 08 3e 80 c2 d5 bc bb a9 eb 3c a5 42 0b bd
       0.1329176 -0.026093721 0.028767457 -0.033999104
000330 b0 86 c6 bd e4 41 9e 3d b5 5d fd bd c8 36 e9 3d
       -0.09693658 0.077274114 -0.12371389 0.11387402
000340 ef 32 c5 bd 12 25 0e be 16 7e 49 bd a8 26 8f 3d
       -0.096288554 -0.13881329 -0.04919251 0.06989795
000350 ac 6a 0a 3e a6 29 24 3e 82 7c 7a bc ad 63 08 be
       0.13517255 0.16031513 -0.015288474 -0.13319273
000360 ae fc 11 3e f1 43 99 3d 90 fc 68 3d 12 86 fa bd
       0.14256546 0.07483662 0.056881487 -0.12232603
000370 bc 41 c0 3d 6f 7b 25 3e 33 4b bc 3d eb 65 b2 3d
       0.09387538 0.16160367 0.091940306 0.087108456
000380 c9 5e e3 3d 54 0d 2d be 08 84 2c be 2b ff c3 3d
       0.11102063 -0.16899616 -0.16847241 0.09570154
000390 59 44 94 3d 90 28 ba bc 00 a4 84 3d f8 d8 99 bd
       0.07239599 -0.02272442 0.06476593 -0.07512087
0003a0 0a 96 ba bc 16 94 a1 bd 0e ea 18 be 7b 9d 8c 3c
       -0.022776622 -0.07889573 -0.14933035 0.017164936
0003b0 42 b6 3a be 29 5e 5b 3d 37 40 a9 3d f6 92 1d 3e
       -0.18233588 0.053556595 0.08264201 0.15388092
0003c0 5e aa 82 bd cf 96 ec bd 21 42 13 be 30 aa 02 be
       -0.06380151 -0.11552202 -0.14380695 -0.12760234
0003d0 03 19 a8 3d 52 b3 e7 3d 55 5e 2b 3e b8 7b 06 3e
       0.082078956 0.113134995 0.16735204 0.13133132
0003e0 d2 75 b6 3d 1f c8 ab bd 53 46 5b 3d 71 52 a3 bd
       0.08909191 -0.083877794 0.053533863 -0.07974709
0003f0 bf ba c6 bc 5e 86 28 3e 49 63 c3 3d df b6 49 bc
       -0.02425897 0.16457507 0.095404215 -0.012311666

pre.2.bias f4 [64]
000000 41 3f 02 3e f6 64 a5 3d 19 4b 28 be cd 07 71 bd
       0.12719442 0.080758974 -0.16434897 -0.05884533
000010 bc d2 78 3d ba d5 0b 3e ce 61 36 3e 17 5d b3 bc
       0.060747847 0.13655749 0.17810747 -0.021894975
000020 95 55 55 3d 5a 70 68 3c 65 86 fc 3c 1e df 20 3e
       0.05208357 0.014186943 0.030825803 0.15710112
000030 ad 61 f2 bd 76 d4 75 bc 2b a1 35 bd 3f 02 27 3e
       -0.118350364 -0.015004268 -0.044343155 0.1630945
000040 5e ff 02 be f3 a2 ef 3c 8f 09 52 3d 89 ad 2a bd
       -0.12792727 0.029252505 0.051278647 -0.041669402
000050 40 ae 5f bd 87 b4 d6 3d b6 2c fa 3d f0 b5 37 3e
       -0.054609537 0.104836516 0.12215559 0.17940497
000060 cb 42 25 bc 9d 7f 1e be 9b 82 02 3d b7 80 f7 bd
       -0.0100867255 -0.15478368 0.031862836 -0.12085097
000070 b0 74 13 3e ec 20 85 3c 97 aa e2 bc de 65 1e 3e
       0.14399981 0.01625105 -0.027669234 0.15468547
000080 6f 6d d8 bd 5c 81 89 3d 7f c6 50 bd 1b 8a e4 3d
       -0.10567748 0.067141265 -0.05097055 0.11159154
000090 cb 0a 85 bd 6c 51 93 bd ba 29 79 bc a4 83 19 be
       -0.06496199 -0.07193264 -0.015207702 -0.14991623
0000a0 7c 98 d0 bd 86 ff 05 be 47 55 14 be 8c fd 2e be
       -0.10185334 -0.13085756 -0.14485656 -0.17088908
0000b0 a5 ff ed bb 9b 0d 7e bd fa 59 22 3e 6d 73 32 3e
       -0.007263141 -0.062024694 0.15854636 0.17426844
0000c0 86 fd 24 be 0b 4e 3c 3d 12 6c 26 3e 45 e9 e1 bd
       -0.16112337 0.045972865 0.16252163 -0.11030821
0000d0 57 e0 33 bd 18 28 83 3d 5d 42 dc 3b 26 aa 3b 3d
       -0.04391512 0.06404132 0.0067217783 0.045816563
0000e0 19 6b 0d 38 c4 1f 26 be 4c e5 c0 bc 9e 51 98 3c
       3.3716762e-05 -0.16223055 -0.023546837 0.018593606
0000f0 c0 a9 dc 3d 5f a2 cf bc 33 3f 0c be 94 89 10 3e
       0.10774565 -0.02534598 -0.13695984 0.14114982

pre.4.weight f4 [64, 64, 3, 3]
000000 7b 6a 01 bd 8b fc 22 3c c0 83 7e bb 58 37 c2 3c
       -0.03159569 0.009947906 -0.0038835853 0.02370803
000010 48 25 c5 bc 10 8d ae bc 1e 11 b5 bc e0 8f 1a 3c
       -0.024065629 -0.021307498 -0.022102889 0.009433717
000020 2f 15 23 3d 3f e4 29 3d 33 f8 f2 bc b0 43 c8 bc
       0.039815124 0.041477438 -0.029659366 -0.024446338
000030 f0 35 73 3c 1a cd 20 bd e0 93 21 3d eb 1f 97 bb
       0.014844403 -0.0392581 0.039447665 -0.004611959
000040 16 7a 3b 3c 1b 6b af 3c b6 fe 7b bc 40 b5 56 bc
       0.011442682 0.021413377 -0.015380552 -0.013104737
000050 7f b7 1d bd b0 2a e9 3c b7 74 0a bd ab 4c d6 3b
       -0.038505074 0.028462738 -0.033802714 0.0065399013
000060 38 e6 c4 3c eb ae f4 3b a0 97 25 3c 5e af fe 3c
       0.024035558 0.007467141 0.010106951 0.031089481
000070 c0 00 c2 3c 58 4a 21 bd 40 ff b2 bb 40 ef 5e 3b
       0.023681998 -0.03937754 -0.005462557 0.0034017116
000080 ae b1 f9 3c 0e f2 ee 3c 00 c0 fe b8 2b 2d 0c 3b
       0.030480232 0.029168155 -0.000121474266 0.0021389227
000090 c3 16 0a bd 8b 98 c3 3b 66 f6 56 bc 8b 30 fc 3b
       -0.033713114 0.0059691123 -0.013120269 0.0076962165
0000a0 4e cc a0 3c bb 45 4b 3c 76 75 bf 3b c6 b2 97 bc
       0.01962867 0.012406762 0.00584286 -0.018517863
0000b0 1a c5 00 3d 88 ee db 3c fe ea 93 3c 28 92 99 bc
       0.03143797 0.026847139 0.018056389 -0.01874645
0000c0 c0 4e df bb ab e2 90 3b cb 80 46 3c 70 06 20 3d
       -0.0068148077 0.004421552 0.012115668 0.03906864
0000d0 36 60 1e 3d cb fe 3f 3c 36 90 d8 3c b4 94 05 3d
       0.038665973 0.011718462 0.026435953 0.032612517
0000e0 04 f8 08 3d 80 0c 44 3b 53 80 b4 3c 40 50 ca bc
       0.03343965 0.0029914677 0.022033846 -0.02469647
0000f0 56 0e 04 ba 32 33 07 bd 26 52 6a bc e8 0b d1 bc
       -0.00050375366 -0.033007808 -0.014301812 -0.025518373
000100 cb 26 8f bb 26 f0 27 bc 2b 85 ab ba d6 54 90 3c
       -0.004368638 -0.010250127 -0.0013085952 0.017618578
000110 3b 83 c9 bc 26 6b c6 3c 6b f8 0c bc b6 7a 22 3d
       -0.024598708 0.024221014 -0.008604149 0.039667808
000120 c0 da ff bb 46 fd 92 3c 20 ce 5c bc 10 f1 9e bc
       -0.0078080595 0.017943036 -0.013476878 -0.019402057
000130 0b 03 a1 3b 50 ba 01 bc 47 33 28 3d 33 39 ba 3c
       0.004913693 -0.0079179555 0.041064527 0.022732353
000140 00 69 f3 3c 1e 65 98 bc b0 b9 50 bc 68 7e d0 3c
       0.029713154 -0.018602904 -0.012739584 0.0254509
000150 ab ca e7 3c ae d0 b3 3c 5b f0 89 3c 10 97 39 3c
       0.028294882 0.021950092 0.016838243 0.01132752
000160 36 73 38 3c db 6c 90 bc e8 98 9a bc c3 6b ad 3c
       0.011257937 -0.017630031 -0.01887174 0.021169549
000170 0a e6 19 bd ab 57 62 3a f4 06 18 3d 0e e1 f5 3c
       -0.037572898 0.00086342794 0.037116006 0.030014541
000180 1b 3d 8c bc 6b 62 02 bb c8 f3 ea 3c 66 20 bd bc
       -0.017118981 -0.0019895087 0.028680697 -0.023086738
000190 d8 db cc bc ab 66 5f bc 3b 9d 50 3c f0 19 da 3c
       -0.025007173 -0.013635318 0.012732799 0.026623696
0001a0 ee 7c 08 3d 30 4f 05 3c 56 92 21 3c 83 ab 99 bc
       0.033322267 0.008136556 0.009861549 -0.018758541
0001b0 f4 61 16 bd a6 dc 7b 3c d7 5e 23 3d ab 2e 6a b9
       -0.03671451 0.015372431 0.03988537 -0.00022333364
0001c0 76 03 63 bc 0b ff bc 3c ab 12 42 3b 50 b9 82 bc
       -0.013855806 0.023070833 0.0029613178 -0.015957505
0001d0 2c ba 0c 3d 52 d2 05 3d 2e b9 13 3d b6 31 85 bc
       0.034357235 0.03267128 0.036065273 -0.016259056
0001e0 00 23 7f bc c0 e5 c7 bc f0 ea d9 bc 0c 96 22 bd
       -0.0155723095 -0.024401546 -0.026601285 -0.039693877
0001f0 68 1c f0 bc e0 44 a6 3b 46 9d 25 3c 80 eb c8 ba
       -0.02931042 0.0050741285 0.010108298 -0.0015328974
000200 de 22 9a bc 80 7c 9c 3b 06 c6 b7 bc 70 18 4d bc
       -0.018815454 0.0047755837 -0.022433292 -0.012518033
000210 0b e7 1b 3d 2b cf d6 3b b2 d0 0a 3d 2b 86 ee bc
       0.038062137 0.006555458 0.033890434 -0.02911671
000220 86 ab fd 3c 50 86 e9 3c 24 46 05 bd 96 81 15 bd
       0.030965578 0.028506428 -0.032537594 -0.036500536
000230 13 1a b8 bc 9b 15 bf bc 1c 7e 0a 3d e6 ce 09 bd
       -0.02247337 -0.023325732 0.033811674 -0.03364458
000240 57 8a 0b 3d 6a 1b 02 3d c0 bd 58 bc 26 1a 2f 3c
       0.034067478 0.031764425 -0.013228834 0.010687387
000250 1b a0 88 bc 1b dc fc 3c f6 7b e2 bc c7 a7 1f 3d
       -0.016677907 0.030866673 -0.027647 0.038978364
000260 06 2a 47 3c c7 e4 1f 3d 92 21 08 3d ab 96 5c 39
       0.012156015 0.03903654 0.03323514 0.00021036963
000270 d6 be 40 bc f3 fa 23 3d 20 7c cf bc 48 80 99 3c
       -0.011764249 0.040034246 -0.025327742 0.018737927
000280 62 21 19 bd 48 de 24 bd db 46 b8 3c 96 c7 45 bb
       -0.037385352 -0.040251046 0.022494724 -0.0030178777
000290 98 b8 d4 bc ce b1 a5 3c 0b 81 cb bb 0b ab b1 3b
       -0.025966927 0.020226385 -0.0062104515 0.0054220012
0002a0 40 45 b2 bb 60 96 d6 3c 00 57 ed ba d0 16 38 3c
       -0.005440384 0.026194751 -0.0018107593 0.011235908
0002b0 06 2a 89 3c 5b fb 9c 3c 96 eb 20 bb 80 70 e6 3c
       0.016743671 0.019162824 -0.0024554483 0.028129816
0002c0 fb 6f 2d bc c0 11 ab bb de ef c2 3c 8e 53 2a bd
       -0.01058578 -0.005220622 0.023796018 -0.04158359
0002d0 f6 a3 c0 bc d3 4f cc 3c b6 91 22 bc 4b fe 02 bd
       -0.023515683 0.024940407 -0.0099224355 -0.031980794
0002e0 06 b9 b2 3c 20 6f cd 3b 73 c9 b9 bc 2c 1c 19 bd
       0.021816742 0.0062693506 -0.022679066 -0.037380382
0002f0 f8 ed ef 3c c8 e2 05 bd 6b 43 31 bc 26 fa 55 3c
       0.029288277 -0.03268698 -0.010819296 0.013060128
000300 fe 56 dc bc 2e 57 f5 3c ab da 9b b8 60 7f 65 bc
       -0.02689695 0.029948797 -7.431706e-05 -0.014007419
000310 1b 90 57 bc 07 7e 09 3d 7e 7c 0c bd 00 ec c9 3b
       -0.013156916 0.033567455 -0.034298413 0.0061621666
000320 80 87 ab 3b 40 d3 1f bd bc 81 13 bd 12 25 01 bd
       0.0052346587 -0.039019823 -0.036012396 -0.031529494
000330 56 eb ba 39 ae 42 9c 3c f6 f3 82 bb d6 cf 26 bd
       0.00035652024 0.019074764 -0.0039963676 -0.04072555
000340 eb 3c 31 3b 1a 5a 13 3d 84 6b 0b bd 80 b7 86 bc
       0.0027044367 0.0359746 -0.03403808 -0.016444921
000350 93 8d 12 bd ab bd 61 3b ac 74 0c bd b8 65 d8 bc
       -0.035779547 0.0034445326 -0.034290954 -0.02641569
000360 56 a0 aa 3b d6 71 8f 3a 40 c9 92 3c 48 1c 00 3d
       0.005207102 0.001094396 0.01791823 0.03127697
000370 32 7f 1b 3d d8 0b 0c 3d 9a f4 06 3d 46 5b 26 bc
       0.0379631 0.034190983 0.032948114 -0.010153597
000380 b6 ca d9 3c a0 e4 19 3d 2b cb cb bc b0 0c 0b bd
       0.026585918 0.03757155 -0.024877151 -0.033947647
000390 7b dd 4f 3c fb b7 9d bc 8b ec 03 3c 48 f4 c2 bc
       0.012687082 -0.019252768 0.008052002 -0.023798123
0003a0 1c 3c 26 3d 0c 3d 0a bd 1b 48 f3 3c 56 24 82 ba
       0.04058467 -0.033749625 0.029697469 -0.0009929042
0003b0 33 8f e5 3c 06 85 18 bc ff a6 02 bd 83 fd b2 3c
       0.028022384 -0.009309059 -0.03189754 0.0218494
0003c0 5b 19 b1 bc 36 c3 c8 3b db 40 36 bc b3 25 a7 bc
       -0.021618536 0.0061267866 -0.011123861 -0.020403719
0003d0 6e ea 12 3d 47 87 03 3d f2 1c 03 bd 00 76 ee bb
       0.0358681 0.032111432 -0.032010026 -0.0072772503
0003e0 8e 4a 21 3d 96 c9 cc 3b d3 66 d5 3c cb 31 a7 3c
       0.03937774 0.006249617 0.026050007 0.020409485
0003f0 56 fd a3 ba bf c9 17 bd f0 d7 5a 3c 56 25 c7 ba
       -0.0012511413 -0.037057634 0.013357148 -0.0015193622

pre.4.bias f4 [64]
000000 a8 42 a0 3c 94 f8 e3 3b 56 85 71 3a c6 d6 68 bc
       0.019563034 0.006957123 0.0009213289 -0.014211362
000010 2a c3 82 3c 20 57 20 3d 20 07 bb 3b 7a 36 ce 3c
       0.015962202 0.03914559 0.0057076365 0.02517246
000020 27 7c 74 3c d7 69 d9 3b 06 1b f9 bc 38 a2 c1 3c
       0.014922178 0.0066349315 -0.030408394 0.023636922
000030 c0 b4 9e bc 1a cd 8a 3b f6 38 43 bc ed 7f a5 bc
       -0.019373298 0.004235876 -0.011915436 -0.020202601
000040 2b 22 0e 3d 39 fd 42 bc d3 36 66 3c 40 7a e6 bc
       0.034700554 -0.011901193 0.014051157 -0.028134465
000050 90 44 eb bc 16 85 ad 3c 1b 70 1c bd 26 f1 4e bc
       -0.028719217 0.021181624 -0.03819285 -0.012630736
000060 00 1b bf bc da de d3 bb 8b 4b 84 3b 1a 72 ea bc
       -0.023328304 -0.006465775 0.0040373257 -0.028618861
000070 9c 5b 61 bc 95 10 e4 3c 62 89 ab 3c a5 e2 ae bc
       -0.0137547515 0.027839938 0.020939533 -0.021348307
000080 16 9b 0e 3d 7e ed 56 3c a3 9f 2d bd 94 79 8d bc
       0.03481587 0.013118146 -0.04238857 -0.017269887
000090 57 14 b4 bc 17 6b c3 bc 93 5a ae 3c 08 4d 00 bc
       -0.021982355 -0.023854775 0.021283424 -0.007830866
0000a0 b4 2e e0 3c 6a 4b 19 3d 19 42 96 bc 96 b6 e3 bc
       0.02736602 0.037425436 -0.018342065 -0.027797025
0000b0 a9 47 21 bc cc c2 30 3a 56 54 00 3d f0 c2 f7 3b
       -0.009843745 0.0006742894 0.03133043 0.00756108
0000c0 97 0c 8c 3c 45 92 27 3d e0 2a eb 3c 19 c6 e6 bc
       0.017095847 0.040910978 0.028706968 -0.028170632
0000d0 32 16 9d 3c df db eb 3c 6b 20 f4 bb c4 2b 57 3c
       0.019175623 0.028791366 -0.0074501536 0.013132993
0000e0 ee 62 38 3c 01 96 02 bd 2e a6 c9 bc f6 2c ed bc
       0.011254055 -0.031881336 -0.024615373 -0.028952103
0000f0 47 c3 ba 3a b0 ab 87 3c 5b 00 3d 3c 65 73 4a b9
       0.0014248871 0.01656136 0.011535729 -0.00019307209

post.0.weight f4 [32, 64, 1, 1]
000000 d3 7d a8 bc 7c 61 37 3c d0 02 87 3c cf 84 aa bd
       -0.02056781 0.011192676 0.016480833 -0.083261125
000010 95 bd 9b 3c 68 84 5b 3d 08 a4 05 3d 0e e0 80 3d
       0.019011298 0.05359307 0.032627136 0.06292735
000020 45 5c 2b bd 99 e8 f2 bd f0 1c 0b 3b 26 a4 94 3c
       -0.041836042 -0.11860771 0.0021226965 0.018144678
000030 b8 3b ad 3c 28 b6 b1 3d 6e 68 04 3d 62 cb 8c b8
       0.02114664 0.08677322 0.032326154 -6.713603e-05
000040 34 0a e4 bd 38 79 8f bd 68 18 b3 3d 11 47 ae 3d
       -0.111347586 -0.070055425 0.087448895 0.085096486
000050 04 5b eb bd 71 5e 25 bc 0f ce 73 3c 7d 71 08 3e
       -0.11491969 -0.010093317 0.014880671 0.13324542
000060 54 21 df bd 5d c9 72 3d 88 cd c0 3b 31 47 42 bd
       -0.10895029 0.059274066 0.0058838762 -0.047431175
000070 51 f5 d6 3c e8 20 cf 3d 79 09 d9 bd e9 bd ed 3d
       0.026240023 0.10113698 -0.1059751 0.11608488
000080 0f 36 d4 bd 5e 04 e3 3b 9a 83 8f bc 6d 47 36 3d
       -0.10361873 0.006928011 -0.017518807 0.04450171
000090 29 b4 68 3e 38 c3 06 be ee cc 3f bd d0 44 10 be
       0.22724976 -0.13160408 -0.046826296 -0.1408875
0000a0 ed 6e 29 3b 0f 99 99 bd 51 0e a7 bd 4c d8 0c 3b
       0.002585347 -0.07499897 -0.081570275 0.0021491228
0000b0 32 0c be 3d ea ad 1c 3e c7 23 ff bd 67 36 22 3c
       0.0927967 0.15300718 -0.12457996 0.009900666
0000c0 a6 22 41 be 11 95 b6 3a 83 33 89 3c c7 b4 aa 3d
       -0.18860874 0.0013929923 0.016748196 0.08335262
0000d0 03 eb be bd ec c9 d1 bd 43 4c 13 3d 53 df 11 3d
       -0.09322169 -0.10243592 0.0359614 0.03561337
0000e0 fd 46 ae bc 51 cf 14 bd 42 09 37 3d 56 40 93 bd
       -0.021274084 -0.036330525 0.044686563 -0.071900055
0000f0 40 6d 06 3e da 20 a7 3d c6 71 cb 3d e8 21 22 bb
       0.13127613 0.08160563 0.0993381 -0.0024739448
000100 32 bb 89 3d da 7d c1 bd 4f 22 1f 3e 15 42 f5 3b
       0.06725158 -0.094478324 0.15540431 0.007484684
000110 3b 24 c5 3d cd 04 95 bc fd 48 21 3d c7 dd b5 3e
       0.09626051 -0.018190766 0.039376248 0.35520765
000120 10 37 09 3d bc 26 15 be 34 86 ba 3d fe db d2 bd
       0.033499777 -0.14565557 0.091076285 -0.102958664
000130 0b 45 c1 3d a2 7b b0 bd 86 2a 03 3d 11 28 89 bd
       0.09436997 -0.08617331 0.032022975 -0.06697095
000140 a9 51 c0 3d df eb 60 be cd eb 96 3c 46 97 0b 3c
       0.093905754 -0.21964978 0.018422985 0.008519953
000150 79 a1 6c bc c5 d6 25 bd 53 a4 c9 bd 9b 70 ab 3d
       -0.014442795 -0.040488023 -0.098457955 0.08371087
000160 79 2b 3e bc b2 3e 6f 3e 7c a7 34 bd ce 33 4d bc
       -0.011607044 0.2336376 -0.044105038 -0.012524558
000170 0b c1 d7 bd da 14 bd 3d b9 e8 eb bc bf b2 ae 3e
       -0.10534867 0.09232493 -0.028797494 0.34120747
000180 bf f8 6a 3e 20 41 90 3e bd 00 52 be f8 b3 8f bd
       0.22946452 0.28174686 -0.20508094 -0.07016748
000190 76 78 29 3e c0 07 9b 3e 69 f6 7c 3e b0 bb 77 be
       0.16549858 0.3027935 0.24703373 -0.24192691
0001a0 6a d1 52 be 57 b1 32 be af 9e 50 3e f3 e1 b2 be
       -0.20587698 -0.17450462 0.20373033 -0.3493801
0001b0 de 6c 41 3e b8 e6 32 be df 52 9d be 74 c2 1d 3d
       0.18889186 -0.17470825 -0.30727288 0.038515523
0001c0 d5 c6 67 be 20 bc d3 be 80 0f ae bd cc 59 88 3e
       -0.22634442 -0.41354465 -0.0849905 0.2663101
0001d0 4b 0d 9d be c6 bb 18 3e 4c 8c ef bd 77 81 8f 3e
       -0.30674204 0.1491538 -0.116966814 0.2802846
0001e0 34 e1 6f be 26 a0 47 be 90 99 04 be 82 48 b4 3d
       -0.23425752 -0.19494686 -0.12949204 0.08802892
0001f0 4b cf ae 3e f0 48 c1 3e 9b a9 4d 3e d0 98 03 be
       0.34142527 0.3775096 0.2008423 -0.12851262
000200 a5 58 3c 3d 00 bd 21 bd 46 25 c9 bc dc 43 a2 3d
       0.045982976 -0.039486885 -0.024553906 0.079230994
000210 66 60 a5 3c d0 b9 95 3d dd 9e e9 3d 86 18 e5 bd
       0.020187568 0.073108315 0.11407254 -0.11186318
000220 1b 62 c1 bc 79 06 eb bc b4 37 cf 3d 70 f5 19 be
       -0.02360635 -0.02868961 0.101180464 -0.15035033
000230 fe 3f 95 3d 56 da cc bd c4 0f 53 bb a2 06 9f bd
       0.07287596 -0.10002582 -0.0032205442 -0.07764937
000240 22 5b b8 bd ef 5a 90 3d f5 6f 34 3d c6 5c 04 3d
       -0.09001757 0.07048594 0.044052083 0.03231504
000250 52 39 e9 bd 88 c2 8c bd be 97 d7 bd ed 79 fa bc
       -0.11387886 -0.068730414 -0.105269894 -0.030575717
000260 f1 fd 88 3d 8a 1a 0e 3e 99 fc b8 3c 0c ff b2 bc
       0.066890605 0.13877311 0.022581385 -0.021850131
000270 09 61 8d bd 4c 25 49 3b 32 ce 60 3d 0e 0f eb 3a
       -0.069032736 0.0030692397 0.054884143 0.0017933564
000280 a8 4c 6b bd b6 2d a7 3c 00 cf 9c bb 2d 4c 00 bd
       -0.057446152 0.020407539 -0.0047854185 -0.031322647
000290 94 f0 67 bd 6a df cd 3d 83 0c d2 bd 8b 7d c6 3c
       -0.056625918 0.100523785 -0.10256293 0.024229785
0002a0 c2 47 13 3e 0c 94 1e bc 13 d8 a7 3d 74 93 78 bd
       0.14382842 -0.009678852 0.0819551 -0.060687497
0002b0 2d 91 58 3d 37 61 70 bc 7b 71 bb 3d db a1 13 3d
       0.052872825 -0.014671615 0.09152504 0.03604303
0002c0 f3 c6 92 3d 13 4d c0 bc 53 13 79 bd 6f bc b9 bd
       0.07166853 -0.023474252 -0.060809445 -0.09069144
0002d0 ee b3 ce 3d 23 48 8f bd 70 ca 32 be f7 41 25 3e
       0.100929126 -0.06996181 -0.17460036 0.16138445
0002e0 41 e8 45 bc a0 07 eb bd a7 3e ae 3d 7c cc 9e 3d
       -0.012079299 -0.11476064 0.08508044 0.07753846
0002f0 33 2a a8 3d 37 a0 96 bd f7 c2 b9 3c bb 12 99 bd
       0.08211174 -0.07354777 0.022675974 -0.07474276
000300 63 d8 1b ba 2a 2b 3a bd 57 dc a9 bd e7 89 ff 3a
       -0.0005945025 -0.04545132 -0.082939796 0.0019496054
000310 7d 64 a8 bd 6e f2 80 3c 62 4d 45 3c 80 02 85 3d
       -0.082222916 0.0157406 0.012042375 0.064946175
000320 c0 a9 d4 bd e4 05 27 bd 58 da 96 bd 7c 25 4d 3d
       -0.1038394 -0.040777102 -0.073658645 0.050084576
000330 fb c8 4e 3d 40 4a af bb 71 99 a5 bc 78 31 1f bd
       0.05048464 -0.0053494275 -0.020214768 -0.038865536
000340 27 8a df 3c d1 0e f1 3d 9b 9a 6e 3d 86 f6 cd 3d
       0.027287556 0.11770404 0.058252912 0.10056786
000350 97 33 1d 3c 38 59 81 bd 78 f4 85 3d f7 ed 66 bc
       0.0095948195 -0.06315845 0.06540769 -0.014094821
000360 b2 3e 9b bd bd 50 c3 3d 0f 6a 6f bd 8d 99 cd 3d
       -0.075803176 0.09536884 -0.058450755 0.10039053
000370 55 9b 8b bd 36 35 b4 bc 7e f4 db bd a5 a2 a0 bb
       -0.068167366 -0.02199803 -0.107399926 -0.0049022012
000380 4f e7 fd 3d b8 be 44 bd 18 5a 82 3d 07 03 24 bb
       0.12397634 -0.048033446 0.0636484 -0.0025026218
000390 ef d8 86 bd fc 3c 56 3d 91 fb df 3d 87 4b b2 3d
       -0.065843455 0.052304253 0.10936654 0.08705812
0003a0 15 03 28 3d 7a 6f fd 3d 59 bc a2 3c bf 50 0d 3c
       0.041018564 0.12374778 0.019865202 0.008625208
0003b0 d9 34 6d 3d 6f 9b 2f be 72 44 14 bd 95 33 5f 3d
       0.057911728 -0.17149137 -0.036198087 0.05449255
0003c0 ea 8f 8f 3d 17 17 1c be 0a 8c bb 3d 5e 1d 22 3e
       0.07009871 -0.15243183 0.0915757 0.15831515
0003d0 99 a8 1d 3d 21 26 dd 3c bd 26 1c 3d 9a 88 09 3e
       0.038490865 0.02699572 0.03812288 0.13431016
0003e0 35 57 31 bc f6 ff 8b bd f6 46 8a bd b7 d1 fb bc
       -0.010824014 -0.0683593 -0.06751816 -0.030739648
0003f0 c0 7b d8 bd 9e 83 82 bc ad fa f8 3c 6e f7 47 3d
       -0.105704784 -0.0159319 0.030392969 0.04881995

post.0.bias f4 [32]
000000 5f b3 be 3c c0 c7 7b 3e 22 a8 60 3b 10 55 fb bd
       0.02327889 0.24587917 0.0034279902 -0.12272084
000010 a7 e4 88 bd c5 4e 18 bd 6d 62 ff 3d a4 95 14 3e
       -0.06684237 -0.037184495 0.12469945 0.14510208
000020 bd ca 83 3e 63 fe 14 3d f0 6a cb bd 50 26 12 3e
       0.25740615 0.036375415 -0.09932506 0.14272428
000030 6c 22 1b 3d 8c 1c c5 bc c0 d5 28 3c b5 2f 7a bc
       0.037874624 -0.024061464 0.010304868 -0.015270163
000040 1e 60 8b 3e 57 13 bc bd 89 3a 11 3e b6 07 f8 bd
       0.2722177 -0.09183376 0.14182486 -0.12110846
000050 2b a8 35 3e 24 e6 a1 3e 6c 2f 66 3d 5b b7 5d 3d
       0.17739932 0.31620896 0.05619757 0.05412994
000060 0f ae 9a 3e 61 37 90 3e 66 b6 9b 3d ce 6b 41 3e
       0.3021092 0.2816725 0.07603149 0.1888878
000070 81 4c 25 3d b9 42 07 3e bc 2a 41 3e 8d c6 a0 3d
       0.040356163 0.13209046 0.18863958 0.078503706

post.2.weight f4 [3, 32, 1, 1]
000000 67 3c 68 3d 84 8f 3c 3e df 71 ff bd 4a 42 ec bd
       0.05669823 0.18414122 -0.12472891 -0.11536081
000010 b2 5d af bd 0b 73 a4 bd 33 02 a1 bd 4e b0 95 3e
       -0.08562793 -0.08029755 -0.078617476 0.29236072
000020 ad df 18 be 30 7a a0 bd 2b 6a 21 3d 97 18 a9 bc
       -0.14929076 -0.078358054 0.03940789 -0.020641608
000030 f0 24 8a 3e 88 b7 b4 bd ab 41 0a be 5b a1 2f be
       0.26981306 -0.08824068 -0.13501613 -0.17151396
000040 d2 fb 94 3c 2e ec 0b be c0 23 b3 3d 56 68 10 be
       0.018186484 -0.13664314 0.08747053 -0.14102301
000050 c8 ff ce bd ce 92 49 3e c7 30 81 3d 0b fc c4 3d
       -0.1010738 0.19684908 0.06308132 0.09618386
000060 d8 76 8d 3d 0a 9a 2e 3e 65 6f 7e bd 94 f0 08 3e
       0.06907433 0.17050949 -0.062117953 0.13373023
000070 50 1a 80 3d 7e a4 75 bd 8a 43 90 3d 34 9f 42 bd
       0.06255019 -0.059971325 0.07044132 -0.04751511
000080 c2 e8 bb 3c 0b 5e 29 be 7d 19 bf bc a8 16 f2 bd
       0.022938136 -0.16539781 -0.023327583 -0.118207276
000090 70 f1 6c 3c e8 18 fd 3b c1 04 1a bd 6a d1 78 be
       0.01446186 0.0077239163 -0.03760219 -0.24298635
0000a0 41 f6 c1 3d 56 f1 50 3d 16 f5 da 3d fb 66 df 3d
       0.09470797 0.051011406 0.10691278 0.10908314
0000b0 32 9e 1a bd a0 76 f2 bd b0 03 f3 bc 0a 91 50 3c
       -0.037748523 -0.11839032 -0.029664844 0.0127298925
0000c0 82 5c ed bd 84 11 04 bd 61 3c 07 be 8c b1 31 3d
       -0.1158991 -0.032243267 -0.13206626 0.043382213
0000d0 0e ff b8 3b d2 f8 94 bd 01 8f ce 3d be fe 34 3e
       0.0056456393 -0.07274021 0.100858696 0.17675301
0000e0 ac df e3 bd 76 bf 9b bd 98 47 13 3e 87 95 19 3d
       -0.111266464 -0.07604878 0.1438278 0.037496116
0000f0 d5 08 05 3e c7 4b 23 be 53 41 38 be d7 90 80 3d
       0.1299165 -0.15946876 -0.17993669 0.06277626
000100 bf fb 03 bd 91 45 9e bd f3 b2 c2 3d 64 23 8f bd
       -0.032222506 -0.077281125 0.09506788 -0.06989172
000110 4b c9 a7 3d 5b 88 3e 3d d6 97 b3 3d 4b 71 fc 3d
       0.081926905 0.046516757 0.08769195 0.123262964
000120 f7 6e bf bd 6c 1a 16 be 24 bf 85 3d c5 09 30 bc
       -0.09347337 -0.14658517 0.06530598 -0.010744517
000130 62 b3 4c bd f4 a6 be bd 90 99 3f be a6 b1 1e be
       -0.04997576 -0.093091875 -0.18710923 -0.15497455
000140 94 57 62 3d fc 17 3d bd 94 c4 1d 3e c5 69 37 3c
       0.055259302 -0.04616545 0.1540702 0.011194651
000150 b2 58 95 bc 9f 0e 23 3d e5 a4 d3 3c 68 b2 16 3e
       -0.01823077 0.039808866 0.025835464 0.14716494
000160 86 38 13 3e 5c 5c 8f bd 97 de 9f 3d 1d 26 73 3b
       0.1437703 -0.07000038 0.078061275 0.0037101575
000170 91 e7 2e be 32 5a e5 3d a0 41 54 3d dc 72 d1 bd
       -0.17080523 0.11198844 0.051820397 -0.10226986

post.2.bias f4 [3]
000000 e2 1a 56 3e 7c bf 53 be 64 c3 8c 3e
       0.20908692 -0.20678514 0.2749282

post.4.weight f4 [3, 3, 3, 3]
000000 7c 6e 41 3e 7c 78 e5 3d d9 aa 4a 3e c4 2d 31 3e
       0.18889803 0.11204621 0.19791736 0.17302614
000010 56 d7 92 bd f1 16 27 3e 79 c5 16 3d 21 fd 87 3c
       -0.07169978 0.16317345 0.03680942 0.016600193
000020 5e 83 81 3c 22 eb 0c be d0 77 f4 3a 51 2c 73 bd
       0.015809711 -0.13761571 0.001865143 -0.059368435
000030 31 e4 38 be 72 01 dc bd 4f 25 80 bd 88 9c 71 bc
       -0.18055798 -0.10742463 -0.06257116 -0.014746793
000040 08 d8 f6 3c 1b c7 79 bd b6 9f 30 bd f3 30 9a 3d
       0.030132309 -0.060980897 -0.043121062 0.075288676
000050 25 46 94 3d fb c4 c1 bd 86 05 0e 3e 19 bb ba bc
       0.072399415 -0.09461399 0.13869295 -0.022794293
000060 dc 30 20 3c 1d 55 87 3d 39 68 a5 bd c6 51 03 3e
       0.009777274 0.06608031 -0.080765195 0.12824163
000070 0b 90 d4 bd c1 5a 84 3d 2b df ca 3d 14 e0 29 3e
       -0.103790365 0.064626224 0.09905847 0.16589385
000080 52 1c c6 bd 31 56 e7 bc a6 eb a2 bd d4 59 72 bc
       -0.096733704 -0.028239341 -0.079551026 -0.0147919245
000090 dd 5c f5 bb 6c 50 75 be af de 59 bd e4 81 9b bc
       -0.007487877 -0.2395646 -0.053190883 -0.018982835
0000a0 d1 9d 19 be e3 03 d4 3c 4b 62 81 bd 6d c1 38 bc
       -0.15001608 0.02588076 -0.06317576 -0.011276585
0000b0 4b a3 a8 bd 53 ba 4f 3e 6b 0b 70 bd a9 a6 11 3e
       -0.08234271 0.20285921 -0.05860464 0.14223732
0000c0 e4 5a af 3c 26 77 80 bd 76 1c 24 be 2f d8 e6 3c
       0.021405645 -0.06272726 -0.16026482 0.028179256
0000d0 03 6e 13 be 1c 14 68 3e 79 a8 2d 3e 00 03 8f bc
       -0.14397435 0.22663921 0.16958798 -0.017457485
0000e0 3a 0d 10 be 3f 91 ca bc 73 60 25 3e c7 c8 c4 bd
       -0.14067546 -0.024727462 0.16150074 -0.09608608
0000f0 d7 08 a3 bd 1e fd 99 3d 2a 1b 63 be 09 6c b0 bd
       -0.079606704 0.075189814 -0.22178331 -0.08614356
000100 83 d2 03 be a2 42 fa bd 2f 8c dd 3c c5 e0 bc bc
       -0.12873273 -0.122197405 0.027044384 -0.023056397
000110 98 54 b4 3c da 12 cf 3c b7 8f 2e be a7 2a d8 3d
       0.022012994 0.025277544 -0.1704701 0.1055501
000120 9e 33 f6 3c 1b be 01 be ac d7 ae bb bd 36 c3 3d
       0.03005391 -0.12670176 -0.0053357687 0.09531925
000130 80 90 76 3d 6d 5b fe 3d 88 f0 97 bc 43 1d fc 3d
       0.0601964 0.12419782 -0.018547311 0.12310269
000140 e3 d3 59 be
       -0.21272235

post.4.bias f4 [3]
000000 89 5b 93 bd 98 b3 97 39 b4 b7 af 3e
       -0.07195193 0.00028934772 0.34319842

post.6.weight f4 [3]
000000 80 64 91 3f 0d cd 6e 3f 80 4b 6f 3f
       1.1358795 0.9328163 0.9347458

post.6.bias f4 [3]
000000 37 12 2f 3c e6 55 81 bd 19 7b 16 3b
       0.010685495 -0.06315212 0.0022961556

post.6.running_mean f4 [3]
000000 6f 3c 1b 42 41 f0 a4 41 57 7f ce 40
       38.809017 20.617311 6.4530444

post.6.running_var f4 [3]
000000 e1 fd 57 44 be 51 c6 43 56 20 0f 43
       863.96686 396.6386 143.12631

net.0.theta_phi.bottleneckBlock.0.weight f4 [64, 32, 1, 1]
000000 cf f3 a1 3c 81 d7 a8 3d 99 f7 e8 3d ac cf a5 bd
       0.019769577 0.08244229 0.113753505 -0.08096251
000010 e8 0d eb bc 42 3b 43 ba 97 ef 30 3e 7d 75 af 3d
       -0.028693154 -0.000744749 0.17278896 0.08567331
000020 1b b0 1a 3c 60 9c 25 bd 9a 4d a1 bd 03 a4 e1 bd
       0.009441401 -0.040432334 -0.078761294 -0.11017611
000030 da 39 a1 bc d7 c4 54 3d 5d 4e 76 3d e1 04 47 bd
       -0.019680906 0.051945534 0.060133327 -0.048588637
000040 e8 48 79 bd 3a 22 5a 3d 04 b8 92 bd 45 1c fe 3d
       -0.060860544 0.053255297 -0.071640044 0.12407736
000050 ba c8 50 3d 07 a3 46 3b 81 3c 9e bd 4c 86 0c be
       0.050972678 0.0030309574 -0.07726384 -0.13723105
000060 87 8f 4e 3d c3 a0 ca 3b 4f dc 1e 3b fa b8 21 be
       0.050429847 0.006183715 0.00242402 -0.15793219
000070 b7 09 5f bd 70 72 aa bd e2 8c 07 be 67 dc e5 bd
       -0.054452624 -0.083226085 -0.13237336 -0.11223679
000080 78 ba 00 bd 9c e9 e8 bc 6d 1e 3b bd 7f e7 80 bc
       -0.03142783 -0.028431706 -0.045683313 -0.015735386
000090 07 10 09 3e 4d d3 a4 3d 17 ad 37 bc e5 70 f2 bd
       0.1338502 0.08048115 -0.011210701 -0.11837939
0000a0 0f 31 09 be 71 29 c6 bd d6 74 31 3d 57 fa 1a be
       -0.1339762 -0.09675873 0.043324314 -0.1513456
0000b0 b8 56 ed bd e4 b8 2d bb 51 45 04 3c 43 9b 62 bd
       -0.11588806 -0.0026507908 0.008073167 -0.05532385
0000c0 a5 42 e4 3d 84 f7 a6 bd 4b ed 45 bd 34 b2 2a 3e
       0.11145524 -0.081526786 -0.048322003 0.16669542
0000d0 11 2f 90 3d 5a 60 0b be 5b b0 4a bd 73 0b 80 3d
       0.07040227 -0.13610974 -0.049484592 0.06252184
0000e0 a0 5f 33 be a3 a6 16 3e d6 b5 2b 3e e5 0a 17 be
       -0.17516947 0.14712004 0.16768584 -0.1475025
0000f0 4c 47 97 bc e6 a5 52 3d 78 b9 8e bd 42 66 c1 bc
       -0.018466614 0.051427744 -0.06968969 -0.02360833
000100 64 c3 0c be b3 65 25 3d 77 01 22 be d9 63 15 bd
       -0.1374641 0.04038019 -0.15820871 -0.036472175
000110 62 2a 16 3d ee 85 b7 bd 63 a7 a9 3d 17 9f a8 bc
       0.036661513 -0.08961092 0.082838796 -0.020583672
000120 a2 94 13 be da 2f 07 3a 12 8b a9 bc d4 da 8a bd
       -0.14412168 0.0005156972 -0.020696197 -0.067800194
000130 41 0a 76 3d 58 ef 1e 3e 47 b2 65 3d c8 fe e3 3c
       0.060068373 0.1552099 0.05607822 0.02783145
000140 23 11 0f be 9a 97 24 be cb bb b5 3d 7c 7c 06 be
       -0.13971381 -0.16073456 0.08873709 -0.13133425
000150 75 01 1b 3d f3 e7 8c 3d 59 5d fc 3d 08 bc 4c 3d
       0.037843186 0.06880178 0.12322492 0.049984008
000160 93 59 e8 3d 76 38 8b 38 7a 89 0e 3e dd 85 09 3d
       0.1134521 6.638553e-05 0.1391963 0.033574928
000170 c9 39 50 bc 58 4b 8e 3d 04 15 25 3d 19 2e 2d 3c
       -0.01270909 0.069479644 0.040303245 0.010570073
000180 fa 8d 95 3d ed 04 0d 3e e0 2d 1e bd 3c 2d f5 3d
       0.073024705 0.1377141 -0.03861797 0.119715184
000190 e2 f3 88 bd 13 cf 16 3d 5e 00 da bd ec 8e bc bd
       -0.06687142 0.036818575 -0.10644601 -0.09206948
0001a0 f1 1e 12 3e 1c c2 85 3d 99 0f ec 3d 8f 52 a0 bd
       0.14269616 0.06531164 0.115264125 -0.07828247
0001b0 3a c8 96 bd 04 90 6b bc d0 ff 4b bd c0 a2 33 bd
       -0.07362409 -0.014377598 -0.04980451 -0.043856382
0001c0 7f c5 13 3c 05 c7 9e bd c1 1b 8d bd 58 4f f8 3d
       0.009019255 -0.07752804 -0.06890059 0.121245086
0001d0 d6 8c 10 bc 22 dc 0b be 43 50 70 3d ab 40 b1 3d
       -0.00882264 -0.13658193 0.058670294 0.086549126
0001e0 61 6a 92 3b 97 b3 e4 3c 0a 34 ac 3d 14 2c 19 be
       0.0044682478 0.027917666 0.08408363 -0.1495822
0001f0 04 4e 0c 3e 48 e4 da 3d 93 b4 2c 3e 93 16 21 3e
       0.13701636 0.106880724 0.16865759 0.15731268
000200 3f 7f cb 3d 91 b8 d2 bd df 18 27 3e ab 92 06 3e
       0.0993638 -0.102891095 0.16318081 0.13141887
000210 43 e5 80 3d 01 df 25 be a8 58 8a 3d 86 95 0b 3e
       0.06293728 -0.1619835 0.06755191 0.13631257
000220 97 bc b1 bd fa 0d c4 3d 30 bb c8 3d 92 02 05 3e
       -0.08678549 0.09572978 0.09801328 0.12989262
000230 43 d4 22 be 11 4a 30 be 8b 3e 2b be ae de 0b 3e
       -0.15901284 -0.17215754 -0.16723077 0.13659164
000240 27 5a 93 3d ae 6b d2 bd 15 d6 89 bd c2 15 95 3d
       0.071949296 -0.102744445 -0.06730286 0.072795406
000250 39 5f 73 3d 35 e3 1c be 08 7d ac bd b8 bd fe bd
       0.059416983 -0.15321048 -0.08422285 -0.1243853
000260 2f 6d ed bc 7c 79 c8 bd 08 05 14 3d 77 b7 1d be
       -0.028982727 -0.09788796 0.03613761 -0.15402018
000270 48 df 95 3d 0f 60 98 bd 2f 91 33 be a2 74 33 3e
       0.07317978 -0.07440197 -0.17535852 0.1752496
000280 69 2c 24 bd da 3d 11 3e e4 ec 00 3e 0c 47 e6 3b
       -0.040081415 0.14183751 0.12590367 0.0070275124
000290 b3 1c 0f bd 11 12 ff 3d 25 06 14 bc 15 11 ff 3d
       -0.03493948 0.12454618 -0.009034668 0.1245443
0002a0 82 7e 7b 3d 61 80 b1 bd 28 ef df 3d bb 4a 93 3d
       0.061399944 -0.086670645 0.10934287 0.07191988
0002b0 73 65 c7 3d ce 54 ef 3c 79 aa ba 3d b6 a7 a1 bc
       0.09736147 0.029215243 0.09114546 -0.019733291
0002c0 f9 e4 a3 bd 22 ae bf 3c 62 aa 24 3e 35 72 27 be
       -0.080026574 0.023398463 0.16080621 -0.1635216
0002d0 be 00 e9 bb 0b 58 92 3d bc 0b c9 bd 54 af 1c bd
       -0.007110684 0.07145699 -0.09816691 -0.038253143
0002e0 d7 8b b9 3c fd e3 2d 3e 74 40 b1 3c 40 d5 2f be
       0.022649689 0.16981502 0.021637179 -0.17171192
0002f0 0e b7 1a 3e 90 7d 9e bd d8 2c f6 3b ca 69 70 3d
       0.15108892 -0.07738793 0.00751267 0.05869464
000300 f8 30 ce 3d 6b 3e e2 3c e5 17 72 3d 8e aa ae bc
       0.10067934 0.027617654 0.05910482 -0.021321561
000310 cf e0 ad 3d fe e7 d0 3b 17 3b 64 bd b1 57 1c 3e
       0.084901445 0.006375312 -0.055720415 0.15267827
000320 63 2f 6a 3d ff bc 5a bd cc a8 29 3e 43 dc 5f 3d
       0.057174098 -0.053402897 0.16568297 0.054653417
000330 75 4b 34 bd 3d 2d 24 be b3 b3 e2 bd 39 ed 16 3e
       -0.044017274 -0.16032882 -0.11069431 0.14738931
000340 74 f0 5f bc 50 e7 d2 3c 9e 31 2d 3e 9a c1 b1 bd
       -0.013668168 0.025745064 0.16913459 -0.08679505
000350 fd a3 2d be b4 43 26 3d 1f b4 9e bc 8b 5f 4f bd
       -0.16957088 0.04059191 -0.019372998 -0.050628226
000360 e5 ce db 3d dc 8d d8 bc 1d 9a 13 be d4 e6 b8 bc
       0.107328214 -0.026434831 -0.14414258 -0.022571005
000370 a1 cf 26 be de 10 e5 bd 82 d7 c7 bd 04 5d 8a bd
       -0.16290142 -0.11184858 -0.09757902 -0.067560226
000380 8b 06 1d 3b fa cf ac 3d 90 6b bd bd b9 d0 3e bd
       0.0023960199 0.08438106 -0.092490315 -0.046585772
000390 2a 47 f9 bd 0f 67 1c bd 53 2a fd 3d 0e db 32 3e
       -0.121717766 -0.03818422 0.12361588 0.17466375
0003a0 73 e1 1a 3e e3 dc fb bd b9 35 c0 3d 4a da f8 bd
       0.15125065 -0.1229799 0.09385247 -0.1215101
0003b0 ae 58 33 3e 0e cb 95 3d dc 0f 14 3e 06 b4 09 bc
       0.17514297 0.0731412 0.14459175 -0.008404737
0003c0 7d f3 df bd 79 28 a5 3c 6f 62 b5 bc 29 78 2f be
       -0.109351136 0.0201609 -0.022141663 -0.17135681
0003d0 81 c9 de bb a3 80 ea bc e7 8c 0b 3e 65 0b a4 3d
       -0.0067989235 -0.028625792 0.13627969 0.08009986
0003e0 98 11 0b be e5 6b aa 3d 93 4d 19 3e 0e 0a 37 3e
       -0.1358093 0.083213605 0.14970998 0.1787493
0003f0 4c ad cc bd 29 ba ee 3d 2a 4b 72 bd 50 a9 a0 3d
       -0.09993991 0.11656601 -0.059153713 0.07844794

net.0.theta_phi.bottleneckBlock.1.weight f4 [64]
000000 83 73 80 3f 4d b4 7e 3f 2d e4 7f 3f 07 22 80 3f
       1.0035251 0.9949387 0.99957544 1.0010384
000010 2d f8 80 3f e6 f6 7f 3f f1 4f 7f 3f 35 17 7f 3f
       1.0075737 0.9998611 0.99731356 0.99644786
000020 64 c3 7f 3f f1 a8 7e 3f d9 da 80 3f 38 1c 80 3f
       0.9990752 0.99476534 1.0066787 1.0008612
000030 33 55 7f 3f d9 ec 80 3f 01 a0 7f 3f d8 ae 80 3f
       0.9973938 1.007228 0.9985352 1.0053358
000040 52 16 80 3f d0 d5 7d 3f c6 0a 7f 3f 83 80 7f 3f
       1.0006812 0.99154377 0.99625814 0.9980547
000050 17 84 80 3f a3 50 7b 3f 1c 21 80 3f bd 42 80 3f
       1.0040311 0.98169917 1.0010104 1.0020367
000060 ca ac 7e 3f bc 75 80 3f c3 74 7e 3f c1 c5 7d 3f
       0.99482405 1.003593 0.99396914 0.99129874
000070 af 30 7d 3f 40 be 80 3f 9f 92 7f 3f 78 09 80 3f
       0.9890241 1.005806 0.998331 1.000289
000080 52 83 80 3f 1c 21 80 3f 0f 97 7e 3f 48 23 7f 3f
       1.0040076 1.0010104 0.9944925 0.9966321
000090 3c 40 7f 3f 44 6e 81 3f 27 d6 80 3f 4b 90 7f 3f
       0.9970739 1.0111775 1.0065354 0.9982955
0000a0 fe b8 7f 3f fd 21 7f 3f a4 f0 80 3f 9b af 7e 3f
       0.9989165 0.99661237 1.0073438 0.994867
0000b0 9a 24 80 3f 73 37 7e 3f 9d e7 7d 3f 65 f4 7c 3f
       1.001117 0.9930336 0.9918154 0.98810416
0000c0 51 41 7f 3f 17 42 7e 3f 14 30 80 3f 14 7f 7e 3f
       0.9970904 0.99319595 1.0014672 0.99412656
0000d0 2c 79 7e 3f d1 9a 7f 3f a1 00 7e 3f 27 16 7f 3f
       0.99403644 0.99845606 0.9921971 0.99643177
0000e0 bf b8 7e 3f f3 fd 7e 3f 5a eb 80 3f 8d 4f 7f 3f
       0.9950065 0.99606246 1.0071824 0.9973076
0000f0 72 7b 80 3f 62 f5 80 3f e4 94 7a 3f df 07 81 3f
       1.0037673 1.0074885 0.9788344 1.0080527

net.0.theta_phi.bottleneckBlock.1.bias f4 [64]
000000 a5 63 25 bb e1 85 15 3b 1a da d9 39 2a a6 30 bb
       -0.0025236395 0.0022815394 0.00041551964 -0.002695451
000010 bb 16 12 3a 09 63 4a 3b 52 7f d4 3b b7 2b 94 3b
       0.0005572845 0.0030881783 0.0064849043 0.004521813
000020 d2 93 58 b9 30 a0 13 3c cf c4 10 3b e7 14 bf 3b
       -0.00020654433 0.00901036 0.0022089963 0.005831349
000030 0e 93 23 bb b9 7f b5 3b 6c ee 1b 3c 76 16 a4 3b
       -0.0024959478 0.0055389074 0.009517293 0.0050075604
000040 79 65 12 3b 27 fa 8e 3b 6d 4a 93 ba 83 48 ae 3b
       0.0022338314 0.0043633166 -0.001123739 0.0053187027
000050 b5 83 22 3a 4e c6 1d 3c 8a 77 26 bb bb b9 35 3b
       0.00061994354 0.009629799 -0.002540084 0.0027729112
000060 97 95 87 3b a5 e5 72 ba 04 07 f4 bb 05 75 99 3b
       0.0041377055 -0.0009265787 -0.0074471254 0.0046831393
000070 52 ae 4b 3c 30 aa 08 3b 84 89 69 3b 15 91 94 3b
       0.012431698 0.0020853393 0.0035634944 0.0045338967
000080 b2 71 f1 ba 9c 63 7d 3b 54 bb 7e 3b c5 8b 84 3a
       -0.0018420725 0.0038664108 0.003886898 0.0010112455
000090 e3 aa 71 3a 97 1b e9 3b 4f fb 19 bb 73 3f cb 3b
       0.00092188845 0.0071138847 -0.002349574 0.006202632
0000a0 55 d4 b9 39 f8 69 c7 3a 1c aa 9c ba 4a d3 32 3c
       0.0003544415 0.0015214076 -0.0011952552 0.010914633
0000b0 35 00 7a ba 23 75 3d 3c fd 3f ac bb d9 f3 ed 3b
       -0.0009536774 0.011563572 -0.0052566514 0.007261735
0000c0 0b 9a fc 36 5e b5 9c 3b 94 ea 8a bb 8d 2d 14 bb
       7.528118e-06 0.004782363 -0.0042393897 -0.0022610158
0000d0 1c 6f a9 bb 26 16 75 3b a1 51 ba bb 18 0f 8b bb
       -0.005170716 0.0037397235 -0.0056860005 -0.0042437427
0000e0 b8 61 af bb f3 60 af bb ea 95 b0 3b ad bd 34 bb
       -0.005352225 -0.0053521334 0.005388965 -0.0027578876
0000f0 0f 10 02 ba 83 54 6e bb d1 5e 8c bc 3c d5 5e 3b
       -0.00049614994 -0.003636629 -0.017135056 0.003400161

net.0.theta_phi.bottleneckBlock.1.running_mean f4 [64]
000000 db 0d d6 ba 44 2d 85 3d c6 81 1e 3c 41 5b 8b 3d
       -0.0016331034 0.06502774 0.009674495 0.06804515
000010 c9 55 cc 3d 2c 0d 84 3c 25 53 aa bc 14 38 ab bc
       0.099773 0.016119562 -0.0207916 -0.020900764
000020 9e 3e 14 bd 75 50 9d 3c 73 8f ab 3b 82 f0 63 bc
       -0.03619253 0.019203404 0.0052356063 -0.013912322
000030 e4 47 46 3d 5e 8c 96 bc 52 3b 02 3d e2 e2 cb 3b
       0.048408404 -0.01837748 0.031794854 0.006222115
000040 dc ee 4f bd 7b d3 87 3d c0 ce d6 3c ba 4f 14 bd
       -0.050764903 0.066321336 0.026221633 -0.036208846
000050 34 96 1d bd 00 57 be bc 41 7c dc 3b 10 23 2a 3d
       -0.038473323 -0.023234844 0.0067286794 0.041537344
000060 8f 65 cf bc ec 33 6a bd 0b 25 b4 3c f8 38 44 3b
       -0.025316982 -0.057178423 0.02199032 0.0029941183
000070 48 db 7a 3c a6 a2 01 bd 0a f5 2b 3d d4 2b f8 bb
       0.01531107 -0.031649254 0.041981734 -0.007573584
000080 9d ff 1d bc 27 b4 62 3b d5 f7 b2 bc f9 b2 c1 bb
       -0.0096434625 0.0034592242 -0.021846691 -0.005911228
000090 ce 36 37 bd 46 fc c2 bb 6b 1f 37 bc 3a f1 ad 3c
       -0.04473 -0.0059504835 -0.011176924 0.02123319
0000a0 41 12 e4 3c bf ea fd 3b 63 4d f0 3c 59 84 e5 bc
       0.027840735 0.007748931 0.029333776 -0.02801721
0000b0 8e e3 5c 3c 2c 6b 8f bd 16 66 60 3c ca 55 77 bd
       0.013481988 -0.07002863 0.013696214 -0.06038455
0000c0 3b bd 65 3d bb 49 19 bd a5 01 b5 3c 67 c0 c6 bb
       0.056088667 -0.03742383 0.02209551 -0.0060654166
0000d0 c8 b7 4c bc c2 be 73 3d 5b 0e 40 3d 91 0e a8 3c
       -0.012494989 0.059508093 0.04688869 0.020514758
0000e0 a7 8b 56 3d 9e 9a d9 bc 72 cd bf bc 9b a1 02 3c
       0.052379277 -0.026562985 -0.023413394 0.0079731
0000f0 e9 ad 7c 3b 2b f4 3c 3c f5 23 0d bc 36 aa 79 bc
       0.0038555807 0.011532824 -0.00861453 -0.015238335

net.0.theta_phi.bottleneckBlock.1.running_var f4 [64]
000000 bc e4 86 38 1d 1b 4e 39 79 b4 7b 39 b5 69 ca 37
       6.432223e-05 0.00019655791 0.00024004457 2.41295e-05
000010 07 d3 31 39 f0 aa 4e 39 17 cb 8d 38 03 e0 15 3a
       0.00016958649 0.0001970937 6.761232e-05 0.0005717279
000020 30 03 09 39 b7 3a 58 38 57 96 a9 39 9d de 7b 39
       0.00013066526 5.1553096e-05 0.00032346204 0.00024020155
000030 91 73 f2 38 14 1d c7 39 8c f2 7f 38 00 d3 25 39
       0.00011560985 0.00037977903 6.1022627e-05 0.0001581423
000040 58 a2 2f 38 2e ac 05 39 91 47 47 38 e3 02 18 39
       4.1874446e-05 0.0001274801 4.751195e-05 0.00014496925
000050 63 41 0f 38 22 ef ac 39 47 df a7 39 0b 48 b5 37
       3.4154753e-05 0.00032984564 0.00032019077 2.1610429e-05
000060 9f d2 97 39 12 d4 0c 3a ba c5 a8 38 08 61 96 39
       0.0002895789 0.0005372177 8.047694e-05 0.00028682523
000070 8a 48 06 39 b7 8a 2c 39 54 50 2d 38 9e 94 ad 38
       0.00012806259 0.00016454874 4.1321226e-05 8.276965e-05
000080 b6 49 f8 38 b6 06 27 38 87 80 63 39 1e 98 19 39
       0.00011839291 3.9822153e-05 0.00021696287 0.00014647885
000090 2a e7 41 39 9b d4 81 37 20 de b8 38 fa ba 08 38
       0.0001849203 1.5477e-05 8.815178e-05 3.2599062e-05
0000a0 70 81 94 39 39 7c 14 39 e7 3c 7c 38 8b fa c1 39
       0.00028325198 0.00014160656 6.01382e-05 0.00036998498
0000b0 ce 3b 1e 38 d0 20 46 3a 07 f3 e4 38 74 1c fa 37
       3.7725833e-05 0.000755799 0.000109171546 2.9815572e-05
0000c0 d0 83 ad 37 df b1 01 38 0b 12 c4 38 46 01 2d 39
       2.0684587e-05 3.0921652e-05 9.349369e-05 0.0001649904
0000d0 8e 51 84 39 cc 8a 47 38 30 14 35 39 c4 4e a7 38
       0.00025237765 4.7574562e-05 0.00017269026 7.977852e-05
0000e0 2e 9d 5d 38 8a ab 52 38 9b ae 8d 39 0a 75 a0 38
       5.283689e-05 5.022766e-05 0.00027023707 7.651195e-05
0000f0 47 dd e7 37 41 ac 1c 39 c9 64 90 38 24 0c 1a 39
       2.7640386e-05 0.00014941489 6.885228e-05 0.00014691107
