Puff-Net/model/detail_iter_15000.pth (torch, 470479 bytes, 157 tensors)

pre.0.weight f4 [32, 3, 1, 1]
00000000: bc9a 693e 32e5 d1bd c7ed 7bbe 6b31 a5be
00000010: 8ce9 c73d b0ad 64be 368f e6be 8da3 61be
00000020: 1cc1 0c3f 11e0 b3be dd70 8abd a736 9d3c
00000030: fbee ef3e 42ac 4cbe 7181 39be 642c f03d
00000040: a39a 0c3e 282d 2a3e a63c 0abf 15d8 0d3f
00000050: 5b4d 85be 5472 6e3e 9d67 bbbe e257 a53d
00000060: 8e12 4abd c7d8 58be 90eb d0be fd4e a1be
00000070: 1878 833e 14c6 10be cab4 88be e9c6 853e
00000080: e14c 1c3e 9ded 12be 8bab 61be ab75 f83d
00000090: e27c 483e aa97 0c3e 4e07 04bf e1d9 0c3e
000000a0: 2c94 2c3e bb8b a7be 38f5 adbe 3d3e afbe
000000b0: 05fe 1a3e af7c c53e 9627 42be 1ef0 d2be
000000c0: 2a6f b6be a06b bb3e 999d a63e a480 02bf
000000d0: 7c6b 103f 3abf fdbd 618c b73e 6578 8d3e
000000e0: cc2a 0fbf 00b0 06bf c316 88bc 6baf bcbc
000000f0: fec9 d33e 0ceb b33e 2ce6 c43d d9ad 0cbf
00000100: 06b5 84be ec3d ecbe 965c 6fbe 5155 19be
00000110: ab3b 0ebf d503 e6bd b48d d4be fba9 cd3e
00000120: dfac f33e 8560 07bf a55f ecbe 4a20 ac3e
00000130: 3808 e5be 1797 613e b6ee 94bd 1843 1d3d
00000140: fea2 91bc 20b2 c73e d639 df3d 0bec 453e
00000150: 8f82 c8be 8af3 02bf d562 c63d 1682 a83e
00000160: ca64 0a3f 8137 ac3e 7d79 52bd ad63 f4be
00000170: 0ff8 0ebf cd2e afbd 3776 433c faca e03e
0.22812933 -0.10248794 -0.24602424 -0.32264265 0.097613424 -0.22331882 -0.45031136 -0.22035046
0.5498216 -0.35131887 -0.06759808 0.0191911 0.46862015 -0.19987586 -0.18115784 0.11727217
0.13730864 0.16618788 -0.5399879 0.5540784 -0.2603558 0.232858 -0.36602488 0.08073403
-0.0493341 -0.21176444 -0.4080472 -0.31505576 0.25677562 -0.14138061 -0.2670043 0.2612832
0.15263702 -0.14348455 -0.22038095 0.121318184 0.19578889 0.1372973 -0.51573646 0.13754989
0.16853398 -0.32723793 -0.3397615 -0.34227172 0.15135963 0.3857169 -0.18960413 -0.4119882
-0.35631686 0.3660555 0.32542112 -0.5097754 0.5641401 -0.12389989 0.35849288 0.27630916
-0.5592468 -0.52612305 -0.016612416 -0.023032865 0.41365045 0.35140264 0.09614214 -0.5495277
-0.2591936 -0.46140993 -0.23375162 -0.14973952 -0.55559796 -0.112312 -0.4151436 0.40168747
0.47592828 -0.5288165 -0.4616672 0.33618385 -0.44732833 0.22030292 -0.07272093 0.038394064
-0.017777916 0.39003086 0.10899703 0.19328324 -0.39162108 -0.5115286 0.096868195 0.32911748
0.5406004 0.33636096 -0.05138539 -0.47732297 -0.5584726 -0.085538484 0.01193004 0.4390486

pre.0.bias f4 [32]
00000000: c781 fdbe 20dc 983e f1ec d8be ca72 6bbc
00000010: c918 b83e 7138 67be c9b6 103f 0845 593e
00000020: c500 873e 9be7 cbbd e3ee f9be 5d3b 13bf
00000030: 434d ccbd b6d1 bbbc ff1b 8e3e ec70 5e3d
00000040: 1bc3 35bd efb1 223b facc 4b3e e489 123f
00000050: ebbc e5be 3009 ec3d ea3c ba3e 4e51 043f
00000060: d561 d4be 76f4 f0bd 37b5 b43d 6d71 12bf
00000070: 4937 813e 4841 cdbd 2865 833e 79e9 0f3f
-0.49513075 0.29855442 -0.42368272 -0.01437063 0.3595641 -0.22580124 0.5652891 0.2121774
0.26367775 -0.099562846 -0.4881507 -0.57512456 -0.09975674 -0.022927146 0.27755734 0.05430691
-0.04437552 0.0024825295 0.19902411 0.57241654 -0.44870695 0.1152519 0.363746 0.5168656
-0.4148089 -0.11765377 0.088236265 -0.57204324 0.25237492 -0.10022217 0.25663114 0.56215626

pre.2.weight f4 [64, 32, 1, 1]
00000000: 240b 67bd ac83 cb3a 455a aa3d 92b9 d73d
00000010: b517 ec3b dc45 9dbd 1bb3 a1bd 344a 2abe
00000020: fb57 363d d12b 63bd f4af 1dbd 7c94 083c
00000030: 737c 39be c344 243e 6842 db3d 4148 21bd
00000040: 7cea f1bd ea62 543d c728 a1bd 7193 b0bd
00000050: dd76 1c3c b85c b6bd f66e 8d3d 7db6 ae3d
00000060: 510b f83d 0200 293d 5ca9 293e b305 ed3d
00000070: b148 0f3e 5fb1 0d3e 52e9 90bd d450 0d3d
00000080: 5b61 0cbe 68e6 de3d 04a2 23be 3c5e aebb
00000090: afdd 2bbe 962e 6ebc ba79 d73b fb83 01be
000000a0: 3115 cd3d 77bd 08bc bcfe ce3d c124 ab3d
000000b0: 6c76 833d 4afe e83d 0a2c 0abe 18b1 183e
000000c0: b7cd f3bd cc06 833d e680 d4bd 00ee 06be
000000d0: 2908 5cbd 7461 2b3e b9f1 54bd b830 3d3d
000000e0: 12fa 073e ed64 2e3c a612 f6bc d45d 363e
000000f0: 04df 20be e3b2 a0bd 1451 ba3c 13e6 09be
00000100: 779b b3bd 9687 243d f40e 2e3c 2e10 8e3d
00000110: 5256 ebbd 4667 7fbd b058 303e 9d30 4cbe
00000120: 5cd7 3dbc 8972 3cbb 15ec 143e e82b 5fbd
00000130: 1fc1 9cbd 6b20 e83d 81ae 0fbe a94d b63d
00000140: 4078 abbd 764f 94bd 33f2 01bc 1a3c 42bc
00000150: e579 3239 b7ef ccbd e46b 353c 1cbd ebbc
00000160: 0542 0fbd b0bb 9ebc 65c5 2abe 583e 0d3e
00000170: fa49 243e b5c8 0cbd 6ee8 013e 2828 333e
00000180: b407 583c 8e83 8ebd 9b5b 063e 64af fbbb
00000190: a7f8 1e3e a930 2a3e 930c 863d a6a8 7cbb
000001a0: 12cf bfbb 7e6b d93d 9426 2d3e a36b ce3d
000001b0: 2c7a 7c3d 1c71 d93a 822d dcbd d896 523d
000001c0: 223f 4c3c 1f20 353e 6a52 ea3d 423d 9bbd
000001d0: 5cae 833c 680d afbd 65ab c6ba 8d76 1abe
000001e0: 3841 153b c893 863c c2a7 ecbd fd12 12be
000001f0: 4445 543d 2724 c5ba 7a7e e33d 2384 9b3d
00000200: 5cc3 1bbe f674 753d 21e4 5fbc fbbe 533d
00000210: a428 13be 1a28 15be d18a 41bd ba0d 98bd
00000220: 7064 57bd db35 4bbe 7742 83bd bf00 0a3e
00000230: 0a49 893d aa03 e5bc 774f 89bd 32ee e2bd
00000240: aa30 d13d d86c 113e 168a 00be a2c7 debd
00000250: fa9f aa3d 2f24 a5bd 9754 0dbe 11c0 20be
00000260: 8954 ed3b 3a0d ecbd 0d44 2a3e 686e 25bc
00000270: 5a4d 123d 1713 0d3e 7fac a93d e798 0abe
00000280: 2a92 ed3c b342 b33c bf91 10bd 77cf f53c
00000290: f1b2 a0bd 279a 88bc af7d c3bd a124 42bd
000002a0: 0b04 d93d f5e5 463d 5e06 88bd 8da1 d5bd
000002b0: c6a7 1c3d f466 aa3d eb71 c0bd e9f3 01bd
000002c0: 67fe 313d 2d17 8cbd 313a 80bd 3cad f0bd
000002d0: 766d a33d 2449 0cbe 0f73 84bd 6cc8 d93d
000002e0: 1974 ea3d aa73 6a3c 71a2 0c3e bcea cabd
000002f0: 8388 4dbc f2e6 8fbd 183c a03d 1f6e dd3d
00000300: 98b0 c7bd e33e 133c 359b e4bd 509b ed3d
00000310: 7613 8ebd ff80 443e 404e e63d f06b 50bd
00000320: 0fd8 0b3e cac6 433a bba9 eb3c a542 0bbd
00000330: cdd8 23be fac5 cd3d 6248 05be 55b6 b43d
00000340: 58fb aebd e91e e7bd c6f8 95bd e8f0 a33d
00000350: 253a f93d 05ad 003e 5e2e 42bc d78c fcbd
00000360: 9963 143e 54e2 4d3d 16d2 863d 69c8 8ebd
00000370: 4de0 cd3d 4d13 293e 1d64 943d 0887 e13d
00000380: c95e e33d bdd8 29be 0884 2cbe 2bff c33d
00000390: 2201 833d eefe 23bd 05cf 803d ac60 c1bd
000003a0: ef1f f3bc b004 05be 0eea 18be 7b9d 8c3c
000003b0: 7deb 50be 37a5 703d a08b 853d 0424 1c3e
000003c0: 9efb a2bd 8d12 0cbe 8c30 11be 0870 08be
000003d0: 1f63 5c3d 451c 753d e19a 1f3e a761 f33d
000003e0: 9cae b23d a7e9 f9bd fb7c 3d3d dcc0 96bd
000003f0: 1b07 3cbd a38c 263e 0914 7b3d 1485 6fbc
-0.05640711 0.0015526912 0.08317999 0.105334416 0.0072049745 -0.0767934 -0.0789549 -0.16629869
0.0445175 -0.05546171 -0.03849788 0.008336183 -0.1811388 0.16041856 0.10706025 -0.039375547
-0.118123025 0.051852144 -0.07869106 -0.08621872 0.009549824 -0.089044034 0.0690593 0.085309006
0.121115334 0.041259773 0.16568512 0.11573353 0.13992573 0.13837193 -0.07075752 0.03450091
-0.13709013 0.1088379 -0.15979773 -0.005321292 -0.16783784 -0.014537474 0.0065757902 -0.12648003
0.100138076 -0.008345953 0.101071805 0.083566196 0.064190716 0.11376627 -0.13493362 0.14911306
-0.11904471 0.06397781 -0.10376148 -0.13176727 -0.05371872 0.16736394 -0.051988337 0.04618904
0.13278988 0.01064418 -0.03003819 0.1780923 -0.15710074 -0.0784662 0.02274374 -0.13466673
-0.08769887 0.040168367 0.010623682 0.0693668 -0.11491074 -0.06235435 0.17221332 -0.1994042
-0.01158699 -0.0028754792 0.14543183 -0.05448523 -0.076540224 0.11334308 -0.14031412 0.08901531
-0.08372545 -0.072417185 -0.00793128 -0.01185515 0.00017020812 -0.100066595 0.011073086 -0.028776698
-0.03497507 -0.019376606 -0.16676863 0.13793314 0.16043845 -0.034371097 0.12686321 0.17495787
0.01318543 -0.06958686 0.13120882 -0.0076808203 0.15524541 0.16620125 0.06545367 -0.003855267
-0.005853542 0.10616206 0.16909248 0.10079124 0.06163995 0.0016589495 -0.107508674 0.051413387
0.012466224 0.17688034 0.114415005 -0.075800434 0.016074352 -0.08547479 -0.0015157281 -0.15084286
0.002277447 0.01642789 -0.11555435 -0.14265056 0.05182387 -0.0015040681 0.11108108 0.075935625
-0.15211242 0.059925996 -0.01366523 0.051695805 -0.14370972 -0.14566079 -0.047251526 -0.07424493
-0.05258602 -0.19844763 -0.064091615 0.13476847 0.06703384 -0.027955849 -0.0670461 -0.110805884
0.1021436 0.14201677 -0.12552676 -0.10877921 0.08331294 -0.08063542 -0.138018 -0.15698268
0.0072427434 -0.1152596 0.16627522 -0.010097124 0.0357183 0.13776813 0.08284854 -0.1353489
0.02900036 0.02188239 -0.035295244 0.030006154 -0.0784663 -0.016675068 -0.095454566 -0.047398213
0.10596474 0.048559148 -0.066418394 -0.10431204 0.03824594 0.08320418 -0.09396728 -0.03172675
0.043455508 -0.06840358 -0.06261099 -0.11751792 0.079798624 -0.13699776 -0.06467258 0.106339306
0.11447925 0.014309803 0.13733841 -0.09908053 -0.012544754 -0.07026471 0.07823962 0.108120196
-0.097504795 0.008987161 -0.11162416 0.11601889 -0.06937306 0.19189833 0.11245394 -0.050884187
0.13656639 0.00074682815 0.028767457 -0.033999104 -0.16000672 0.10047527 -0.13015893 0.088238396
-0.08544034 -0.112851925 -0.073228404 0.080049336 0.12169293 0.12566002 -0.011851875 -0.123315506
0.14491118 0.05026467 0.065830395 -0.06971819 0.100525476 0.16511269 0.072456576 0.11012083
0.11102063 -0.16586585 -0.16847241 0.09570154 0.063967004 -0.04003804 0.06289486 -0.09442267
-0.029678313 -0.1299007 -0.14933035 0.017164936 -0.20402332 0.05875131 0.06520772 0.15248114
-0.079581484 -0.13678952 -0.14178675 -0.13323987 0.053805467 0.059841413 0.15586425 0.1188386
0.0872471 -0.12202769 0.04626177 -0.07361004 -0.045905214 0.16264586 0.061298404 -0.014619131

pre.2.bias f4 [64]
00000000: 1157 0a3e 2daf ac3d 489b 29be a7dd 83bd
00000010: 2efd 633d 99ba 043e 5098 363e 079f 00bd
00000020: b4d1 5f3d 0263 2e3c 19c1 133d a504 243e
00000030: 63dc f4bd 0af9 1ebb c822 4ebd 3378 323e
00000040: 6e2f f5bd dac3 db3c 60aa 493d 2c92 33bd
00000050: f8b9 67bd 1cf5 db3d 5383 fb3d 9e40 363e
00000060: 9b70 f7bb 8ddf 18be 27b9 1d3d 5530 00be
00000070: e9fc 133e 2d2e 533c e13d edbc f2c2 243e
00000080: 7814 e9bd 79d3 553d f879 31bd 42ec e13d
00000090: 3d60 5fbd 2aad 8abd b91f 4abc f96b 22be
000000a0: 075c e1bd 45c9 02be 8b63 20be ae7b 2bbe
000000b0: 193e 3bbc f6de 75bd 5731 273e d00a 283e
000000c0: 3d2b 24be 4410 653d b1cd 2a3e ff1c 02be
000000d0: 358e 11bd 3b7d 853d 6404 cd3c 9af5 213d
000000e0: 4e50 d2bb 8de5 24be bfae cebc 5f72 c53c
000000f0: ffd8 ed3d 4a6e e9bc a7f0 f9bd 2ef9 163e
0.13509776 0.0843185 -0.16563141 -0.06438761 0.055661373 0.12961806 0.1783154 -0.03140166
0.054643348 0.0106437225 0.036072824 0.16017397 -0.11956098 -0.0024257326 -0.05032614 0.17428665
-0.11971937 0.026826788 0.049234748 -0.043840572 -0.056573838 0.1074011 0.122809075 0.17798087
-0.0075512654 -0.14929028 0.038506653 -0.12518437 0.14451946 0.012889427 -0.02896017 0.1608999
-0.11380857 0.05220363 -0.04332921 0.11031391 -0.05453514 -0.0677131 -0.012336665 -0.15861501
-0.11003881 -0.1277209 -0.15662973 -0.16746399 -0.011428379 -0.060027085 0.16327415 0.16410375
-0.16032119 0.055923715 0.16680028 -0.12706374 -0.03553601 0.065180264 0.025026508 0.039540865
-0.0064182645 -0.16103192 -0.02522981 0.024102388 0.11613654 -0.028494973 -0.12204104 0.14743492

pre.4.weight f4 [64, 64, 3, 3]
00000000: 7b6a 01bd 8bfc 223c c083 7ebb 5837 c23c
00000010: 4825 c5bc 108d aebc 1e11 b5bc e08f 1a3c
00000020: 2f15 233d 3fe4 293d 33f8 f2bc b043 c8bc
00000030: f035 733c 1acd 20bd e093 213d eb1f 97bb
00000040: 167a 3b3c 1b6b af3c b6fe 7bbc 40b5 56bc
00000050: 7fb7 1dbd b02a e93c b774 0abd ab4c d63b
00000060: 38e6 c43c ebae f43b a097 253c 5eaf fe3c
00000070: c000 c23c 584a 21bd 40ff b2bb 40ef 5e3b
00000080: aeb1 f93c 0ef2 ee3c 00c0 feb8 2b2d 0c3b
00000090: c316 0abd 8b98 c33b 66f6 56bc 8b30 fc3b
000000a0: 4ecc a03c bb45 4b3c 7675 bf3b c6b2 97bc
000000b0: 1ac5 003d 88ee db3c feea 933c 2892 99bc
000000c0: c04e dfbb abe2 903b cb80 463c 7006 203d
000000d0: 3660 1e3d cbfe 3f3c 3690 d83c b494 053d
000000e0: 04f8 083d 800c 443b 5380 b43c 4050 cabc
000000f0: 560e 04ba 3233 07bd 2652 6abc e80b d1bc
00000100: cb26 8fbb 26f0 27bc 2b85 abba d654 903c
00000110: 3b83 c9bc 266b c63c 6bf8 0cbc b67a 223d
00000120: c0da ffbb 46fd 923c 20ce 5cbc 10f1 9ebc
00000130: 0b03 a13b 50ba 01bc 4733 283d 3339 ba3c
00000140: 0069 f33c 1e65 98bc b0b9 50bc 687e d03c
00000150: abca e73c aed0 b33c 5bf0 893c 1097 393c
00000160: 3673 383c db6c 90bc e898 9abc c36b ad3c
00000170: 0ae6 19bd ab57 623a f406 183d 0ee1 f53c
00000180: 1b3d 8cbc 6b62 02bb c8f3 ea3c 6620 bdbc
00000190: d8db ccbc ab66 5fbc 3b9d 503c f019 da3c
000001a0: ee7c 083d 304f 053c 5692 213c 83ab 99bc
000001b0: f461 16bd a6dc 7b3c d75e 233d ab2e 6ab9
000001c0: 7603 63bc 0bff bc3c ab12 423b 50b9 82bc
000001d0: 2cba 0c3d 52d2 053d 2eb9 133d b631 85bc
000001e0: 0023 7fbc c0e5 c7bc f0ea d9bc 0c96 22bd
000001f0: 681c f0bc e044 a63b 469d 253c 80eb c8ba
00000200: de22 9abc 807c 9c3b 06c6 b7bc 7018 4dbc
00000210: 0be7 1b3d 2bcf d63b b2d0 0a3d 2b86 eebc
00000220: 86ab fd3c 5086 e93c 2446 05bd 9681 15bd
00000230: 131a b8bc 9b15 bfbc 1c7e 0a3d e6ce 09bd
00000240: 578a 0b3d 6a1b 023d c0bd 58bc 261a 2f3c
00000250: 1ba0 88bc 1bdc fc3c f67b e2bc c7a7 1f3d
00000260: 062a 473c c7e4 1f3d 9221 083d ab96 5c39
00000270: d6be 40bc f3fa 233d 207c cfbc 4880 993c
00000280: 6221 19bd 48de 24bd db46 b83c 96c7 45bb
00000290: 98b8 d4bc ceb1 a53c 0b81 cbbb 0bab b13b
000002a0: 4045 b2bb 6096 d63c 0057 edba d016 383c
000002b0: 062a 893c 5bfb 9c3c 96eb 20bb 8070 e63c
000002c0: fb6f 2dbc c011 abbb deef c23c 8e53 2abd
000002d0: f6a3 c0bc d34f cc3c b691 22bc 4bfe 02bd
000002e0: 06b9 b23c 206f cd3b 73c9 b9bc 2c1c 19bd
000002f0: f8ed ef3c c8e2 05bd 6b43 31bc 26fa 553c
00000300: fe56 dcbc 2e57 f53c abda 9bb8 607f 65bc
00000310: 1b90 57bc 077e 093d 7e7c 0cbd 00ec c93b
00000320: 8087 ab3b 40d3 1fbd bc81 13bd 1225 01bd
00000330: 56eb ba39 ae42 9c3c f6f3 82bb d6cf 26bd
00000340: eb3c 313b 1a5a 133d 846b 0bbd 80b7 86bc
00000350: 938d 12bd abbd 613b ac74 0cbd b865 d8bc
00000360: 56a0 aa3b d671 8f3a 40c9 923c 481c 003d
00000370: 327f 1b3d d80b 0c3d 9af4 063d 465b 26bc
00000380: b6ca d93c a0e4 193d 2bcb cbbc b00c 0bbd
00000390: 7bdd 4f3c fbb7 9dbc 8bec 033c 48f4 c2bc
000003a0: 1c3c 263d 0c3d 0abd 1b48 f33c 5624 82ba
000003b0: 338f e53c 0685 18bc ffa6 02bd 83fd b23c
000003c0: 5b19 b1bc 36c3 c83b db40 36bc b325 a7bc
000003d0: 6eea 123d 4787 033d f21c 03bd 0076 eebb
000003e0: 8e4a 213d 96c9 cc3b d366 d53c cb31 a73c
000003f0: 56fd a3ba bfc9 17bd f0d7 5a3c 5625 c7ba
-0.03159569 0.009947906 -0.0038835853 0.02370803 -0.024065629 -0.021307498 -0.022102889 0.009433717
0.039815124 0.041477438 -0.029659366 -0.024446338 0.014844403 -0.0392581 0.039447665 -0.004611959
0.011442682 0.021413377 -0.015380552 -0.013104737 -0.038505074 0.028462738 -0.033802714 0.0065399013
0.024035558 0.007467141 0.010106951 0.031089481 0.023681998 -0.03937754 -0.005462557 0.0034017116
0.030480232 0.029168155 -0.000121474266 0.0021389227 -0.033713114 0.0059691123 -0.013120269 0.0076962165
0.01962867 0.012406762 0.00584286 -0.018517863 0.03143797 0.026847139 0.018056389 -0.01874645
-0.0068148077 0.004421552 0.012115668 0.03906864 0.038665973 0.011718462 0.026435953 0.032612517
0.03343965 0.0029914677 0.022033846 -0.02469647 -0.00050375366 -0.033007808 -0.014301812 -0.025518373
-0.004368638 -0.010250127 -0.0013085952 0.017618578 -0.024598708 0.024221014 -0.008604149 0.039667808
-0.0078080595 0.017943036 -0.013476878 -0.019402057 0.004913693 -0.0079179555 0.041064527 0.022732353
0.029713154 -0.018602904 -0.012739584 0.0254509 0.028294882 0.021950092 0.016838243 0.01132752
0.011257937 -0.017630031 -0.01887174 0.021169549 -0.037572898 0.00086342794 0.037116006 0.030014541
-0.017118981 -0.0019895087 0.028680697 -0.023086738 -0.025007173 -0.013635318 0.012732799 0.026623696
0.033322267 0.008136556 0.009861549 -0.018758541 -0.03671451 0.015372431 0.03988537 -0.00022333364
-0.013855806 0.023070833 0.0029613178 -0.015957505 0.034357235 0.03267128 0.036065273 -0.016259056
-0.0155723095 -0.024401546 -0.026601285 -0.039693877 -0.02931042 0.0050741285 0.010108298 -0.0015328974
-0.018815454 0.0047755837 -0.022433292 -0.012518033 0.038062137 0.006555458 0.033890434 -0.02911671
0.030965578 0.028506428 -0.032537594 -0.036500536 -0.02247337 -0.023325732 0.033811674 -0.03364458
0.034067478 0.031764425 -0.013228834 0.010687387 -0.016677907 0.030866673 -0.027647 0.038978364
0.012156015 0.03903654 0.03323514 0.00021036963 -0.011764249 0.040034246 -0.025327742 0.018737927
-0.037385352 -0.040251046 0.022494724 -0.0030178777 -0.025966927 0.020226385 -0.0062104515 0.0054220012
-0.005440384 0.026194751 -0.0018107593 0.011235908 0.016743671 0.019162824 -0.0024554483 0.028129816
-0.01058578 -0.005220622 0.023796018 -0.04158359 -0.023515683 0.024940407 -0.0099224355 -0.031980794
0.021816742 0.0062693506 -0.022679066 -0.037380382 0.029288277 -0.03268698 -0.010819296 0.013060128
-0.02689695 0.029948797 -7.431706e-05 -0.014007419 -0.013156916 0.033567455 -0.034298413 0.0061621666
0.0052346587 -0.039019823 -0.036012396 -0.031529494 0.00035652024 0.019074764 -0.0039963676 -0.04072555
0.0027044367 0.0359746 -0.03403808 -0.016444921 -0.035779547 0.0034445326 -0.034290954 -0.02641569
0.005207102 0.001094396 0.01791823 0.03127697 0.0379631 0.034190983 0.032948114 -0.010153597
0.026585918 0.03757155 -0.024877151 -0.033947647 0.012687082 -0.019252768 0.008052002 -0.023798123
0.04058467 -0.033749625 0.029697469 -0.0009929042 0.028022384 -0.009309059 -0.03189754 0.0218494
-0.021618536 0.0061267866 -0.011123861 -0.020403719 0.0358681 0.032111432 -0.032010026 -0.0072772503
0.03937774 0.006249617 0.026050007 0.020409485 -0.0012511413 -0.037057634 0.013357148 -0.0015193622

pre.4.bias f4 [64]
00000000: a842 a03c 68dc e33b 5685 713a c6d6 68bc
00000010: 2ac3 823c 2831 353d 2007 bb3b 80a8 2e3d
00000020: f2d6 bf3c fb02 723c 37ab e0bc 65b3 043d
00000030: c0b4 9ebc 03c3 803c ec4f 0cbc 49b4 19bd
00000040: 1f24 f33c 5ddd cabc 88ae bc3c 21f6 f5bc
00000050: 9044 ebbc 413b ac3c 1b70 1cbd 26f1 4ebc
00000060: 001b bfbc c6a1 4ebc 8b4b 843b 1a72 eabc
00000070: 3164 20bc 9a58 e13c 41fb b03c 8893 63bc
00000080: f2b1 3f3d 9ee5 973c 5924 34bd 1fc1 91bc
00000090: b040 d8bc 176b c3bc 050b af3c 13c5 cb39
000000a0: f73b c63c fc52 163d aa5d ddbb 10e3 67bc
000000b0: 0bf5 51bb 72e6 073a 3957 003d b260 37bb
000000c0: fd72 543c f532 da3c e02a eb3c bb29 13bd
000000d0: 3216 9d3c 9cee 123d 6b20 f4bb d08b 993c
000000e0: 1ad2 2d3c 820b 03bd 8573 85bc a794 01bd
000000f0: cb2e 283b 0d76 1a3c b7df 3e3c 6573 4ab9
0.019563034 0.0069537647 0.0009213289 -0.014211362 0.015962202 0.044236332 0.0057076365 0.042641163
0.023417924 0.014771218 -0.027425392 0.032397646 -0.019373298 0.015717989 -0.008563977 -0.03752545
0.02968031 -0.024763757 0.023032442 -0.03002459 -0.028719217 0.021024348 -0.03819285 -0.012630736
-0.023328304 -0.012611812 0.0040373257 -0.028618861 -0.0097895125 0.027508069 0.021604182 -0.013890155
0.04680056 0.018542107 -0.043979976 -0.017792283 -0.026398033 -0.023854775 0.02136756 0.0003886601
0.024198515 0.036700234 -0.0067555504 -0.014153257 -0.0032036926 0.00051841803 0.031333182 -0.002798122
0.0129668685 0.026635626 0.028706968 -0.03592847 0.019175623 0.035872087 -0.0074501536 0.018743426
0.010609174 -0.031993397 -0.016290436 -0.031635907 0.0025662656 0.00942756 0.011650017 -0.00019307209

post.0.weight f4 [32, 64, 1, 1]
00000000: 04d0 7ebd 9528 093d 072b 5d3d db51 553c
00000010: d714 043d fd2d ca3d 1db8 a63d 9f5e fc3d
00000020: 4c16 97bc 3d3f 19bd 6d86 403c e8fd 83bd
00000030: 0880 0b3d 88f4 b23d 3cb0 873d 275b 50bc
00000040: 1685 15be ce75 6cbe 4660 bd3d f0d7 f63d
00000050: db1c 39be 6d49 46bc a571 7bbb a3f5 c03d
00000060: 4930 32be 6564 823d 10bb d73c a78a 46bd
00000070: 314b 65bd f238 0a3e 715f a3bd 59b1 043e
00000080: 3418 d2bd e005 2ebc 7b83 d33b 33dc 423e
00000090: efdf 733e 230c 05be f616 27bd 5191 5bbe
000000a0: 8d90 81bc 3790 cabd 5256 52bd ca25 bebd
000000b0: 3aa7 c53d d04d 653e 6bd6 2fbe e1db 043e
000000c0: 2d63 5fbe d226 953b de9a 063e d47f c93d
000000d0: a901 0cbe d289 57bd d85c 8b3d 158f 05bc
000000e0: 6cd1 6f3c df8d 913d c10f d73c 9c62 8a3c
000000f0: 0801 043e 930c 123e 1830 ab3d d627 613d
00000100: f7aa a43d fc41 d5bd 6b9e 673e 7f74 883d
00000110: c016 e93d 16c8 20bd d9b2 113d 1256 b03e
00000120: cb9c 013d b746 fcbd 8e69 d83d c52d 0dbe
00000130: 6fc9 b03d c4a5 d7bd 7de4 703d 254a d2bd
00000140: ca01 803d d966 77be 2cfc f93c c066 dd3c
00000150: 9f8f b0bc 1261 4dbd 3cec bcbd afad ed3d
00000160: 9bff b13c 5e6a 023e f8ee 14bd cf42 89bc
00000170: 25d6 13be f6a6 113e 2c2e cabc 36af 883e
00000180: 2b26 033e 3fd6 373e ee29 7ebe 58f7 1dbd
00000190: 221b 4d3e 4052 933e b4d9 413e bc33 93be
000001a0: 6c72 fbbd 0b2d 33be db3e 123e 534d a3be
000001b0: b728 ef3d fde6 c0bd dc11 98be 8ce9 cb3d
000001c0: 7447 72be 29e4 9abe 1f36 35bd a11b 433e
000001d0: a929 78be 76d4 303e 8ab0 85bd 8913 693e
000001e0: a71b 4dbe c432 f7bd 484a 10be 5972 0e3e
000001f0: 1ad1 a73e b18e c13e 6930 213e 9654 e6bd
00000200: 7091 1e3d 2fd4 b2bd 4ddd 2e3b 1341 4c3c
00000210: 01eb 613d 4401 133d 8490 0b3d 1edb b3bd
00000220: c141 bdbb 65f5 0fbe 6beb 633d 771a 97bd
00000230: a54f 8e3d 05e0 c9bd b664 a7ba 5a6c aabd
00000240: 39cc ae3d 8a12 fb3d f7cf 823c 14ae d2bc
00000250: 3354 833c 97ad 2dbd 9a57 a3bd a9dc 4e3d
00000260: 48d8 423d fc4f 593e ccac 243b 817d 2fbd
00000270: e35c 7abd 80c0 883d d8b9 833d 271c 603d
00000280: 3255 753c 6b27 f53d 7fbf 443b 9230 c1bd
00000290: 5716 83bd 6064 313e cbfa 09bd 66e8 c33c
000002a0: ac4d 063e 168c 1c3d caf0 213e 8b8f bfbd
000002b0: ddb4 603e 4f8e c5bd b5b0 993d bb6d b8bc
000002c0: 0a15 6b3d 0582 12be 7166 5ebe 952e 0bbd
000002d0: 8949 2e3d 56d6 dbbc 7cd2 81be 9dfa 9e3e
000002e0: a1c2 68bd 54ad 56be b136 a03d b79b f3bc
000002f0: cb2e 133e 5aa4 263d 9fff f03d e29e 0bbe
00000300: 039f 923d 21d8 a8bd c572 993c 8eaf 2e39
00000310: 537b 02bd 8d72 febc fdfb 6abd 6fc6 8a3d
00000320: 4983 9dbd f45b d9bd 7822 9abd 21d0 ed3d
00000330: a6bf a3bc c057 12bc 5cea 8a3c a3ae b6bd
00000340: cb50 8e3d 7614 773e 1c81 b13d f0e0 fa3d
00000350: 1c91 b23d 143d 8dbd 1271 583d 882e 403d
00000360: 92c3 9dbd 4952 d53d 587c 49bd c156 003e
00000370: 4166 d9bd d493 f33d 8d26 d2bd b932 ca38
00000380: a9e8 1d3e 0186 61bc 1d48 82bc 1644 2fbe
00000390: 3a03 89bd 65c1 f43d 5350 1e3e e861 ac3d
000003a0: c247 d63d f398 3a3e b79a c73c 4821 883d
000003b0: 7013 f63d a22c 83be 76c4 383c f5d8 0a3d
000003c0: 35ed d53d c86d 27be d321 af3c 0ed9 3c3e
000003d0: 3101 a63c 41f4 913d 3068 75bc 86c4 6b3e
000003e0: ce00 41bc fca3 00be 6906 42bd a63a a1bd
000003f0: d49a a6bd 3cc8 323d 0a1d 343d 94ea 81bc
-0.062210098 0.033485968 0.053996112 0.013020004 0.032246437 0.09872053 0.081405856 0.12322735
-0.01844325 -0.037413824 0.0117508 -0.06444913 0.034057647 0.08738047 0.06625411 -0.012717045
-0.1460155 -0.23091814 0.09246878 0.120529056 -0.18077414 -0.012102467 -0.0038367298 0.094218515
-0.17401232 0.06366805 0.026334316 -0.048472073 -0.05597991 0.13498285 -0.079771884 0.12958278
-0.10258523 -0.010621518 0.0064548827 0.19029312 0.23815893 -0.12992911 -0.04079338 -0.21442153
-0.015815997 -0.09890788 -0.051351853 -0.092845514 0.096510366 0.22392964 -0.17171638 0.12974502
-0.21815176 0.004551747 0.13145015 0.098388344 -0.13672508 -0.05262167 0.06804818 -0.008151789
0.014637332 0.07107138 0.02625263 0.016892724 0.12891018 0.14262609 0.083587825 0.05496963
0.080404215 -0.10412976 0.22619025 0.06662845 0.11381292 -0.039253317 0.035570953 0.34440666
0.03164367 -0.12318175 0.10567008 -0.13786991 0.086321704 -0.10529664 0.058811653 -0.10268048
0.06250341 -0.24160327 0.030515753 0.027026534 -0.021552859 -0.0501414 -0.09224746 0.11605393
0.021728327 0.12735888 -0.03636071 -0.01675549 -0.14437158 0.14223847 -0.02468022 0.26696175
0.12807529 0.17952822 -0.24820682 -0.038565964 0.20029882 0.2877369 0.18930703 -0.28750408
-0.122776836 -0.17497651 0.1428179 -0.3189493 0.116776876 -0.094190575 -0.29701126 0.09956655
-0.2366007 -0.30252197 -0.044241067 0.19053508 -0.24234642 0.17268547 -0.06527813 0.22761358
-0.2003008 -0.1207023 -0.14090836 0.13910808 0.3277672 0.37804177 0.15741123 -0.11246602
0.03871292 -0.08731877 0.0026682199 0.012466687 0.055155758 0.03588988 0.034073368 -0.08782028
-0.0057756607 -0.14058454 0.055644434 -0.07378095 0.06948785 -0.098571815 -0.0012771103 -0.08321448
0.08535046 0.122593954 0.015968306 -0.025717773 0.01603136 -0.042401876 -0.07975693 0.050503407
0.047569543 0.21221918 0.002512741 -0.0428443 -0.06112374 0.066773415 0.06431931 0.05471435
0.014973925 0.11970409 0.0030021367 -0.09433092 -0.06400745 0.17323446 -0.03368644 0.023914527
0.13115567 0.038219534 0.1581451 -0.093535505 0.21943994 -0.09646284 0.07504407 -0.022513261
0.05739311 -0.14307411 -0.21718766 -0.03397997 0.042550597 -0.026835602 -0.253559 0.31050578
-0.056826238 -0.20964557 0.078229316 -0.029737337 0.14373319 0.04068408 0.11767506 -0.13634828
0.07159235 -0.08244348 0.018731484 0.00016659332 -0.031855892 -0.031060481 -0.05736922 0.067761295
-0.07691056 -0.10613242 -0.07526106 0.11611963 -0.019988846 -0.008932054 0.016957454 -0.08920028
0.06949004 0.24128899 0.08667204 0.12249935 0.08719084 -0.06896415 0.052842207 0.046919376
-0.07703318 0.10416085 -0.04919085 0.12533094 -0.106152065 0.1189343 -0.10261259 9.6415584e-05
0.15420784 -0.013764859 -0.015903527 -0.17115816 -0.066900685 0.119509496 0.15460329 0.08417112
0.104629055 0.18222408 0.024365766 0.06646973 0.12015426 -0.2561999 0.011277309 0.033898313
0.10445634 -0.16350472 0.021378433 0.18442175 0.02026424 0.07126666 -0.0149784535 0.23024186
-0.011779977 -0.12562555 -0.047369394 -0.078725144 -0.08135 0.04364799 0.043973006 -0.015858926

post.0.bias f4 [32]
00000000: 2ceb 543c 4653 c43e e2ce 333e 658a acbc
00000010: 1fd5 fabd 6349 043e a409 af3e b7c8 a73e
00000020: 7f4f 843e bf8a a13d 1c21 cbbd 5044 463e
00000030: 9ad8 7c3c ac9d 183e 4009 3f3d da97 2a3c
00000040: 66b2 fd3e a6e6 10be 5e9c cd3e 9155 02be
00000050: ff5e 9b3e 4dc8 b13e 42e2 573c 93b2 ba3d
00000060: ba7a 043f 92f7 af3e 35d9 8e3d e4ae df3d
00000070: e7dd 423d 47e2 9a3e 3828 d43e 9ff2 813d
0.0129955225 0.38344783 0.17559388 -0.021062085 -0.12247681 0.1291862 0.34187043 0.3277032
0.258419 0.07887792 -0.099184245 0.19361997 0.015432501 0.14903897 0.04663968 0.010412181
0.4955017 -0.14150485 0.4015836 -0.12727953 0.30345914 0.3472313 0.013176503 0.091160916
0.51749766 0.3436857 0.06975023 0.109220296 0.047574904 0.3025076 0.41436934 0.063451044

post.2.weight f4 [3, 32, 1, 1]
00000000: 222f 933d 725e 1c3e d405 0abe e7e8 02be
00000010: 8df4 96bd ad0e 31be b41b c6bd c0d2 7f3e
00000020: 98a7 0cbe a7e9 7dbd a800 2d3d 5f1f 4dbc
00000030: bece 8b3e 0812 c0bd 44c3 06be bc44 49be
00000040: acf1 803c 454e 11be 4b5d af3d a087 0bbe
00000050: 7dc1 07be b6bd 2b3e bd72 8f3d b292 903d
00000060: 18c9 8e3d f3a0 343e 7b3d 87bd 7d7d 123e
00000070: e95c 8e3d 8629 c5bd b075 603d 6ba2 3cbd
00000080: ede6 d43c fd70 1ebe a9b4 05bd a9df 06be
00000090: a56a 933c d2b5 9bbc fcc5 53bd 9a09 62be
000000a0: af7f c33d 6ab5 633d b66f d13d 6ce4 f23d
000000b0: 5db3 46bc 8a14 06be f652 1fbd fc5b 053d
000000c0: 24bf f5bd 6114 babc e937 0abe 52c7 353d
000000d0: 624f 023a 8516 61bd 06ce c53d 74bd 783e
000000e0: 2c7f d3bd 9da8 97bd 6cee 133e c526 853d
000000f0: a19a fe3d d889 31be 2695 3abe b984 6d3d
00000100: ba8e 13bd e5a3 aabd 4a60 ba3d 1d37 69bd
00000110: ea37 9c3d fa90 523e e8f2 d23d f724 093e
00000120: f6ec aabd c109 18be d89e 7e3d d8a3 2cbd
00000130: 84d6 9cbd aa48 c3bd 577d 43be 7cf1 24be
00000140: 14c0 803d 8d6d 1ebd f537 2a3e 97ef b53b
00000150: 6763 86bc a971 1f3d 3025 e73c 9cea d83d
00000160: e565 0a3e 4374 a1bd 3b5e d83d 8237 36bb
00000170: fc12 1fbe 25fc 103e ac85 363d 5454 c3bd
0.07186724 0.15270403 -0.13478786 -0.12784158 -0.07370863 -0.17290755 -0.09673253 0.24982738
-0.13735807 -0.061990406 0.042236954 -0.0125196865 0.2730617 -0.09378439 -0.13160425 -0.19655126
0.015740238 -0.14190014 0.08562716 -0.13625956 -0.13257404 0.16771588 0.070043065 0.0705923
0.06971949 0.17639522 -0.06603523 0.14305682 0.06951315 -0.096270606 0.054799736 -0.04605333
0.02598902 -0.15472789 -0.032642994 -0.13171257 0.017995188 -0.019007597 -0.051702484 -0.22073975
0.09545838 0.05559293 0.10226385 0.11859974 -0.0121277245 -0.13093773 -0.038897477 0.032558426
-0.11999348 -0.022714796 -0.1349789 0.04437954 0.00049709354 -0.054953117 0.096584365 0.2429102
-0.103269905 -0.07405207 0.1444642 0.06501535 0.12431837 -0.1733774 -0.18220958 0.057987902
-0.036024787 -0.08332042 0.09100397 -0.056937326 0.07627852 0.20563117 0.10300237 0.13393007
-0.08345978 -0.14847471 0.062163204 -0.04214844 -0.07658103 -0.09535344 -0.19090782 -0.16107744
0.06286636 -0.038678695 0.16622908 0.005552243 -0.01640482 0.038926754 0.028215975 0.10591623
0.13515432 -0.07883503 0.10564848 -0.0027804081 -0.15534586 0.14158686 0.044561073 -0.09537569

post.2.bias f4 [3]
00000000: b8dd b13d 65b0 debe 06ea 083f
0.086848676 -0.43493953 0.5348209

post.4.weight f4 [3, 3, 3, 3]
00000000: 5c2c 633e ed38 053e 9cc5 b23d 4476 713e
00000010: 6034 8f3c 0de0 9c3d 2e69 643d 10e7 ba3c
00000020: 1429 0c3c 086b 10be b3bb 2cbd 6415 823b
00000030: ae17 46be f5b7 1fbe b4f4 bf3b dcec 9ebc
00000040: db35 3d3d 9554 47bd ef58 68bd d0c1 b73d
00000050: 1be6 35bc ce29 dbbd 1d2d 013e 9d3a fabd
00000060: e6d3 11bc b922 3c3c 99c1 edbd e94e ce3d
00000070: 34ab d3bd d0c0 233d 5799 cb3d d31f 583e
00000080: b33a c9bd 9a65 74bd 9525 dabd 6301 01bd
00000090: 7f56 343d 274c 1cbe 5bdc fc3b 5d4c a5bc
000000a0: 7672 24be 66f6 753d 3cc6 50bd 4e32 853d
000000b0: f798 2abd 85ad 253e 05c7 b7bb d1f0 203e
000000c0: c16f 3f3d 84f8 6a3c 5a2e c9bd 9e0f e03d
000000d0: 9bfb c7bd 5c6c 923e c55b ed3d d711 3fbd
000000e0: 10b9 25be 68ae 49bd 7eda 283e cc38 b7bd
000000f0: 2a81 fbbd 28c4 4c3d 45b3 5ebe ef31 a6bd
00000100: 4ac1 11be 527f 07be f28a 1ebc fb95 a3bd
00000110: af0c dbbc 878a 843c 77e1 3bbe c32a 5c3d
00000120: 29dd 1b3c ce3c f1bd e676 933c 84cd e13d
00000130: 2987 de3d 41b2 3d3e a63c 1cbd 77a5 e03d
00000140: 99f2 38be
0.2218489 0.13009997 0.08729097 0.23580271 0.017481029 0.07659922 0.05576437 0.022815257
0.008554716 -0.14103329 -0.04217119 0.003969835 -0.1934497 -0.15597518 0.0058580283 -0.019400053
0.04619394 -0.048664648 -0.05672544 0.08972514 -0.011102225 -0.10701333 0.12614866 -0.12218211
-0.008900618 0.011482888 -0.116091914 0.10073645 -0.10335389 0.039978802 0.09941357 0.2110589
-0.09825649 -0.059667207 -0.106516995 -0.031495463 0.0440278 -0.15263425 0.007716698 -0.020178014
-0.16059288 0.060049437 -0.0509703 0.065037355 -0.041649785 0.16179474 -0.005608442 0.15716864
0.046737436 0.014341477 -0.09823294 0.10940479 -0.09764787 0.28598297 0.11589769 -0.046647873
-0.16183877 -0.049238592 0.16489598 -0.0894638 -0.122804955 0.049991757 -0.21748073 -0.08114993
-0.1423389 -0.13232163 -0.009676682 -0.07987591 -0.026739446 0.016179336 -0.18347727 0.05375172
0.009513178 -0.11779176 0.018001031 0.11025527 0.108656235 0.1852503 -0.038143776 0.1096906
-0.18061294

post.4.bias f4 [3]
00000000: 713b 243e 3ac0 b03e cffa 023f
0.160383 0.34521657 0.51163954

post.6.weight f4 [3]
00000000: 57b7 8d3f 35b9 703f 038f 643f
1.1071576 0.94032604 0.8928072

post.6.bias f4 [3]
00000000: 8917 dfbb 98a0 04be 1516 9b3c
-0.0068082255 -0.12951887 0.018931428

post.6.running_mean f4 [3]
00000000: a3db cd41 797a 5841 f2fa 3741
25.732244 13.529901 11.498766

post.6.running_var f4 [3]
00000000: 8101 8342 d55d 5441 d242 d741
65.50294 13.272908 26.907627

net.0.theta_phi.bottleneckBlock.0.weight f4 [64, 32, 1, 1]
00000000: 6c8b 803c dc2d 983d daee bf3d 1cae c0bd
00000010: 5c9f 4bbc b912 8f3c 823b 3d3e 13b2 e33d
00000020: 6246 5c3c 9b5f 47bd dc2b 58bd 9112 e8bd
00000030: b991 18bc f1b8 043d bf75 9d3d 6004 d9bc
00000040: 9760 a3bd 51da 8c3d fd2a cbbd 7c35 e53d
00000050: a818 853d 74f3 9f3c 124d 3abd 804e f5bd
00000060: d6d5 433d 13ff 003d 5ba7 7e3c f50a 30be
00000070: 0246 a8bd e231 36bd a46a fcbd 7675 eebd
00000080: ce94 bfbc df27 aabc 234a 36bd 56c3 243c
00000090: 7a8e 003e fdff 883d c9a2 4c3c 8282 eabd
000000a0: 5612 1bbe 8f47 e6bd 9446 4e3d b399 07be
000000b0: fc1b dfbd f9e5 9ebb 2eaf e83c 3bf4 80bd
000000c0: 6924 f13d 9422 42bd 58e2 f2bc 62a4 493e
000000d0: 12f9 773d eea8 01be 4e36 7dbd 024e 963d
000000e0: f226 2dbe c3e9 133e 8f20 393e 5a72 22be
000000f0: 4723 8cbc efee 3a3d bc1f 33bd b3ec 1cbd
00000100: ce4d 0abe 8708 793d 8bb8 2dbe ff4f 87bc
00000110: 6eb0 873c d8b9 c4bd a93e a83d 7b98 96bb
00000120: 4630 17be 48e6 7bbc dbbd 253b d26a 3cbd
00000130: da03 5d3d 3294 053e 7f39 923d 5b9e 533d
00000140: 14d0 18be 3e05 0ebe 44c9 cb3d 8640 00be
00000150: 38ed 8c3c 90f0 c83d f234 0b3e fdbd 8e3d
00000160: 56aa c53d ac05 983c b144 1f3e d97a 783c
00000170: 6990 9cba 905b 633d c635 813d a50a af3c
00000180: 1c80 ee3d 215b ff3d a1c3 11bd 5f37 0c3e
00000190: e4fe 7dbd 617b 843d f67d f9bd 0c6d c8bd
000001a0: a937 fd3d 9ddd 7e3d 11a1 023e 368e 33bd
000001b0: 9e22 7fbd 0f09 063c 2fea 32bd 307c 38bd
000001c0: e261 e8bc 272e 63bd 881f 1dbd a486 a33d
000001d0: 5e0a 27bd cf11 13be 2496 613d 724c b93d
000001e0: 0d76 b43c ce6d 073d b381 ac3d 3e49 14be
000001f0: c285 123e fed5 e03d 604d 403e f665 213e
00000200: 72be dc3d e6aa 0cbe ea1a 353e 49cf 0c3e
00000210: b350 3c3d fe27 08be bfbd 193d 79a6 053e
00000220: 9bb7 c2bd df7a fe3d 8267 d43d b20f 243e
00000230: 3142 11be d285 34be 3235 40be 2fa3 0b3e
00000240: 5962 883d ba4f d8bd 0b03 79bd 320e 403d
00000250: 4f87 143d 534c 26be daa6 a2bd d576 e9bd
00000260: 14cc 91bc 1941 cfbd e8ce ba3c 8450 17be
00000270: 8897 a53d d2c4 8dbd 4c3b 13be f7ca 3a3e
00000280: eafe 35bd f72c 043e 7447 023e e0dc 803b
00000290: 68bb a8bc 7bd4 eb3d b1e1 923b 1d4c b83d
000002a0: ab9a 0e3d 2f13 b6bd d9cb ff3d 4a7f 6e3d
000002b0: 5978 023e 8976 de3c 449f a63d 4da7 b7bc
000002c0: 487a c8bd f8b9 0d3d 91f1 293e e5f1 2dbe
000002d0: 2cfd b23b dbb5 703d 71c1 e5bd 890c 4bbd
000002e0: ad1b a93c 2b05 363e e2e2 0f3d 7793 32be
000002f0: a5ac 263e 403b 91bd 7c39 10bc 9e11 873d
00000300: 88d5 ed3d 7228 083d 1414 813d e091 49bc
00000310: 8400 ab3d 71ab 123d 052c 7cbd 2679 043e
00000320: 2210 e03c c551 73bd 6062 433e 95ac 883d
00000330: dd30 82bd 2233 f2bd f1b1 9bbd 2a7b 113e
00000340: 54da 9cbc 7640 803d 1979 463e de71 e9bd
00000350: 4445 38be 80e5 ff3c debe 31bd 898f ddbc
00000360: 05b2 ae3d 0bc6 c9bc 205e 11be 00f5 27bc
00000370: 429e 17be 3246 bcbd 3f88 d6bd 8fe0 57bd
00000380: ac87 5a3c 462d d33d 163f f2bd 1b51 68bd
00000390: 3e3d efbd 9420 07bd 5b1c e33d 9867 3e3e
000003a0: 890d 0f3e eed8 00be 5a33 c83d a3c1 edbd
000003b0: 9ea7 2f3e 5fb1 853d fdb3 2b3e 9404 afb9
000003c0: d7a2 efbd 2503 a23c 52ab d2bc 1802 20be
000003d0: 4a71 93bb d22c d4bb 418c 033e 1e54 b73d
000003e0: 99ff 02be 5874 a83d b44b 133e b517 3d3e
000003f0: 7f26 00be 2775 a13d a31d 9ebd b02b 8d3d
0.015691482 0.07430622 0.09371729 -0.09408209 -0.012428131 0.017464982 0.18479732 0.11117949
0.013444515 -0.04867516 -0.052776203 -0.11331666 -0.009312087 0.032402936 0.07688474 -0.026491344
-0.079774074 0.06877578 -0.09920309 0.11191842 0.064988434 0.019525267 -0.045483656 -0.11977863
0.04781135 0.031493258 0.01554283 -0.1719168 -0.08216478 -0.044481166 -0.123250276 -0.11643498
-0.023386385 -0.020770965 -0.044504296 0.010056337 0.1255435 0.06689451 0.012489983 -0.11450674
-0.15143713 -0.112441175 0.050360277 -0.13242225 -0.108940095 -0.004849192 0.028403845 -0.06296583
0.11774523 -0.047396258 -0.029648945 0.19691613 0.060540266 -0.12662098 -0.061819367 0.073390976
-0.16909388 0.14444642 0.18078826 -0.15863934 -0.017106665 0.04563802 -0.043731436 -0.03831167
-0.13506243 0.060799148 -0.16964929 -0.016517637 0.01656362 -0.096057594 0.082150765 -0.004595814
-0.14764509 -0.015374728 0.0025290165 -0.04600031 0.05395875 0.13044813 0.07139873 0.05166469
-0.14923126 -0.13869187 0.09950498 -0.12524614 0.017202958 0.09811509 0.13594416 0.06969831
0.096516296 0.018557392 0.15553547 0.015166008 -0.0011944893 0.055507243 0.063090846 0.02136738
0.11645529 0.12468553 -0.035586957 0.13692997 -0.06201066 0.06468845 -0.12182228 -0.09786424
0.12364132 0.062223066 0.12756754 -0.043836795 -0.062288873 0.008180871 -0.043680366 -0.04504031
-0.028366987 -0.055463936 -0.03836015 0.07984665 -0.04078137 -0.14362262 0.055074826 0.09047784
0.022028947 0.033063702 0.08423176 -0.14481065 0.14308837 0.10978316 0.18779516 0.15761551
0.10778512 -0.13737068 0.17686048 0.13750948 0.0459754 -0.13296506 0.03753447 0.13051786
-0.09507676 0.124257796 0.10371305 0.16021612 -0.14185406 -0.17629173 -0.18770292 0.13636468
0.06659383 -0.10562082 -0.060793918 0.046888538 0.036261853 -0.16240053 -0.07941981 -0.113996185
-0.017797507 -0.10119838 0.022803739 -0.14776808 0.08085543 -0.06922306 -0.14378089 0.18241487
-0.044432558 0.12907778 0.1272257 0.0039325804 -0.020597175 0.11515137 0.004482471 0.089988925
0.03481547 -0.08890378 0.12490053 0.05822686 0.12741221 0.027156131 0.08135846 -0.022418642
-0.09788948 0.03460118 0.16596057 -0.16986807 0.0054623093 0.05876718 -0.11218537 -0.0495725
0.02064308 0.17775409 0.03512848 -0.17439066 0.16276796 -0.07091379 -0.008802768 0.06595157
0.116129935 0.033241697 0.06302658 -0.012302846 0.08349708 0.03580803 -0.061565418 0.1293684
0.027351443 -0.059404153 0.19080496 0.066735424 -0.06356976 -0.11826159 -0.07602299 0.1420714
-0.019147076 0.06262295 0.19382133 -0.113986716 -0.17995173 0.031237364 -0.043394916 -0.027045982
0.08530048 -0.024630567 -0.14196062 -0.010251284 -0.14806464 -0.09193076 -0.10475206 -0.05270439
0.013338011 0.103113696 -0.11828439 -0.056717973 -0.11681603 -0.032990053 0.11089393 0.18594205
0.13970007 -0.12582752 0.097754195 -0.11609199 0.17153785 0.065279715 0.16767879 -0.00033382012
-0.11700981 0.01977689 -0.025716458 -0.15625799 -0.004499589 -0.0064750696 0.12846471 0.08951591
-0.12792815 0.08225316 0.14384347 0.18466075 -0.12514685 0.07883673 -0.077204965 0.06893098

net.0.theta_phi.bottleneckBlock.1.weight f4 [64]
00000000: 8415 703f aea6 813f 1362 763f e93d 653f
00000010: 36dc 7c3f 0aaa 793f 7a17 733f 958d 723f
00000020: eede 733f 3df2 683f 6253 823f 34c2 7c3f
00000030: 0447 853f 0207 803f 468d 823f 6d5f 5b3f
00000040: e587 6b3f af39 783f 7858 6f3f fc9d 7f3f
00000050: b5e4 633f e3b5 7e3f a01b 793f f0eb 6e3f
00000060: d846 703f ae1b 7a3f af4e 793f ff2b 773f
00000070: df22 513f 3188 7b3f 3a15 763f d9ed 683f
00000080: e8e8 7e3f d159 7e3f 618d 813f f765 803f
00000090: 4061 7e3f 4248 803f 6b42 7a3f 4da2 6e3f
000000a0: ab3b 7b3f 5783 783f 004b 7b3f 7dce 5b3f
000000b0: 84a7 723f fa9e 7c3f 0252 5f3f 37ba 613f
000000c0: b3f6 7d3f eafe 733f a3dd 813f 79e2 813f
000000d0: 7f9e 753f d69d 5d3f 0ff8 7a3f 1b1e 803f
000000e0: c1a0 733f 716f 823f 3606 7d3f 8050 733f
000000f0: 3fa2 723f c1ba 6e3f 7c3d 743f 6999 813f
0.9378283 1.0128992 0.962434 0.8954759 0.98773515 0.97525084 0.949577 0.9474729
0.9526204 0.90994626 1.0181696 0.9873383 1.0412297 1.0002139 1.0199363 0.85692483
0.92004234 0.9696302 0.9349437 0.9985044 0.89020854 0.9949629 0.9730778 0.9332876
0.938581 0.97698486 0.97385687 0.9655151 0.81693834 0.98254687 0.9612614 0.90987927
0.99574137 0.993558 1.012127 1.0031117 0.9936714 1.0022051 0.97757596 0.932164
0.9813792 0.9707541 0.98161316 0.8586195 0.9478686 0.9868008 0.8723451 0.88174766
0.9920456 0.95310843 1.0145763 1.0147239 0.9594497 0.86568964 0.9803476 1.0009187
0.95167166 1.0190259 0.988376 0.9504471 0.9477882 0.93253714 0.9540632 1.0124942

net.0.theta_phi.bottleneckBlock.1.bias f4 [64]
00000000: 7909 8f3d 1280 f73c f293 143d 816a 79bd
00000010: 59c8 9f3c 2dca b03c d09c 1e3d 3622 363d
00000020: 9f9f 283d 2e48 8d3d 4de7 203c e674 c73c
00000030: 8a0e 04bc 21ea 203c dbbe 2f3d 3633 bf3d
00000040: cbb9 613d bc58 83bc cc1d 713d 8b08 1fbb
00000050: e6f4 913d 2c2e 4e3a 5df4 e03c b22e ec3c
00000060: df94 553d 027f 253d 8685 e83c 5717 053d
00000070: e378 0d3e 013b 123d 412f db3c a9fd 953d
00000080: a9c0 783b 95df bb3c 6014 163c b49b f83b
00000090: ea72 113c 9a41 123c f5e7 863d dadb d13d
000000a0: f7d9 d93c 0d7a 9d3c cf12 d93c 7cf1 d63d
000000b0: 1e87 113d 0eb1 b63a d33f b53d f52a 963d
000000c0: acf0 853c 6edf 0c3d f076 52bc af35 b63b
000000d0: 994b 24bc 3b74 c43d 8253 473b dba1 a43a
000000e0: f312 2f3d 9e13 393c 3a90 923d a8f0 8b3d
000000f0: 0f8f 173c cb36 8a3d 6cf2 b53c ac0d 22ba
0.06984229 0.030212436 0.036273904 -0.060892586 0.019504713 0.02158078 0.038723767 0.04446622
0.04116785 0.06898533 0.009820771 0.024347734 -0.008060107 0.009821446 0.042906623 0.093359396
0.055108827 -0.016033523 0.058866307 -0.0024266567 0.07126789 0.00078651565 0.027460271 0.02883086
0.052143928 0.040404327 0.028383981 0.03249296 0.13815646 0.0357008 0.02675593 0.073237725
0.0037956631 0.02293376 0.009160131 0.0075869206 0.008877495 0.008926773 0.06587211 0.102470115
0.026593192 0.019223237 0.026498226 0.10495278 0.03552925 0.0013938264 0.08850064 0.07332412
0.016350113 0.034392767 -0.01284574 0.005560599 -0.0100277895 0.09592482 0.0030414765 0.0012560444
0.04274268 0.011296181 0.07156415 0.06833011 0.009250416 0.06748732 0.022210322 -0.0006181847

net.0.theta_phi.bottleneckBlock.1.running_mean f4 [64]
00000000: 1ccb 78bd 905d e53d a583 21bc d9ae 293e
00000010: 3981 e93d e4ee 043d 3c38 ccbc 0ef9 3ebd
00000020: 6018 80bc ce46 283c c4f7 7d3d 31cd 243c
00000030: 43b1 033d 446e babb 450b 6c3d cd41 44bc
00000040: 335b bbbc 7c90 af3d fc6e 06bc 0636 a3bc
00000050: 8bcf 52bd 5789 69bd eb39 2fbc d27b 833c
00000060: b8f7 3bbd 30c2 acbc ed95 0a3d d183 67bb
00000070: 435d 183c 7a3f 1cbd 765b 433d 6f47 a0bc
00000080: f94c e93c d612 8abc 8e6f b4bd 457b 8c3c
00000090: 6793 5dbd a249 aa3b d938 31bd 3781 a7bc
000000a0: 7571 733d 8d7c 8e3b 56c2 39bc 70d1 d1bb
000000b0: 5473 02bd 9002 05be 87a7 0a3d 36c3 91bd
000000c0: a791 9e3d fecb ccbc f6a1 3c3d 8aff fcbb
000000d0: 8d73 04bb dcee 3d3d b054 843d 84e3 553d
000000e0: f3b6 bcba 56db 47bd 5193 7f38 74a7 f83c
000000f0: 7f5b 1bbc 3519 333d c808 233d de63 f1b9
-0.060740575 0.11199486 -0.009858047 0.16570605 0.114016004 0.032454386 -0.024929158 -0.046624236
-0.015636623 0.010270787 0.062003866 0.010058687 0.03215147 -0.005689414 0.057627935 -0.011978579
-0.022870636 0.0857248 -0.008205172 -0.019923221 -0.05146746 -0.057015743 -0.010694961 0.016050253
-0.04589054 -0.02108869 0.033834387 -0.0035326371 0.009299579 -0.038146473 0.047694646 -0.019565312
0.028479086 -0.016854685 -0.0881034 0.017148623 -0.054095652 0.005196766 -0.043267105 -0.020447357
0.059434373 0.0043483437 -0.011337837 -0.0064031407 -0.031848267 -0.12989259 0.033851173 -0.07117312
0.07742625 -0.024999615 0.046052895 -0.0077208923 -0.0020210475 0.046370372 0.06461465 0.05221893
-0.0014397785 -0.04879316 6.0933937e-05 0.030353285 -0.009482264 0.04372521 0.039803296 -0.0004604151

net.0.theta_phi.bottleneckBlock.1.running_var f4 [64]
00000000: d32e 5e3a 3741 aa3a 92cb a93a 1a36 8339
00000010: 86ed 5d3a 8fa5 3e3a d0a2 d139 1057 043b
00000020: 35b6 8c3a ad6b f239 6c75 e23a 34a5 9a3a
00000030: 5b2a 103a 7352 043b 381c e039 5fc2 e439
00000040: 0c12 0e39 4184 7039 053a 853a a0aa 053a
00000050: 0646 c339 bfdd 093a ab77 2b3a 568c 2939
00000060: acca 823a af88 893a dbd0 a23a 08ae 823a
00000070: 6a69 d939 54cc 3a3a 0f2a 0e3a 6d08 f439
00000080: f768 053a a770 b139 f916 163a 8ffb df39
00000090: bd45 823a ad98 e439 e386 3d3a 33f3 a339
000000a0: 23fd 6a3a ceaa 593a f312 4c3a 34dc 0f3a
000000b0: 19a5 153a aea5 f43a 8ed4 0e3a 1a88 c339
000000c0: b3f9 db39 8301 313a 97b9 cb39 fcfc 5a3a
000000d0: 0da0 173a e512 ed39 3793 3539 bc1e cb39
000000e0: 4627 863a 2b33 c239 2697 843a b6b9 033a
000000f0: e4c0 a439 d5d0 343a 0f59 c139 81f6 d839
0.0008475605 0.0012989406 0.0012954345 0.00025026576 0.00084658747 0.0007272595 0.0003998489 0.0020193495
0.0010735454 0.00046238062 0.0017277426 0.0011798502 0.00054994755 0.0020190745 0.00042745634 0.00043632367
0.00013548898 0.00022937452 0.0010164386 0.00050989725 0.0003724547 0.0005259178 0.0006540964 0.00016169375
0.0009978614 0.0010493005 0.0012421863 0.0009970078 0.00041468005 0.0007125784 0.00054231373 0.00046545584
0.00050891883 0.00033844003 0.0005725469 0.000427213 0.0009938997 0.000436013 0.00072298775 0.0003127098
0.0008964112 0.0008303345 0.0007784806 0.000548783 0.00057085004 0.0018665099 0.0005448543 0.00037294702
0.00041956975 0.00067522394 0.00038857452 0.00083537376 0.00057840423 0.0004521824 0.00017316347 0.00038742076
0.0010235093 0.00037040687 0.0010115847 0.00050249265 0.00031424232 0.00068975735 0.00036878182 0.0004138239

net.0.theta_phi.bottleneckBlock.4.weight f4 [64, 1, 3, 3]
00000000: 1531 a63e 0593 99be 204d 393e 4249 94be
00000010: d4c1 8fbd c4c8 4e3c 8eb8 913e 61d7 973e
00000020: 0c77 bfbd b09b 1f3d cb8f b63d 76dd 993e
00000030: c122 a53d 4470 7cbe 648a 12be 4a18 a0be
00000040: 196b 913e 0252 bbbb 942a 163d 204d 8e3e
00000050: 27f9 873e dcec 633e e045 493e 43ba b9bd
00000060: cfeb d53d 1e5c 103e 9c4b 303e 3206 7dbc
00000070: 45b2 8cbe 8ebc 8d3e 89c7 3c3e bc8f 333e
00000080: 1ffd 60be fd1f 5abe d5de e5bd 9854 d1bd
00000090: 942a aebe 3c39 2cbd 53e7 96bb 0856 2b3e
000000a0: 392d a63e f06d 04bd 467b b33d 6cc2 0c3e
000000b0: 3d57 f23d 899e 183d f50f 7dbc f516 d6bd
000000c0: 9f2a 8c3e 9883 813e b1e8 b03e 14fe 6f3e
000000d0: 13e8 9dbe b475 7fbe b65d 8e3e a13c a63e
000000e0: 0068 5b3e 3ae5 91be f5d4 3e3e dcc8 91bd
000000f0: 5124 8abe 667c 383e 9799 b2bc 0dd6 a3be
00000100: 0d09 ae3c 5e49 13be 433e 18be 5ad7 05be
00000110: 1129 3ebe 7bfa 8ebe c610 9cbb b305 57bd
00000120: 6d3f af3d c4b8 973e 5d61 f83d ac86 123d
00000130: ee5c 0bbe e63f 9cbe 0ac3 70bd ba13 b93d
00000140: 2411 8f3d f585 1c3d fa8a 23be 460b 21be
00000150: b3e7 3a3e 0431 1bbe 2307 2abe 94d6 2e3d
00000160: 4702 593d 515a 2c3e 9be6 8b3e d83c 1cbe
00000170: d5fd 42be e414 98be dddc 363e 94ea 50be
00000180: 9958 8f3e d068 3dbe 039b a33e d7ad 9d3e
00000190: c5a2 87be d287 b7bd 4a3e a0be 2a42 f53d
000001a0: d738 1f3e bd74 2b3e c4dc f6bc d4b1 8fbe
000001b0: 2dfb a5bd e0b9 67bd fa63 313e 9b3b c7bd
000001c0: 298b 9d3e d7a0 90be 33ce b3bc d88f 46bd
000001d0: 7d34 75be 9f2d 3abd 74c0 4b3e f37e c33d
000001e0: b88e 02bd 67b5 2fbe c5c5 7cbd 60f1 0cbe
000001f0: 2f74 bebd 4151 933e 6dc7 673e 9985 3d3e
00000200: 11f1 55be 6e64 613e c2cc d43d 5dbe 5e3e
00000210: a512 483e 81a2 21be e9e3 95be 1d5a 613e
00000220: 4d8a 573e d661 57be 7d16 85be 0ea3 353c
00000230: fcea a63e 8ea4 b1bd 850e 47bd 4f48 dfbd
00000240: 307f 503e e742 51be 8e85 453e 3301 3ebe
00000250: 3b16 813e 36fb 863e 36b4 01be 53ef d33d
00000260: 1270 8ebe 5dd8 3fbe 676e 69be bbc7 803e
00000270: bc6e 923e 97ce 603e 47ec 763e 685a 373e
00000280: 2321 81be 9e63 b33e 2f90 433e a54b 54be
00000290: 766f 66bd 2d62 20be 8448 193e d4a8 8ebd
000002a0: a91e 883d 0020 7f3e c451 38bd ce46 25be
000002b0: 2d16 3c3e 7166 09bd e4d4 8bbe b580 843e
000002c0: 0fcc 823c 11c7 633d 9595 a33d e6d1 88be
000002d0: 5d72 763e 32f0 993e 18d3 9e3e 9c59 b43e
000002e0: f5e4 53be c06c d5bd 9910 a5be e92d 16be
000002f0: f4d1 1e3c 28f4 33bd 24cb 12be aa20 52be
00000300: 4679 9dbe 3928 263e 1e89 cc3d 3df2 f4bd
00000310: c964 11be 8b81 0e3e 2426 c73c c6bd 033e
00000320: 61e9 b53c cc58 7bbe 0098 af3e 0eca f7bd
00000330: a8a8 6dbe 3a38 9fbd 60d9 ffbd 1d57 fb3b
00000340: 4183 8c3e de6d 5bbe e48f 4e3e 0b9e 65be
00000350: 524f 70be e428 2f3e f969 bc3d 1781 cfbb
00000360: 68ef 673e 8ac7 0abe be7c 5a3d 91f9 48bd
00000370: f714 cf3d fbfd 543d e899 4bbe d827 093e
00000380: 4411 813e 9992 b23d 9403 c83a 5b18 61be
00000390: 6579 573e 3c1f 56be c076 acbe 42bc 853e
000003a0: bf00 0c3e a878 c83d d2ff e5bd 44a0 69be
000003b0: d1c0 ad3d 207b bfbe 450d 92be 1092 8d3e
000003c0: 9e2c efbd 3818 59be 9f88 2dbe d899 3ebe
000003d0: 6d83 02be 4cfc 5d3e e848 b0bd 966c 25bd
000003e0: b110 173e 6a75 133e 06be 8fbe ab85 bf3d
000003f0: 0923 aabe 6af9 ffbd bfec 48be b18f 52be
0.32459322 -0.2999498 0.18095827 -0.2896214 -0.07019392 0.012621108 0.28461117 0.2965651
-0.09348878 0.038966835 0.08914145 0.30051774 0.080632694 -0.24652201 -0.14310604 -0.3126853
0.28402022 -0.005716563 0.0366617 0.27793217 0.26557276 0.22258323 0.19655561 -0.0906873
0.104453675 0.1409764 0.17216343 -0.015443372 -0.2747976 0.27682918 0.18435492 0.17535299
-0.21971558 -0.21301265 -0.112241425 -0.10221213 -0.3401686 -0.04204677 -0.0046052127 0.16732037
0.32456377 -0.032331407 0.08763747 0.13746041 0.11833046 0.037260566 -0.015445699 -0.104535975
0.27376267 0.2529571 0.3455253 0.23436767 -0.3084112 -0.24947244 0.2780587 0.3246813
0.21426392 -0.28495198 0.18635924 -0.07118389 -0.26980832 0.18016204 -0.021801753 -0.31999245
0.02124455 -0.14383456 -0.14867501 -0.13070431 -0.18570353 -0.27925476 -0.0047627417 -0.05249567
0.085570194 0.29633152 0.121279456 0.035772964 -0.13609669 -0.305175 -0.058779754 0.09036966
0.06985691 0.03821369 -0.15970984 -0.15726957 0.18252449 -0.15155417 -0.16604285 0.042685106
0.052980687 0.16831328 0.27324376 -0.15257585 -0.19042142 -0.29703438 0.1785769 -0.20401984
0.27997282 -0.18497014 0.31954202 0.30796692 -0.2649137 -0.089614525 -0.31297523 0.119755104
0.15549026 0.16743751 -0.030134566 -0.2806536 -0.081045486 -0.05657375 0.17323294 -0.09728166
0.30770233 -0.2824771 -0.02194891 -0.048477024 -0.23945804 -0.045453664 0.19897634 0.09545698
-0.03187439 -0.17159043 -0.061712045 -0.13763952 -0.09299504 0.2877293 0.22634669 0.18507995
-0.20892741 0.22010967 0.10390617 0.21752305 0.19538362 -0.15784647 -0.29275444 0.22007032
0.21048851 -0.21033415 -0.2599372 0.011086239 0.32601154 -0.086739644 -0.04859783 -0.10902464
0.20361018 -0.20435677 0.19289228 -0.18555145 0.25212273 0.26363534 -0.12666401 0.10348382
-0.27819878 -0.1873488 -0.22796021 0.25152382 0.2860011 0.21953808 0.2411357 0.17905581
-0.25220594 0.3503694 0.1909797 -0.20731981 -0.05625864 -0.15662451 0.14969069 -0.06965795
0.06646473 0.24914551 -0.044999853 -0.16140291 0.18367834 -0.03354496 -0.2731086 0.25879446
0.015966443 0.055609766 0.07987515 -0.2672264 0.24067064 0.30066067 0.31020427 0.35224617
-0.20692809 -0.10421133 -0.32239226 -0.14665951 0.009693611 -0.043934017 -0.14335304 -0.20520273
-0.30756587 0.16226281 0.099870905 -0.11960266 -0.14198603 0.13916604 0.024310179 0.12865362
0.02220601 -0.24545592 0.34295654 -0.12099086 -0.23208869 -0.07774396 -0.12492633 0.007670297
0.2744389 -0.2142863 0.20172077 -0.2242357 -0.23467758 0.17105442 0.091999 -0.0063325274
0.2264992 -0.1355268 0.05334162 -0.04906613 0.101114206 0.052000027 -0.1988293 0.13394105
0.25208485 0.087193675 0.0015259855 -0.21981947 0.21042402 -0.20910352 -0.3368435 0.26120192
0.1367216 0.09788638 -0.112304345 -0.22815043 0.084840424 -0.37398624 -0.2852575 0.276505
-0.11678432 -0.21200645 -0.16946648 -0.18613374 -0.12745447 0.21678275 -0.08607656 -0.04038676
0.14752461 0.14400259 -0.28074664 0.09351667 -0.33229855 -0.12498744 -0.19621561 -0.20562626
