Puff-Net/model/embedding_iter_15000.pth (torch, 396327 bytes, 2 tensors)

proj.weight f4 [512, 3, 8, 8]
000000 d2 8c 47 3d 3f 6a 52 3d d9 57 ff 3c ee 01 78 3c
       0.04871828 0.051370855 0.031169819 0.015137179
000010 ad 97 8b 3d 38 69 a2 3c d5 c8 9b 3c 87 f0 94 bd
       0.06816039 0.019825563 0.019016663 -0.072724395
000020 88 27 26 3d 77 1a 12 bd 83 ac 8d bc 80 45 fc bc
       0.040565044 -0.03566977 -0.017294174 -0.030794859
000030 17 0f 17 bd 12 e0 21 3d 03 85 ec ba a6 79 f0 3b
       -0.036879625 0.03952033 -0.0018045012 0.0073387204
000040 0a fb 58 3d b0 87 bc 3c 47 e2 e1 3b 36 0f 47 bd
       0.052973785 0.02301392 0.0068934294 -0.04859849
000050 93 08 82 3c 44 8b 43 bd d4 a6 7f bd b8 dc 00 3c
       0.01587323 -0.047740236 -0.06241496 0.007865123
000060 e7 90 2f 3c 17 9f 8c bd 0a 42 16 3d 62 7a 56 3c
       0.0107157 -0.068662815 0.036684074 0.013090702
000070 4f 42 fd 3c 21 49 ad bc 97 4f bc 3c 74 c3 45 3d
       0.030915407 -0.021153035 0.02298717 0.0482821
000080 43 c4 11 3d d3 f1 91 3d 5a ce 2f bd 7a 35 44 3c
       0.03558756 0.071262024 -0.0429214 0.01197564
000090 52 29 88 bb 5e f3 aa 3c 50 9f 3f 3d a8 84 bb 3b
       -0.0041553164 0.020868 0.04678279 0.005722601
0000a0 64 aa 60 bd d6 3f 63 bd b8 8f 44 bd 35 b0 9d bd
       -0.054849997 -0.0554808 -0.047988623 -0.076996244
0000b0 cc d9 50 3d af 23 d2 bc bb 87 c0 3c 36 a2 a7 bd
       0.050988957 -0.02565178 0.023502221 -0.08185236
0000c0 08 f8 36 bc 5f 89 04 bc de 66 27 3d e5 6d 88 bb
       -0.011167534 -0.008089392 0.040869586 -0.004163491
0000d0 5f 28 73 3d 8e e8 30 bc 36 d5 48 bd 4f 6b 18 bd
       0.059364673 -0.010797633 -0.04903146 -0.037211712
0000e0 b5 89 27 3b 61 f2 1d 3d 07 06 b4 bc 79 75 9f ba
       0.0025564258 0.03856123 -0.02197553 -0.0012165747
0000f0 18 c9 8a 3d 41 d0 76 3d 65 7d 8a bd a6 86 5d bd
       0.06776637 0.0602572 -0.06762198 -0.05408349
000100 c0 73 85 3d ef 39 95 3c 21 70 33 bb b5 8f 81 bd
       0.06516218 0.018216101 -0.0027380066 -0.06326238
000110 ef 9a 15 bd 2f d3 4f bd 8d 59 5d 3d b3 fc 4e 3c
       -0.03652471 -0.05073851 0.05404048 0.01263349
000120 fb 35 2c 3d 9b 7d 46 bd 12 3d b4 bc 0b d0 7d bd
       0.042043667 -0.04845963 -0.022001777 -0.061965983
000130 0a 7e 25 bd 4a d9 00 3c af 2f c4 bc c5 5d 82 bc
       -0.040403403 0.007864306 -0.023948519 -0.015913853
000140 9b 1a 33 3c 47 b1 19 3c bc 9e 4c bc 68 a5 46 3c
       0.010931636 0.009380645 -0.012489017 0.012124397
000150 e7 74 44 3d bc 81 68 bc 7d 48 39 39 cf 29 6f bd
       0.04796305 -0.014191087 0.00017669979 -0.05838948
000160 22 d4 04 bd 39 10 7c 3d 76 7e 51 bd 60 40 01 3d
       -0.032428868 0.06153891 -0.051145993 0.031555533
000170 18 37 71 bd ad b4 6d 3d 64 52 bc bc cf d7 9e bc
       -0.058890432 0.058033634 -0.022988506 -0.019390015
000180 b6 4f 18 bd 32 65 8a bc 52 84 69 3d b4 41 30 bd
       -0.037185393 -0.016893957 0.057010956 -0.04303141
000190 14 f2 ec 3b 1b 9b 89 3d 3a c0 29 bd 0c 28 43 3d
       0.0072310064 0.06719037 -0.041443087 0.047645614
0001a0 f5 48 09 3d 0f 91 62 bd 26 a1 20 3d 92 6a 4e 3d
       0.033516843 -0.05531412 0.039216183 0.050394602
0001b0 8e 35 74 3d c8 53 95 bd 15 55 3f bd 21 3d 58 bd
       0.059621386 -0.07291371 -0.046712 -0.052792672
0001c0 39 8e a5 bd 97 72 93 bd d6 28 23 bc 64 90 19 3d
       -0.080837674 -0.07199591 -0.0099584665 0.037491217
0001d0 8b 34 d9 3c 68 e4 25 bb 49 7e 63 3d e2 32 a9 bc
       0.026514312 -0.0025313143 0.055540357 -0.020654146
0001e0 3a fb c7 3c ec b8 96 3c 1d ee 02 bd 8d 0d 80 3c
       0.024411786 0.018398724 -0.031965364 0.015631462
0001f0 4c 61 b2 bc 0a cc 43 bc 6e b4 78 bb b9 dc 0c bd
       -0.02177491 -0.011950502 -0.0037949341 -0.034390185
000200 c5 e4 28 bd 3f 45 a4 3d 0b d9 66 3d 84 15 03 bd
       -0.041233797 0.0802102 0.056359332 -0.03200294
000210 ee 8b 32 bd e1 4c 07 3d 60 79 08 bb f1 ae 5b 3d
       -0.04359048 0.0330323 -0.0020824298 0.053633634
000220 70 f4 54 3b 43 83 c8 3c e8 2f d2 bc 98 f6 8e bd
       0.003249433 0.024476653 -0.02565761 -0.06980628
000230 a1 91 36 3d fa eb 4d 3d e9 77 6e bd 1b 97 88 bd
       0.044572476 0.050273873 -0.058219824 -0.06669446
000240 1c b4 20 bd 9f 80 57 3d fa 8a 21 3d 9b 93 60 bb
       -0.039234266 0.052612897 0.03943918 -0.0034267667
000250 71 39 4f 3d 1f 22 3e 3b 88 34 8b 3d cb d3 2c 3d
       0.05059189 0.0029012037 0.06797129 0.04219417
000260 2e cf 1f bd df 23 9b 3b a6 34 58 3c 3f fa be 3c
       -0.03901594 0.004734501 0.013196146 0.023312686
000270 bd a6 34 bd 24 09 27 3d 2a d5 9a 3d 47 b1 85 3d
       -0.044104327 0.0407802 0.07560189 0.065279536
000280 9c bd 95 3c 43 20 45 bd 04 6a 97 bc ba ac 9b bd
       0.01827889 -0.04812647 -0.01848317 -0.07601304
000290 ab 4e 45 bc 98 db 0c bd 09 97 14 bd 52 0d 76 bd
       -0.012042682 -0.03438911 -0.03627685 -0.060071297
0002a0 61 7f bf 3c e8 e5 35 3b 57 12 90 bd a1 1c 9f 3c
       0.023376169 0.0027755443 -0.07034748 0.019422831
0002b0 14 dc df bc cd b0 63 bc 6a 5b 68 bc fe ea 15 bc
       -0.027326621 -0.013897133 -0.014181951 -0.009150265
0002c0 45 9f d9 bc 6e 3b 60 bd 1f f1 2b bd 78 75 61 3d
       -0.026565203 -0.054744177 -0.041977998 0.055043668
0002d0 8a dc 81 3d 91 01 32 bc 38 80 36 bd 56 a3 5d 3d
       0.063408926 -0.010864631 -0.044555873 0.054110847
0002e0 fd 65 30 bc 66 79 7a bd 7e 0b de bc 87 2e 2c bb
       -0.010766503 -0.06115093 -0.02710509 -0.002627285
0002f0 00 5a 7e 3d c6 68 9e 3d c7 83 89 bd c4 2e 67 3d
       0.06209755 0.07734828 -0.06714588 0.056441084
000300 42 66 2a bd 45 15 33 bb 96 e4 71 3d 34 f9 83 bd
       -0.041601427 -0.002732591 0.059055887 -0.06444016
000310 b4 aa 8e bd cf ae 4f bd ec 84 59 3d 38 71 40 3d
       -0.06966153 -0.05070382 0.05310528 0.046982974
000320 d3 fa 28 3d 70 9d 35 3d d4 58 17 bd 20 fa 3d 3c
       0.04125483 0.044339597 -0.036949947 0.011595279
000330 65 37 1d bc 31 99 9e bd a1 0d 15 bd 2b 17 8a bd
       -0.009595727 -0.07744063 -0.03638995 -0.067427
000340 e1 9c fc 3a 89 63 0a 3c f7 da 40 3c 7a 2b ac 3c
       0.0019272828 0.008446583 0.011770955 0.021016825
000350 a0 11 b3 bb 95 10 18 bc 39 f2 26 3d 6d 47 29 ba
       -0.0054647475 -0.009281297 0.040758345 -0.00064574816
000360 ac cb 4b 3c b2 21 90 3d 01 af c0 bc 59 c3 68 bd
       0.012438696 0.07037677 -0.023520948 -0.056826923
000370 47 03 b0 3d a1 2a ad 3c fd 56 16 3d 9f 43 a4 3d
       0.08594375 0.021138491 0.036704052 0.0802071
000380 ae 69 89 bc dc 30 0f bd 94 ff fd bc bd c0 ff bc
       -0.016774025 -0.034958705 -0.031005658 -0.031219834
000390 3d 16 6c 3c 95 9a b0 bd 35 85 61 3d 7a 27 ca 3c
       0.014409599 -0.08623234 0.055058677 0.024677027
0003a0 d4 3d 93 bd 65 72 3f bd 5c 6a 86 bd ed e0 a8 3d
       -0.07189527 -0.046739955 -0.06563255 0.08246026
0003b0 f5 b5 26 3c 6e 88 8a bd b1 a4 17 bd 3c 85 d4 bc
       0.010175218 -0.06764303 -0.037022296 -0.025942437
0003c0 d4 7c 99 bd 67 44 e8 3c 4a df 80 bd 4b 88 7f 3d
       -0.07494512 0.02835293 -0.06292589 0.06238584
0003d0 0f 42 10 bd 03 77 98 3d cf 41 99 3c b2 7b 25 3a
       -0.03521925 0.07444575 0.018708138 0.00063126825
0003e0 ed da 99 bd 7f 7b 86 3c 4b 08 11 3d 02 67 63 3d
       -0.0751246 0.01641631 0.0354083 0.055518158
0003f0 d6 b4 8c bd db 2a 1e 3d 16 f4 70 3d f4 91 b1 3d
       -0.06870429 0.03861509 0.05882653 0.086704165

proj.bias f4 [512]
000000 c0 5a 97 3d 28 6c 62 3d 8f d4 c4 3c 67 30 ad 3d
       0.07390356 0.055278927 0.024027137 0.08456498
000010 83 07 b2 bd 53 f2 f2 3d 93 32 e0 bd e4 55 94 3d
       -0.08692839 0.11862626 -0.10947146 0.07242945
000020 fe f3 90 bd b9 32 bc 3d 36 4a b3 bd 42 80 f4 3d
       -0.07077788 0.09189362 -0.08754389 0.11938526
000030 ef 08 c4 bd 69 00 69 3d 31 40 a5 bd af 5d 13 3d
       -0.095720164 0.056885157 -0.08068884 0.035978016
000040 90 40 fa bd 51 a2 ff bd 78 b5 dc bd d4 1c 2d bd
       -0.122193456 -0.12482131 -0.107768 -0.04226382
000050 13 18 4e bc 6a 73 3c 3c 0f 78 c1 bd 64 d3 48 3d
       -0.012578982 0.011502126 -0.094467275 0.049029723
000060 36 4b d0 bd f9 f5 db 3d c2 00 16 3d da 77 57 3b
       -0.10170595 0.10740275 0.036621816 0.0032877834
000070 c6 cb 90 3c 05 6e f5 3d 01 7c 02 be 6a d6 c6 3b
       0.017675292 0.11983875 -0.12742616 0.0060680406
000080 0d 36 b3 3c fb 40 26 bd 89 59 9a bc d3 b1 f9 3d
       0.02187636 -0.040589314 -0.018841522 0.121921204
000090 3e 27 b4 3d 84 d0 b7 bd 9f 14 c3 3c 19 b1 6e 3d
       0.08796547 -0.08975318 0.023813544 0.058274362
0000a0 d0 a4 07 be 81 3f af bd f7 56 f6 3d 61 42 c8 3d
       -0.13246465 -0.08557034 0.12028306 0.09778286
0000b0 f0 c8 b8 bd 29 96 ad 3d 6c f0 ac bd 59 4a 9d 3c
       -0.09022701 0.084759064 -0.08444294 0.01920049
0000c0 5b 98 eb bc 15 64 b5 3d 86 38 f5 bd e0 90 ca 3d
       -0.028759172 0.0885698 -0.119736716 0.09890914
0000d0 7e 52 09 3d d4 a2 a1 3d f5 f8 63 3c d4 6f 55 bd
       0.033525936 0.07892385 0.013914336 -0.0521086
0000e0 21 a9 4a 3d e1 bf a3 3d b3 a7 e2 3d e5 a2 e0 3c
       0.0494777 0.07995582 0.11067142 0.027421424
0000f0 02 d9 9e 3d 18 9e bf bb fd 9d bf bd 3f 88 27 bd
       0.07756235 -0.0058477037 -0.09356306 -0.04090142
000100 7a a1 b1 3d 0e 8a e1 3c 8c b3 17 3d b6 c1 f0 3d
       0.08673377 0.02753165 0.037036464 0.117556974
000110 f1 0f d6 3d 6e 9e 6b bd c1 59 a9 3d d1 54 67 3d
       0.10452259 -0.057524137 0.08269072 0.05647737
000120 81 89 a0 bd 89 26 35 3d 38 8c 88 3c d2 4a ae 3d
       -0.07838727 0.044226203 0.016668424 0.085103646
000130 ff 07 a6 3d c8 f7 45 bd dd 0d 5b 3d 48 ff 8e 3d
       0.08106994 -0.048332006 0.053480018 0.06982285
000140 4d 6b e3 3c e3 c0 3d 3d 6e 6d bb 3d 2c d9 eb 3d
       0.027761126 0.04632653 0.091517314 0.115160316
000150 48 29 0d 3e db 1a f5 3d c9 f5 c2 bd b9 ed ca 3b
       0.13785279 0.11968013 -0.09519536 0.0061928895
000160 d7 8d b6 bd e8 a8 c5 bd 4b 9b 25 3c bb fb 8f 3d
       -0.089137726 -0.09651357 0.0101078255 0.07030436
000170 18 ea 10 3d 0a 6b 36 bd f9 f8 df bd cd 02 48 bc
       0.0353795 -0.044535674 -0.1093616 -0.012207699
000180 4d c6 0e bd b3 01 97 3d a2 c4 80 bd 77 07 d8 bd
       -0.034857083 0.07373371 -0.06287505 -0.10548299
000190 38 d4 9f bd db 14 58 3c 48 c7 69 bd c3 8a d6 3d
       -0.078041494 0.013188566 -0.057074815 0.104756854
0001a0 5b 75 c0 bd 9a e3 c2 3d 0c 81 a6 3d f0 74 c2 3d
       -0.09397384 0.09516068 0.081300825 0.0949496
0001b0 fb d6 cd 3d 3e f8 85 bd 8e 31 f7 bc 9c 65 c4 bd
       0.1005077 -0.06541489 -0.030174997 -0.09589693
0001c0 ac b6 8b 3d 75 21 92 bd 71 e5 8a bd 8b e5 2c bc
       0.06821951 -0.07135288 -0.06782044 -0.010552774
0001d0 11 60 02 bd 80 2b f1 bd 1e a8 3d bd 96 35 02 bd
       -0.031829897 -0.11775875 -0.046302907 -0.031789385
0001e0 65 70 dd bd ed c3 bb bd e6 4a 8e bd f2 63 fc bd
       -0.10812453 -0.09168229 -0.069478795 -0.123237506
0001f0 ee 4f 28 3d 88 10 8f bc e4 52 aa 3d cc 9f 11 bd
       0.041091852 -0.017463937 0.083165914 -0.035552785
000200 89 f3 c4 3c 60 36 34 bd 97 34 cd bd 4e 7a 95 bd
       0.024041908 -0.04399717 -0.10019796 -0.072987184
000210 ad 32 02 3e 3d 01 20 3d 44 85 50 bd 57 6a 86 3b
       0.12714644 0.03906368 -0.050908342 0.004102032
000220 05 06 ae 3d f6 5d 87 3d 71 56 0c 3d 14 85 8e bd
       0.08497242 0.066097185 0.034262124 -0.069589764
000230 6c da bd b8 ce dd 0b bd 25 7e 22 bd 53 4a f2 3c
       -9.0529065e-05 -0.034147076 -0.039671082 0.029576456
000240 5f 83 96 3c 70 a5 28 3d d4 48 a1 bd 3d c7 7f bd
       0.01837319 0.0411734 -0.07875219 -0.062445868
000250 6f 38 f8 3c be 0b 10 3d f3 e3 45 bd 15 20 e4 3d
       0.030300347 0.03516745 -0.048313092 0.11138932
000260 cd c9 90 bd a0 ab a5 3c 4a e5 27 bd 77 92 ac 3d
       -0.070697404 0.020223439 -0.04099015 0.084263735
000270 44 ca a5 3d 97 03 ce 39 1a d8 20 3c 70 a1 a3 3c
       0.0809522 0.00039294056 0.009817148 0.01997444
000280 c8 85 d1 bc 87 e4 65 3d da 6c b8 3c 95 a3 c3 bd
       -0.025576487 0.056126144 0.022512842 -0.09552685
000290 fb 27 ba bd 50 50 7f 3d 66 9c 0c bd 4b 59 b4 bd
       -0.09089657 0.06233245 -0.03432884 -0.08806094
0002a0 aa fb a8 3d 64 67 83 bc d1 6b bf bc ff 75 85 bd
       0.08251126 -0.016040511 -0.02336684 -0.065166466
0002b0 52 3d 9a bd be 94 24 bd 85 2a dc bd 43 91 97 3d
       -0.07531227 -0.040180914 -0.107502975 0.07400753
0002c0 cd 9d 0b 3c 20 59 e3 bd 71 e5 02 3e 4b 74 00 3c
       0.008521509 -0.111009836 0.12782837 0.007840226
0002d0 9a 3e 56 3d 3a 78 b3 3d 6e 10 a6 3d 10 02 6f 3d
       0.052305795 0.08763166 0.081086025 0.058351576
0002e0 80 68 c8 3d f7 14 73 bd 2e 9e a4 3b be 82 12 bd
       0.09785557 -0.059346166 0.0050237393 -0.035769217
0002f0 c0 46 00 3e 04 2f 5e bd 2c a0 c5 3d 63 6c 80 3d
       0.12526989 -0.054244056 0.09649691 0.06270673
000300 c1 d3 ad bd 1b 2c 8a 3d 62 86 41 bc b9 39 a7 3c
       -0.084876545 0.06746694 -0.0118118245 0.020413266
000310 33 26 fc bd fd b4 fb 3d e3 8b 9b bd a9 0c 44 3d
       -0.123119734 0.1229038 -0.07595041 0.047863636
000320 e4 fb be bc 30 ca a0 bd 83 74 a6 3d 9c 6f d2 bd
       -0.02331347 -0.07851064 0.081276916 -0.10275194
000330 ff 01 4f 3c cc 8b b4 bd 86 0c bc 3d c2 50 92 bd
       0.012634753 -0.08815727 0.09182076 -0.071443096
000340 ae 7a a0 3c cd 85 be 3c 6e 5c c9 bd 15 2c a3 3d
       0.019589748 0.02325716 -0.09832083 0.07967392
000350 ee 20 bf 3d 21 bd 4d bd 5e 26 b0 3d 77 94 8f 3d
       0.09332453 -0.050229196 0.08601068 0.07010739
000360 d2 7b b4 bd 2a 74 45 3c 86 0f 81 bd b8 93 c4 3c
       -0.08812679 0.012051621 -0.06301789 0.023996219
000370 9a 05 7f 3d c4 4a 83 3d 63 85 33 3d c4 a0 6b bd
       0.0622612 0.06410745 0.04382838 -0.057526365
000380 f9 e3 aa bd ab e7 47 3d 0f 58 29 bc 03 45 9f bd
       -0.083442636 0.04880492 -0.010335936 -0.07776835
000390 2f e8 e9 bc 07 87 a5 3d 42 ee f7 3d 23 b4 7c 3c
       -0.028553097 0.08082395 0.12105991 0.015423807
0003a0 ae b1 ff bd 81 16 58 3d 0e 0a a9 3d 35 26 47 3b
       -0.124850616 0.052755836 0.08253871 0.0030387763
0003b0 5e 2f 83 bd b9 9d 9c bd 99 5c d5 3d 55 1c 3e 3d
       -0.06405519 -0.07647271 0.10418052 0.04641374
0003c0 44 4f 44 ba 3d fd c1 bd c9 c5 fa 3c 38 76 a0 bc
       -0.0007488618 -0.094721295 0.03061189 -0.019587621
0003d0 28 50 62 bd b1 f6 86 3d 94 d9 24 3d c3 de 25 bd
       -0.055252224 0.065900214 0.04024656 -0.040495645
0003e0 6a 2f cc 3c e9 41 c1 3d a2 8d de 3d ec ed 90 bd
       0.024924953 0.094363995 0.10866858 -0.0707663
0003f0 6c dd 81 bd 33 4a f8 bd d9 2d f3 3d 35 31 c2 bd
       -0.06341061 -0.121235274 0.11873979 -0.09482042
