Puff-Net/model/embedding_iter_5000.pth (torch, 396327 bytes, 2 tensors)

proj.weight f4 [512, 3, 8, 8]
0.04584919 0.046664286 0.025876576 0.015003147 0.07460905 0.027592398 0.026546486 -0.06225111
0.046256904 -0.030053468 -0.011345577 -0.02306976 -0.028474374 0.04209261 0.004200663 0.019737784
0.05156037 0.024617009 0.014776364 -0.036456276 0.025572862 -0.04234424 -0.05384374 0.020771254
0.008273902 -0.06247379 0.045426432 0.018234447 0.03584865 -0.018181683 0.030052617 0.054049503
0.033062056 0.073635265 -0.039145745 0.017919138 -0.0007680895 0.020924898 0.053305943 0.018542465
-0.041953728 -0.04239641 -0.035452344 -0.061017394 0.060779754 -0.016115597 0.037682474 -0.064314686
0.011468857 0.009804758 0.054712217 0.008414097 0.06832632 0.0007636247 -0.03271813 -0.020575836
0.015560677 0.04516678 -0.016552914 -0.0016161023 0.0653488 0.061602682 -0.057133224 -0.038740776
0.059583265 0.017548481 -0.0052010072 -0.063699305 -0.036051836 -0.0499427 0.053126417 0.021714265
0.043242145 -0.048390135 -0.017261546 -0.055097967 -0.03214486 0.0073193284 -0.02569542 -0.006352377
0.009271287 0.0064544776 -0.015212766 0.01845245 0.05122533 -0.021149097 0.0016928137 -0.053207986
-0.04214933 0.058572177 -0.052361257 0.033287942 -0.06106276 0.056600712 -0.021800797 -0.01674614
-0.04139677 -0.01662781 0.05534031 -0.037334476 0.009239779 0.06390653 -0.038436998 0.045937225
0.041666824 -0.047730297 0.043935865 0.057359997 0.0567153 -0.07040775 -0.040649705 -0.04583306
-0.06620405 -0.06773357 -0.0050931503 0.038942646 0.022028383 -0.0035767066 0.060072336 -0.016552167
0.03686356 0.018572133 -0.026947157 0.01983594 -0.02868752 -0.014936837 -0.0011657961 -0.031736586
-0.04882554 0.067338124 0.044551525 -0.047631703 -0.053102165 0.024317442 -0.01881347 0.04718525
0.00076592056 0.014401309 -0.034011774 -0.071979396 0.04031455 0.041066132 -0.0672803 -0.07199184
-0.048565637 0.043741275 0.031878136 -0.007134346 0.04276955 -0.0039592516 0.057989914 0.038330372
-0.053105164 -0.00085229415 0.005002507 0.01785901 -0.05046819 0.029047824 0.0671555 0.05864457
0.010683812 -0.056383587 -0.023701893 -0.07948221 -0.018355893 -0.041506797 -0.044311102 -0.067038745
0.028365612 -0.00026448353 -0.06789128 0.01874967 -0.02918883 -0.016346866 -0.017015332 -0.010971742
-0.02152576 -0.059456866 -0.04594704 0.05119462 0.049848586 -0.019023651 -0.049373273 0.05005565
-0.0112492675 -0.06630117 -0.03428517 -0.008873697 0.041000284 0.06360336 -0.07597391 0.052264407
-0.049244087 -0.004622475 0.06333177 -0.06630356 -0.073364496 -0.054372825 0.044866744 0.034146007
0.03805124 0.04527069 -0.030483663 0.013857166 -0.006320861 -0.070987955 -0.0343918 -0.06719155
0.012637711 0.0141835045 0.007589778 0.0056015593 -0.026755424 -0.028611789 0.021077486 -0.009761625
0.023435725 0.067043215 -0.033390146 -0.06438542 0.07238299 0.01192628 0.021389032 0.06459502
-0.0025623282 -0.020345744 -0.011537082 -0.016688602 0.025253523 -0.0718077 0.052545708 0.0075043975
-0.06236971 -0.037175454 -0.0652862 0.0723875 0.007372697 -0.06670088 -0.045969315 -0.034964114
-0.0634783 0.03753054 -0.06838318 0.051688153 -0.038894482 0.06345547 -0.0049039386 -0.023245765
-0.05797508 0.027681941 0.034993976 0.052829094 -0.065175876 0.03749509 0.042805444 0.065430485
00000000: 5ccc 3b3d 0d23 3f3d 1dfb d33c c2cf 753c
00000010: a1cc 983d 7409 e23c 0478 d93c 05fb 7ebd
00000020: e177 3d3d b132 f6bc cde2 39bc cbfc bcbc
00000030: 1743 e9bc 4d69 2c3d b7a5 893b 22b1 a13c
00000040: f730 533d 9ca9 c93c 9018 723c 2d53 15bd
00000050: 2e7e d13c 2771 2dbd 418b 5cbd 7a28 aa3c
00000060: 438f 073c 84e4 7fbd 1111 3a3d 6860 953c
00000070: 09d6 123d c1f1 94bc e830 f63c 0363 5d3d
00000080: 146c 073d 16ce 963d 4a57 20bd 28cb 923c
00000090: 9d59 49ba b16a ab3c 5557 5a3d 5ee6 973c
000000a0: acd7 2bbd dca7 2dbd 7a36 11bd 60ed 79bd
000000b0: 31f4 783d db04 84bc f058 1a3d 6bb7 83bd
000000c0: dfe7 3b3c 23a4 203c eb19 603d 48db 093c
000000d0: abee 8b3d fc2d 483a 7203 06bd a88e a8bc
000000e0: 36f2 7e3c cd00 393d fa99 87bc 65d3 d3ba
000000f0: 97d5 853d 1853 7c3d 8704 6abd a6ae 1ebd
00000100: 950d 743d d5c1 8f3c 366d aabb c874 82bd
00000110: 17ab 13bd b790 4cbd 169b 593d 1de2 b13c
00000120: ad1e 313d bc34 46bd 1668 8dbc 68ae 61bd
00000130: 54aa 03bd fad6 ef3b 347f d2bc 9a27 d0bb
00000140: 99e6 173c 1580 d33b f73e 79bc 9829 973c
00000150: a7d1 513d df40 adbc 67e1 dd3a 9ef0 59bd
00000160: c7a4 2cbd 61e9 6f3d c278 56bd f058 083d
00000170: f21c 7abd 26d6 673d 9697 b2bc 332f 89bc
00000180: a98f 29bd 0c37 88bc 85ac 623d 09ec 18bd
00000190: 7162 173c 6de1 823d 1d70 1dbd ac28 3c3d
000001a0: d5aa 2a3d d880 43bd 18f6 333d 51f2 6a3d
000001b0: 4d4e 683d f031 90bd 4e80 26bd 72bb 3bbd
000001c0: fd95 87bd e6b7 8abd 71e4 a6bb 5382 1f3d
000001d0: de74 b43c 2e67 6abb 690e 763d 6998 87bc
000001e0: 3ffe 163d 9624 983c 49c0 dcbc fb7e a23c
000001f0: 1702 ebbc a3b9 74bc a0cd 98ba 39fe 01bd
00000200: 4afd 47bd 92e8 893d a97b 363d 7619 43bd
00000210: a881 59bd 5f35 c73c b51e 9abc 5245 413d
00000220: 0fc8 483a 78f3 6b3c ee4f 0bbd ef69 93bd
00000230: df20 253d f634 283d 41ca 89bd 7570 93bd
00000240: c3ec 46bd 0d2a 333d a692 023d 3bc7 e9bb
00000250: 202f 2f3d 9cbc 81bb d586 6d3d 4f00 1d3d
00000260: cd84 59bd 7e6c 5fba 12ec a33b 0f4d 923c
00000270: bcb7 4ebd b4f5 ed3c d388 893d 4a35 703d
00000280: 280b 2f3c 7af2 66bd 792a c2bc 92c7 a2bd
00000290: 195f 96bc 0803 2abd 8f7f 35bd 9c4b 89bd
000002a0: 005f e83c 61aa 8ab9 950a 8bbd e898 993c
000002b0: 6a1d efbc dde9 85bc bd63 8bbc d2c2 33bc
000002c0: ca56 b0bc 0b89 73bd f732 3cbd 73b1 513d
000002d0: 082e 4c3d 7dd7 9bbc a13b 4abd 2707 4d3d
000002e0: d94e 38bc e8c8 87bd 9b6e 0cbd fc62 11bc
000002f0: eaef 273d 7a42 823d 3698 9bbd 3413 563d
00000300: 2bb4 49bd 2178 97bb 16b4 813d 29ca 87bd
00000310: 2040 96bd 0ab6 5ebd 31c6 373d afdc 0b3d
00000320: 9edb 1b3d c26d 393d e0b8 f9bc 2b09 633c
00000330: 3a1f cfbb 2262 91bd 6bde 0cbd b99b 89bd
00000340: 670e 4f3c ee61 683c acb3 f83b 498d b73b
00000350: 312e dbbc 4563 eabc b1aa ac3c 39ef 1fbc
00000360: 47fc bf3c f44d 893d 1bc4 08bd 81dc 83bd
00000370: 883d 943d 7266 433c 0d38 af3c 654a 843d
00000380: bcec 27bb 1eac a6bc 0706 3dbc 89b6 88bc
00000390: 7ae0 ce3c ea0f 93bd 2b3a 573d 73e7 f53b
000003a0: 6277 7fbd 4a45 18bd c5b4 85bd e63f 943d
000003b0: aa96 f13b 799a 88bd 524a 3cbd 8836 0fbd
000003c0: e900 82bd a0b9 193d 7b0c 8cbd f5b6 533d
000003d0: d24f 1fbd f1f4 813d 38b1 a0bb e76d bebc
000003e0: 4777 6dbd 3dc5 e23c d855 0f3d 5263 583d
000003f0: ee7a 85bd 7494 193d c354 2f3d 6b00 863d

proj.bias f4 [512]
0.04196603 0.039356206 0.02366391 0.04313258 -0.039993815 0.079970635 -0.0757026 0.041311987
-0.03875844 0.055949926 -0.04513801 0.07873594 -0.071134076 0.03427386 -0.05639835 0.025491001
-0.07599228 -0.07422019 -0.076137535 -0.006215995 -0.016830534 0.004498195 -0.06425617 0.04752368
-0.0738393 0.07327455 0.014142513 0.0004483835 -0.012524338 0.076124325 -0.07651675 0.016143138
0.030913629 -0.046713658 -0.019089311 0.075672776 0.056615215 -0.0652984 0.0062806015 0.038301922
-0.08313788 -0.062472448 0.078096375 0.05677608 -0.07638309 0.049587637 -0.04995732 0.020946274
-0.002321965 0.056114927 -0.07838169 0.0746128 0.0036273075 0.056875262 0.023620887 -0.04566927
0.0062280567 0.031577148 0.06348806 0.0051447004 0.045144368 -0.0123380525 -0.04679956 -0.016013408
0.05360087 0.018744582 0.03348689 0.07958299 0.07231692 -0.023086704 0.03621078 0.028571552
-0.05452871 0.015129645 0.0022323139 0.06689851 0.04012977 -0.03157864 0.05465559 0.023574539
0.021160543 0.007976973 0.056346886 0.078271575 0.080942534 0.07956168 -0.05369869 -0.011805225
-0.062933974 -0.053036768 0.029911688 0.036919773 0.010454212 -0.011658956 -0.0741256 -0.0029251785
-0.046801895 0.05827106 -0.036046755 -0.06327151 -0.02713954 0.021181567 -0.025401767 0.07665269
-0.06148943 0.056876164 0.037505414 0.06717495 0.07333051 -0.04166612 -0.0013744483 -0.05533938
0.046479218 -0.042408414 -0.05331543 0.00083174184 -0.035071272 -0.068797335 -0.036829006 -0.015553333
-0.07159191 -0.059874766 -0.06100929 -0.082006864 0.015031804 -0.015764289 0.04392436 -0.014133579
0.036199216 -0.023621144 -0.066759266 -0.048748646 0.08027771 0.028651701 -0.017555803 0.0054183747
0.042994615 0.03769037 0.015681565 -0.035701107 -0.0025666426 -0.0061453534 -0.034452822 0.00023401885
0.019292783 0.013243172 -0.048442237 -0.04728032 0.019317528 0.024081798 -0.032123964 0.07409177
-0.053400114 0.0038397969 -0.027496677 0.061876163 0.072182216 0.013481839 0.026836295 0.011394997
-0.025485924 0.04016427 0.014201073 -0.06704472 -0.05378127 0.038756154 -0.0415886 -0.04306463
0.07299762 -0.032594595 -0.023460533 -0.030044144 -0.035685908 -0.0036354177 -0.07887095 0.035240885
-0.0025998903 -0.071500674 0.08180306 0.012377484 0.041057482 0.0667501 0.047877297 0.05560051
0.070806675 -0.032685224 0.019666724 -0.030002031 0.075094216 -0.019428581 0.07514977 0.045048866
-0.041242275 0.06591216 -0.016432898 0.026702618 -0.07606021 0.08324604 -0.030843882 0.052995708
-0.01720036 -0.045027465 0.066003494 -0.06778467 0.03280972 -0.07118304 0.053126197 -0.05014695
0.016059024 0.007880711 -0.05868069 0.047952242 0.064778835 -0.043542866 0.06090724 0.044515476
-0.07343828 -0.005289102 -0.025186103 0.0028026127 0.037815243 0.034434445 0.027749442 -0.044580586
-0.047748957 0.031262007 -0.018732741 -0.061554726 -0.024571357 0.042034954 0.07849261 -0.011968642
-0.082164824 0.015936332 0.06554674 0.010781617 -0.04458396 -0.029888906 0.07681118 0.026509589
-0.008019012 -0.05695119 0.013600038 -0.027296217 -0.009033057 0.034759067 0.035704087 -0.021576192
0.008690487 0.057283357 0.07318074 -0.031574033 -0.017367028 -0.07799165 0.06536776 -0.07790255
00000000: 92e4 2b3d f933 213d d1da c13c caab 303d
00000010: 8ed0 23bd a5c7 a33d f709 9bbd c236 293d
00000020: 2cc1 1ebd c02b 653d a2e2 38bd 4f40 a13d
00000030: beae 91bd bf62 0c3d f501 67bd 81d2 d03c
00000040: d7a1 9bbd c100 98bd ffed 9bbd 8caf cbbb
00000050: 30e0 89bc 9865 933b bd98 83bd 31a8 423d
00000060: 0f39 97bd f810 963d 00b6 673c 0415 eb39
00000070: e232 4dbc 12e7 9b3d d0b4 9cbd 9d3e 843c
00000080: 943e fd3c d256 3fbd 3061 9cbc 54fa 9a3d
00000090: 5be5 673d 2bbb 85bd 81cd cd3b 7ae2 1c3d
000000a0: 3144 aabd 1ce3 7fbd fef0 9f3d 098e 683d
000000b0: bd6e 9cbd 681c 4b3d 0ca0 4cbd 8597 ab3c
000000c0: 1c2c 18bb c4d8 653d 9486 a0bd 98ce 983d
000000d0: 1fb8 6d3b 09f6 683d 9780 c13c b30f 3bbd
000000e0: ba14 cc3b 0a57 013d 0706 823d e094 a83b
000000f0: 4de9 383d 8b25 4abc e5b0 3fbd 8d2e 83bc
00000100: 968c 5b3d 3d8e 993c 8d29 093d 68fc a23d
00000110: e51a 943d 5420 bdbc c151 143d e30e ea3c
00000120: 7f59 5fbd 55e2 773c 034c 123b 1602 893d
00000130: 1d5f 243d 9b58 01bd 8ade 5f3d 641f c13c
00000140: e058 ad3c dab1 023c fecb 663d d94c a03d
00000150: 33c5 a53d 3cf1 a23d 28f3 5bbd b46a 41bc
00000160: 87e3 80bd 153d 59bd 5b09 f53c 3039 173d
00000170: 2548 2b3c 3505 3fbc 2acf 97bd 5ab4 3fbb
00000180: 58b3 3fbd a3ad 6e3d c3a5 13bd 7e94 81bd
00000190: be53 debc f784 ad3c 5e17 d0bc 16fc 9c3d
000001a0: 57dc 7bbd fbf6 683d 479f 193d 0593 893d
000001b0: 4e2e 963d 18aa 2abd d526 b4ba 8cab 62bd
000001c0: fe60 3e3d 72b4 2dbd 4861 5abd 4009 5a3a
000001d0: e5a6 0fbd 9ee5 8cbd 03da 16bd 68d3 7ebc
000001e0: c89e 92bd 3e3f 75bd e1e4 79bd 37f3 a7bd
000001f0: f547 763c 1c24 81bc 08ea 333d 8790 67bc
00000200: a145 143d 2181 c1bc 15b9 88bd a9ac 47bd
00000210: a468 a43d f9b6 ea3c 30d1 8fbc 9f8c b13b
00000220: 1f1b 303d 3861 1a3d a076 803c 533b 12bd
00000230: 1e35 28bb f65e c9bb 671e 0dbd f562 7539
00000240: e60b 9e3c e4f9 583c 5e6b 46bd 02a9 41bd
00000250: cb3f 9e3c 3147 c53c 6b94 03bd 6dbd 973d
00000260: 14ba 5abd 1aa5 7b3b b640 e1bc dc71 7d3d
00000270: 45d4 933d eee2 5c3c cad7 db3c 15b2 3a3c
00000280: dbc7 d0bc 4a83 243d 9eab 683c be4e 89bd
00000290: c049 5cbd c6be 1e3d cf58 2abd 8a64 30bd
000002a0: c77f 953d e981 05bd 4e30 c0bc 231f f6bc
000002b0: 632b 12bd 3040 6ebb 1887 a1bd bf58 103d
000002c0: ec62 2abb f26e 92bd 5d88 a73d eeca 4a3c
000002d0: e42b 283d 47b4 883d fc1a 443d 5cbd 633d
000002e0: 1703 913d f1e0 05bd 1c1c a13c d2c6 f5bc
000002f0: ffca 993d b028 9fbc 1fe8 993d 2985 383d
00000300: a9ed 28bd f4fc 863d 499e 86bc 73bf da3c
00000310: 75c5 9bbd e67c aa3d 4fac fcbc 0712 593d
00000320: c5e7 8cbc b86e 38bd d72c 873d b0d2 8abd
00000330: 7c63 063d 6ac8 91bd db9a 593d e366 4dbd
00000340: 378e 833c 191e 013c 2a5b 70bd 9269 443d
00000350: c4aa 843d 015a 32bd df79 793d dc55 363d
00000360: cf66 96bd 3450 adbb 1653 cebc 0aac 373b
00000370: 28e4 1a3d 220b 0d3d cc52 e33c 229a 36bd
00000380: 6994 43bd 970c 003d 6875 99bc cf20 7cbd
00000390: df49 c9bc d82c 2c3d bcc0 a03d 1f18 44bc
000003a0: 0846 a8bd e98c 823c 5f3d 863d 61a5 303c
000003b0: ac9d 36bd 94d9 f4bc 2e4f 9d3d a32a d93c
000003c0: 2d62 03bc a745 69bd b2d2 5e3c 519c dfbc
000003d0: 63ff 13bc 865f 0e3d 733e 123d 8ec0 b0bc
000003e0: 8b62 0e3c f4a1 6a3d c9df 953d c653 01bd
000003f0: 4c45 8ebc 16ba 9fbd 88df 853d 5f8b 9fbd
