Puff-Net/model/embedding_iter_10000.pth (torch, 396327 bytes, 2 tensors)

proj.weight f4 [512, 3, 8, 8]
000000 6b 07 3d 3d e6 cb 47 3d 70 14 ec 3c 9d bb 8f 3c
       0.046149652 0.048778437 0.02881834 0.017545516
000010 9c 10 97 3d 6a 03 d1 3c a8 9d c5 3c 3d 78 87 bd
       0.07376215 0.025514323 0.024123028 -0.066147305
000020 16 19 29 3d 66 de 02 bd 5e 56 40 bc 84 95 b3 bc
       0.04128369 -0.031950377 -0.011739342 -0.02192188
000030 f1 64 e5 bc f1 d5 30 3d cb d8 fc 3a 46 f1 60 3c
       -0.028002234 0.04317278 0.0019290684 0.013729399
000040 4b f7 4d 3d 97 28 c6 3c 9f 2d 49 3c bb 7e 1e bd
       0.050284665 0.024189277 0.012278943 -0.03869508
000050 f8 e3 bb 3c b6 0b 36 bd 48 93 6b bd e4 e2 6f 3c
       0.022935852 -0.044444762 -0.057513505 0.014641497
000060 b5 81 24 3c 3a 38 82 bd cd 25 2d 3d 2e ac 88 3c
       0.01004069 -0.063583806 0.042272378 0.016683664
000070 51 5d 09 3d 58 12 97 bc 1d fb e9 3c 60 18 52 3d
       0.03353626 -0.018441364 0.028562123 0.051292777
000080 6f 38 0f 3d 85 05 99 3d 38 5e 1d bd 68 21 95 3c
       0.03496593 0.07471756 -0.038419932 0.018204406
000090 c1 fa 1b 39 8f db c3 3c 68 67 5b 3d b3 6f 5d 3c
       0.00014875365 0.023908405 0.053565413 0.013515401
0000a0 d6 9e 40 bd 8a 5a 3f bd 7e 44 1e bd 49 3f 86 bd
       -0.047026478 -0.046717204 -0.038639538 -0.065550394
0000b0 5c 3b 71 3d 6d c7 8f bc 19 50 09 3d 40 47 91 bd
       0.0588945 -0.017551148 0.033523653 -0.07093668
0000c0 dd 59 3b 3b f2 c5 89 3b e6 19 4e 3d ca 7f 60 3b
       0.0028587498 0.004204505 0.050317667 0.0034255856
0000d0 2e b4 82 3d 8d a5 94 bb ab b7 24 bd b3 a9 eb bc
       0.06382023 -0.0045363368 -0.040214222 -0.028767442
0000e0 02 88 4b 3c eb 70 36 3d 13 cb 88 bc 6d 2c 25 b9
       0.0124225635 0.04454128 -0.016698396 -0.00015752176
0000f0 c2 c3 88 3d 6c 0e 7e 3d 5c 7b 7b bd 91 ba 40 bd
       0.06677963 0.062025473 -0.06139694 -0.047052924
000100 ff 1e 71 3d ae c7 7e 3c bc df 9d bb 3d 05 81 bd
       0.05886745 0.015550537 -0.004817931 -0.06299827
000110 89 23 12 bd 1b d1 54 bd 23 c8 57 3d 3c 29 95 3c
       -0.03567842 -0.05195723 0.0526811 0.018208139
000120 46 05 25 3d 01 51 55 bd 50 96 a2 bc 88 58 64 bd
       0.040288232 -0.052079204 -0.019847065 -0.055748492
000130 f0 89 0c bd 33 02 07 3c b3 e0 cd bc df 97 2c bc
       -0.034311235 0.00824027 -0.025131559 -0.010534256
000140 19 15 e7 3b 65 5f ca 3b 40 a3 68 bc ca 61 7e 3c
       0.0070520756 0.0061759227 -0.014199078 0.015526244
000150 ac 72 4e 3d 12 fb 98 bc 0a 42 d9 b9 06 c3 68 bd
       0.05040233 -0.018674407 -0.00041438668 -0.056826614
000160 db 0f 1b bd 89 a6 6f 3d e1 5a 52 bd b9 56 00 3d
       -0.037856918 0.05850843 -0.0513562 0.031332705
000170 05 ec 7d bd 5e 53 68 3d 97 3c ba bc 2c 10 a1 bc
       -0.061992664 0.05672013 -0.02273397 -0.019661032
000180 b7 e8 27 bd e2 cc 9b bc 67 ca 61 3d 86 f8 2a bd
       -0.04099342 -0.019018594 0.055124667 -0.041740917
000190 00 e5 c5 3b ad 12 83 3d a2 ed 28 bd cc 1a 36 3d
       0.006039262 0.064000465 -0.04124225 0.04445915
0001a0 cb 0f 14 3d c8 95 55 bd 1e 82 27 3d 67 fc 54 3d
       0.036147874 -0.052144796 0.040895574 0.051998522
0001b0 a8 a7 66 3d 11 a4 96 bd 7c 8d 3b bd 72 7f 57 bd
       0.056312233 -0.07355512 -0.045789227 -0.052611776
0001c0 d2 59 95 bd 04 80 8e bd 46 b4 d4 bb 81 b8 1d 3d
       -0.072925225 -0.06958011 -0.006491217 0.038506035
0001d0 a2 a2 c2 3c c4 9b 81 bb 47 e6 65 3d b8 f3 ad bc
       0.02375919 -0.0039553363 0.056127813 -0.021234378
0001e0 ab 54 ee 3c a9 d3 90 3c 62 7f f3 bc 57 a0 82 3c
       0.029093107 0.017679052 -0.029723827 0.015945597
0001f0 16 ae e8 bc 7c a2 87 bc a4 06 8c bb 3f a7 1a bd
       -0.028403323 -0.01655697 -0.0042732526 -0.037757155
000200 42 5a 23 bd f3 11 97 3d fc e2 55 3d 26 6c 0d bd
       -0.039881 0.073764704 0.052218422 -0.034526967
000210 e4 ab 41 bd 19 4e fa 3c 01 8e ea bb 08 e4 60 3d
       -0.04728307 0.030554818 -0.0071580415 0.054904968
000220 78 81 91 3b ac 37 9d 3c 60 f6 de bc cb ac 88 bd
       0.0044404827 0.019191585 -0.02721709 -0.06673583
000230 23 74 39 3d 7f a8 41 3d 76 a5 79 bd fc 18 84 bd
       0.045276772 0.04727983 -0.06094881 -0.06450078
000240 c2 3e 30 bd 53 ed 41 3d 0f 25 13 3d cc c6 84 bb
       -0.0430286 0.04734547 0.035924014 -0.0040520187
000250 16 67 41 3d c5 8b ce 37 63 ab 82 3d f8 d1 2f 3d
       0.04721745 2.4622199e-05 0.06380346 0.04292485
000260 64 84 3a bd 14 84 41 3b 96 6f 24 3c f5 89 b8 3c
       -0.045536414 0.0029528188 0.01003637 0.02252672
000270 ef 0e 3f bd 30 0b 18 3d 9a 6a 94 3d ff 5b 83 3d
       -0.0466451 0.037120044 0.07246895 0.06414031
000280 70 c0 52 3c fd 1c 57 bd 1f 94 a4 bc 68 f0 9c bd
       0.0128632635 -0.05251788 -0.02009016 -0.07663041
000290 f8 31 67 bc 2a 10 12 bd d9 45 1e bd a2 d5 80 bd
       -0.014111035 -0.035659947 -0.03864083 -0.06290747
0002a0 32 45 e4 3c 34 03 25 3b c0 a1 89 bd d9 0a ac 3c
       0.027865026 0.0025178911 -0.067203045 0.021001266
0002b0 7d e1 e2 bc 1f 34 70 bc ca 60 6e bc f6 c6 20 bc
       -0.027695412 -0.014660864 -0.0145494435 -0.009813061
0002c0 0d 73 ab bc 17 6f 5a bd 5d 1f 24 bd e5 27 65 3d
       -0.020928884 -0.0533286 -0.040068973 0.05594625
0002d0 ed 85 6a 3d 8e 78 64 bc 79 e7 3a bd a9 48 54 3d
       0.057256628 -0.013944758 -0.045630906 0.051827107
0002e0 56 a7 10 bc fd 92 7c bd 6d 25 d6 bc 95 ac a5 bb
       -0.0088289585 -0.061663616 -0.026140893 -0.005055974
0002f0 32 d9 50 3d 75 fc 92 3d 71 d6 8c bd de 5b 61 3d
       0.050988384 0.071770586 -0.06876839 0.055019252
000300 87 2e 4a bd cc cd 98 bb b9 c2 7c 3d 73 39 89 bd
       -0.04936078 -0.004663205 0.06170914 -0.06700411
000310 d2 a2 93 bd 3a aa 57 bd a9 2f 41 3d d4 4c 14 3d
       -0.0720879 -0.052652575 0.047164593 0.03620608
000320 f9 fb 19 3d b5 89 37 3d 48 2e 06 bd 0e 3a 4c 3c
       0.037593815 0.044809062 -0.03275898 0.012465013
000330 8a f0 ee bb 03 46 95 bd d2 02 0d bd a6 2b 8e bd
       -0.007291858 -0.07288744 -0.034426518 -0.06941919
000340 c8 cd 2d 3c f8 c1 70 3c ba e3 05 3c b7 28 07 3c
       0.010608144 0.014694683 0.00817197 0.008249453
000350 29 34 a4 bc f4 1d 99 bc 18 d2 00 3d e5 cc 07 bc
       -0.020044403 -0.01869104 0.03145036 -0.008288597
000360 78 49 a0 3c e0 10 92 3d fe 29 ee bc 2a 73 7f bd
       0.019566283 0.07132125 -0.029072758 -0.06236569
000370 12 6e 9d 3d 0e 6e 8d 3c d0 d6 ff 3c 38 1c 97 3d
       0.0768701 0.017264392 0.03123036 0.07378429
000380 0a ca 07 bc 9b b7 c8 bc 41 96 9c bc 9c 42 c1 bc
       -0.008287916 -0.024501612 -0.019114615 -0.023591332
000390 fb 43 94 3c 0d 4f a2 bd 39 70 61 3d 39 c0 89 3c
       0.018098822 -0.07925234 0.055038664 0.016815292
0003a0 03 aa 84 bd a4 2e 21 bd 66 08 87 bd 86 ab 9a 3d
       -0.0647774 -0.03935112 -0.06593399 0.07552247
0003b0 8b 7d ee 3b cb f1 8e bd 29 57 38 bd c2 9c 0f bd
       0.0072781495 -0.06979712 -0.045004997 -0.035061605
0003c0 c1 24 86 bd a6 9e 16 3d 46 4c 88 bd ad 4a 64 3d
       -0.06549979 0.036772393 -0.06655173 0.05573528
0003d0 36 f6 0f bd ff a2 8f 3d b0 d3 e0 3b 00 b1 57 bc
       -0.035146914 0.07013511 0.0068611726 -0.013164759
0003e0 40 5e 7f bd f8 78 d6 3c 87 03 18 3d 3e 99 63 3d
       -0.062345743 0.02618073 0.03711274 0.055566065
0003f0 af 01 87 bd c6 4c 1c 3d 73 f8 50 3d ec f3 9c 3d
       -0.06592118 0.038159154 0.05101819 0.07663712

proj.bias f4 [512]
000000 db 9e 6a 3d cb 6f 4e 3d a4 c5 cb 3c 19 23 82 3d
       0.057280403 0.050399583 0.024874516 0.063543506
000010 4f e5 90 bd c4 ac d0 3d b5 25 bc bd ba dc 82 3d
       -0.07074987 0.101892024 -0.091868795 0.063897565
000020 29 87 70 bd c4 00 a2 3d 1a 1c 82 bd bf a9 c7 3d
       -0.05872265 0.07910302 -0.06353016 0.097491734
000030 e2 85 b2 bd 36 c1 47 3d 67 0d 92 bd ae 07 dc 3c
       -0.08716942 0.048768245 -0.071314625 0.02685913
000040 4b d7 c6 bd d7 54 cf bd 99 7d b6 bd 48 4d c1 bc
       -0.097090326 -0.10123604 -0.089106746 -0.02359642
000050 ca b0 59 bc c4 87 47 3c 6a 9b a5 bd ce 47 52 3d
       -0.013286779 0.012178365 -0.080862835 0.05133801
000060 3d 7d b0 bd 24 d1 b3 3d 0d 4b f7 3c d6 db a8 3b
       -0.08617637 0.08780125 0.030187154 0.0051531596
000070 90 ba c6 3b 83 b5 ce 3d d3 1b d0 bd 99 3a 98 3b
       0.0060647205 0.10093214 -0.10161557 0.0046456573
000080 e9 b1 f4 3c 08 f4 2d bd 15 fe 8c bc 31 7b c7 3d
       0.02986999 -0.042469054 -0.017211 0.09740294
000090 c8 87 9b 3d b7 94 a4 bd 5a 0c 2c 3c 86 f6 48 3d
       0.075942576 -0.080361776 0.010500992 0.049063228
0000a0 e2 b8 d5 bd a2 f7 9a bd 3e a5 c4 3d 77 02 a2 3d
       -0.10435654 -0.075667635 0.0960183 0.079106264
0000b0 f1 03 af bd c0 2d 8c 3d 15 01 89 bd de 4f a0 3c
       -0.08545674 0.068446636 -0.066896595 0.019569334
0000c0 54 f7 9e bc e5 dd 93 3d 14 7f c6 bd 9c d4 af 3d
       -0.019405045 0.072200574 -0.09692207 0.08585474
0000d0 38 39 80 3c 95 66 83 3d 00 b2 66 3c 2e 48 5e bd
       0.015652284 0.0641605 0.014080524 -0.054268055
0000e0 1c 81 d1 3c e5 3b 6c 3d f6 ba ac 3d 70 3d 63 3c
       0.02557426 0.057674307 0.084340975 0.013869628
0000f0 82 45 75 3d 5e 95 70 bc 1c e3 88 bd ee 6b b9 bc
       0.05988074 -0.014684049 -0.06683943 -0.022634473
000100 17 e2 85 3d 8d 32 ab 3c 1a 18 1b 3d b5 c0 c9 3d
       0.06537264 0.020898128 0.037864782 0.09851209
000110 72 4b bb 3d 0f e9 16 bd c5 52 84 3d d3 08 2c 3d
       0.091452494 -0.036843356 0.064610995 0.042000603
000120 ff b8 89 bd 08 9a e7 3c 8d 72 c9 3b 37 48 a3 3d
       -0.06724738 0.02827169 0.0061476887 0.07972758
000130 7c ff 60 3d f5 58 22 bd c4 51 6b 3d 66 6d 40 3d
       0.05493115 -0.039635617 0.057451025 0.04697933
000140 07 9a fb 3c 3c 35 e1 3c a7 54 93 3d dd c8 d2 3d
       0.030713094 0.027491204 0.071938805 0.10292218
000150 ab aa da 3d 61 6f c4 3d e7 82 98 bd 10 c2 ad bb
       0.106770836 0.09591556 -0.07446843 -0.005302675
000160 86 38 93 bd b4 32 93 bd bc d1 b4 3c 49 63 65 3d
       -0.07188515 -0.07187405 0.022072665 0.05600289
000170 25 35 96 3c c5 df d7 bc 28 46 c3 bd bc 56 2b bc
       0.018335888 -0.026351819 -0.095348656 -0.010457691
000180 ca 69 2b bd c1 14 8d 3d ae 91 57 bd 3f 17 af bd
       -0.041848935 0.06888724 -0.052629165 -0.08549356
000190 42 8b 5b bd 2d 02 ab 3c a5 cb 28 bd fc 21 c5 3d
       -0.053599603 0.02087506 -0.041209836 0.09625623
0001a0 8a 00 9e bd 26 35 9e 3d 2a e2 74 3d e5 82 ab 3d
       -0.077149466 0.07724981 0.059786 0.083745755
0001b0 70 d9 af 3d a6 48 53 bd 0d 4e 4f bc 44 7b 9d bd
       0.08586395 -0.051582955 -0.012652886 -0.07689527
0001c0 ad cd 6a 3d 76 fa 7f bd 8a 61 6c bd 77 11 ed bb
       0.057325054 -0.062494718 -0.057710208 -0.007234748
0001d0 cb c5 1a bd 6b d9 b9 bd 35 ba 2a bd 66 df c1 bc
       -0.037786286 -0.09074672 -0.041681487 -0.023666095
0001e0 0d cb b6 bd 3e 0b a1 bd c6 56 8f bd 3e 01 d3 bd
       -0.089254476 -0.078634724 -0.069989726 -0.10302971
0001f0 76 b5 c8 3c 9e 69 9b bc 99 e0 7a 3d 39 a7 ba bc
       0.02450059 -0.01897126 0.06124935 -0.022784816
000200 af b7 f5 3c c0 7a 24 bd c8 35 af bd 54 94 81 bd
       0.029994814 -0.040156126 -0.0855518 -0.063271195
000210 a5 1f c8 3d da 9e ee 3c b6 7c ef bc 83 8d d3 3b
       0.09771661 0.02912848 -0.029234271 0.0064560785
000220 82 aa 6c 3d e8 7c 5a 3d c9 c6 af 3c 6f 52 61 bd
       0.057779796 0.053341776 0.021457093 -0.055010255
000230 98 6e a8 bb 11 63 74 bc 22 25 26 bd 2a 59 5b 3c
       -0.005140137 -0.014916197 -0.040562756 0.013387958
000240 61 0e b0 3c 79 5d 07 3d 31 8b 7f bd 6e c4 80 bd
       0.021491231 0.033048127 -0.062388603 -0.06287466
000250 86 64 f3 3c 72 26 d9 3c 6e 3d 36 bd 72 13 bf 3d
       0.02971102 0.02650759 -0.044492178 0.09329881
000260 d4 21 82 bd f2 66 ad 3c 6f c3 0e bd 6f 77 8f 3d
       -0.063541085 0.021167252 -0.03485435 0.07005202
000270 d7 66 a6 3d 51 b5 70 3c 17 8b 8e 3c 41 f3 89 3c
       0.08125084 0.014691667 0.017400308 0.016839625
000280 84 f9 df bc 42 b7 4b 3d 00 ba 9f 3c 79 1e a0 bd
       -0.027340658 0.049735315 0.019497871 -0.07818312
000290 b2 ef 95 bd 50 09 41 3d f6 9b 0b bd 6e 2b 8e bd
       -0.07321109 0.04712802 -0.034084283 -0.06941877
0002a0 cc d1 9b 3d 83 6f ef bc 24 6d 01 bd 1b 40 3d bd
       0.07608375 -0.029227978 -0.031598225 -0.046203714
0002b0 cf 0a 55 bd 22 0d 88 bc 9e 87 ba bd 5d f4 74 3d
       -0.05201226 -0.016607825 -0.09107898 0.059803355
0002c0 12 89 85 3b 9e 66 bf bd fb 92 d3 3d 34 a2 3e 3c
       0.004075178 -0.093457446 0.10330769 0.011635352
0002d0 05 4c 45 3d 91 ec a5 3d 2f 5a 80 3d 1f e7 4c 3d
       0.0481682 0.08101762 0.06267201 0.0500251
0002e0 0f 7b ad 3d 7f c2 50 bd 45 1c 78 3c 99 0b 2a bd
       0.08470737 -0.050966736 0.015143459 -0.041514967
0002f0 41 04 cd 3d 95 e4 1a bd 6c 88 b2 3d 0d 3c 6d 3d
       0.10010577 -0.03781565 0.08717427 0.057918597
000300 7f 94 77 bd 79 4a 8d 3d bd 7c 27 bc 21 55 cc 3c
       -0.06044435 0.0689897 -0.010222611 0.024942936
000310 84 47 c7 bd 6a 6b d0 3d b9 16 50 bd 0c e4 5f 3d
       -0.097304374 0.101767376 -0.05080292 0.05466084
000320 c4 de b9 bc 5c b1 77 bd 06 b1 9a 3d 70 cf b6 bd
       -0.02268923 -0.060471877 0.07553296 -0.08926284
000330 8e 1c a9 3c 17 da a4 bd 8d ee 94 3d 5b 52 7d bd
       0.020643499 -0.0804941 0.072720625 -0.06184612
000340 47 7b ce 3c 8e 3e 8a 3c d5 27 9e bd 28 77 75 3d
       0.025205268 0.016875532 -0.07722441 0.05992809
000350 8c da 9d 3d 6b f0 44 bd 83 22 98 3d 01 df 61 3d
       0.077077 -0.048080843 0.074284576 0.055144314
000360 aa 52 ad bd 02 03 13 3c 69 1e 28 bd e5 43 4e 3c
       -0.084630325 0.008972885 -0.041044626 0.0125894295
000370 b9 ad 57 3d 11 87 43 3d 9f e9 25 3d 71 34 4f bd
       0.05265591 0.04773623 0.040506 -0.05058712
000380 29 19 86 bd b8 9a 41 3d 92 46 8e bc 7d 8f 93 bd
       -0.06547768 0.047266692 -0.017367635 -0.072051026
000390 35 de ae bc 31 b7 79 3d 44 95 c4 3d c9 9c af 3b
       -0.021346191 0.06096572 0.09598783 0.0053592664
0003a0 8e 7c d1 bd e6 1f 01 3d 00 31 9c 3d 12 0b 0f 3c
       -0.10228835 0.03152456 0.076265335 0.008730667
0003b0 9c e1 52 bd 4b b2 4b bd 66 47 b6 3d b9 0d 0d 3d
       -0.05148469 -0.04973058 0.08900337 0.034436915
0003c0 07 78 00 bc 3b 8e 96 bd b7 ad ce 3c f3 58 bb bc
       -0.007841117 -0.07351347 0.025229318 -0.022869563
0003d0 90 c1 02 bd 71 de 3b 3d a1 8a 29 3d 74 06 14 bd
       -0.031922877 0.045866434 0.041391972 -0.036138967
0003e0 25 04 48 3c 87 2b a3 3d 51 d0 b9 3d db 1c 57 bd
       0.012208019 0.079672866 0.09072936 -0.052517753
0003f0 06 38 2e bd 10 64 d1 bd 01 ba b6 3d 63 43 af bd
       -0.042533897 -0.102241635 0.08922196 -0.08557775
